outputs/DD_Hie/model.pth (torch, 362454 bytes, 13 tensors)

bias f4 [128]
0.013018422 -0.014273639 0.008410102 0.037183348 -0.0038032625 0.03626458 0.028665 0.058616765
-0.013113526 -0.013496749 0.0030340073 0.0022008298 0.06271908 -0.0063676885 -0.011901348 0.044516474
0.022025006 0.06963996 0.018221138 0.009749176 0.004498169 -0.0048129205 -0.010450944 0.005773428
0.017634634 -0.004863099 0.038833447 -0.028996078 -0.011085994 0.008270975 0.036012974 -0.005381081
-0.054382186 -0.0089908615 0.06648638 0.04140118 -0.004497765 0.030805364 -0.030037763 0.04078978
-0.00879498 0.016337592 -0.010998515 0.0152904745 -0.0016802714 -0.011837555 0.007815412 0.05479079
-0.008382852 0.03836727 0.0361445 0.0038950027 0.013775105 -0.026751433 0.022485431 -0.006721557
-0.039370365 0.053911615 0.042695154 0.043635547 0.050226193 0.024865085 0.0032477505 -0.023885125
0.026744196 0.005019537 0.052199375 -0.010196092 0.031802732 0.014715557 0.05084122 0.04308687
0.026816906 0.027243255 0.055668157 0.043676063 0.047509257 -0.0024512496 0.024960916 -0.023871873
-0.014085857 -0.025178358 0.042372677 -0.01623353 0.014484408 -0.018381357 0.016590843 0.038043365
-0.018567627 -0.025098853 -0.0027898857 0.03772143 0.012883206 -0.046414588 0.06427739 0.044585526
-0.0011423023 -0.0040981597 0.059909012 -0.018911391 0.008890282 -0.00908562 -0.022330884 0.024955291
0.04520026 -0.0029684291 0.048622746 0.056609817 0.054880697 0.05479502 -0.043572467 -0.008594451
-0.03502745 0.03427765 0.02860429 0.032775484 -0.0067185923 0.0015869316 0.0541222 -0.010304549
0.041691527 0.004453541 0.028945476 0.055061243 0.020656198 0.043240722 -0.029273039 0.04880608
00000000: 384b 553c fbdb 69bc 86ca 093c 914d 183d
00000010: 2840 79bb 2b8a 143d ddd2 ea3c 2218 703d
00000020: 1dda 56bc 7821 5dbc 32d6 463b cc3b 103b
00000030: dc72 803d 0ba8 d0bb dffd 42bc e856 363d
00000040: c96d b43c 659f 8e3d 7f44 953c 02bb 1f3c
00000050: 6065 933b b4b5 9dbb 703a 2bbc 062f bd3b
00000060: 8276 903c a25a 9fbb d20f 1f3d 2f89 edbc
00000070: 07a2 35bc fc82 073c 5782 133d c753 b0bb
00000080: dbbf 5ebd 684e 13bc 032a 883d 4994 293d
00000090: fd61 93bb 885b fc3c c111 f6bc 2f13 273d
000000a0: d218 10bc 6ad6 853c 1e33 34bc e684 7a3c
000000b0: 8d3c dcba 4ef2 41bc 370c 003c 4f6c 603d
000000c0: 3b58 09bc 0027 1d3d 410c 143d 4d43 7f3b
000000d0: fab0 613c d225 dbbc 5e33 b83c 8240 dcbb
000000e0: d242 21bd 6dd2 5c3d 1de1 2e3d 30bb 323d
000000f0: fbb9 4d3d ddb1 cb3c 36d8 543b bdaa c3bc
00000100: a516 db3c ee7a a43b 03cf 553d 820d 27bc
00000110: 9543 023d 8519 713c e23e 503d dc7b 303d
00000120: 21af db3c 3f2d df3c 4b04 643d ace5 323d
00000130: 1199 423d 25a5 20bb d67a cc3c f28e c3bc
00000140: 5ec8 66bc d842 cebc f98e 2d3d 2efc 84bc
00000150: 0350 6d3c 8094 96bc 85e9 873c 5cd3 1b3d
00000160: 231b 98bc 1c9c cdbc 84d6 36bb c981 1a3d
00000170: 1514 533c 391d 3ebd dda3 833d 509f 363d
00000180: 4eb9 95ba db49 86bb 2763 753d 10ec 9abc
00000190: 8ca8 113c dadb 14bc 42ef b6bc 0a6f cc3c
000001a0: e823 393d fa89 42bb a528 473d b2df 673d
000001b0: 95ca 603d be70 603d 0b79 32bd bdcf 0cbc
000001c0: f278 0fbd b966 0c3d 8b53 ea3c 963f 063d
000001d0: a327 dcbb 9700 d03a 3daf 5d3d 69d4 28bc
000001e0: bcc4 2a3d 02ef 913b 101f ed3c e687 613d
000001f0: 3037 a93c 2f1d 313d 03ce efbc e2e8 473d

weight f4 [128, 89]
-0.15066937 -0.016257662 0.020051295 0.102172695 -0.064266026 -0.18914394 -0.020691913 -0.07775672
-0.07150962 0.17791153 0.0063455044 -0.15016977 0.14620292 0.014763142 -0.035437826 -0.006382486
-0.06788153 0.02885394 -0.27522972 0.04602579 -6.2723644e-05 -7.1665127e-06 1.0027252e-26 -8.493202e-05
3.887986e-05 9.427482e-05 -0.12532507 -3.1246913e-05 0.00012345548 -0.022680713 -0.016315226 -1.12377165e-05
2.0397574e-05 -0.09119602 2.2216868e-26 0.00012945525 5.8522096e-06 2.5324554e-05 4.3592536e-06 4.270542e-06
-0.001974894 8.175728e-21 -2.1771332e-18 5.368489e-07 -1.6192774e-19 9.3375064e-08 -1.3192074e-24 -2.718044e-11
1.5063938e-11 -7.793373e-26 -0.00055877864 4.072135e-14 0.04645768 0.00067665736 0.00010825048 3.0289808e-08
5.1105213e-05 -0.0050948523 0.00043149848 -1.7345351e-09 2.266152e-06 -0.09407303 -3.9983377e-05 8.205752e-06
-0.23006962 5.4175847e-18 0.00015553582 -0.04501198 -0.01662351 -6.8315635e-06 0.00017657102 -8.81667e-05
2.4453494e-23 -4.524346e-05 0.004085168 0.0526564 4.3080072e-05 -0.00080208806 -1.3908571e-05 0.00093182275
5.0382505e-25 0.19761562 1.9365011e-07 -0.027972013 0.0011044419 0.000108253844 1.8722787e-21 -0.03607624
-0.0069672326 0.06492402 -0.17235994 0.060896926 0.17813316 0.034966383 0.17776352 0.21399212
-0.050676778 -0.047872562 0.00660113 -0.12281381 0.19160007 -0.038388312 0.032750156 0.050009016
-0.042888697 0.04288672 -0.13690054 -0.044608388 -0.029594269 -0.00083955575 1.8454421e-06 -2.0389609e-05
-7.0317335e-05 -4.0010354e-19 -0.00048869726 -0.0711054 -1.9165651e-10 -8.791763e-09 -0.04737749 -0.11845223
-5.523319e-18 -1.0304057e-05 -0.1265906 -2.4859e-20 0.0027367305 -9.30736e-05 -4.81029e-06 -0.0013260515
-0.00012458545 -0.0013589049 -2.6800823e-08 0.01281272 -5.2368727e-13 -0.000101918624 1.1264047e-09 5.6288024e-18
-6.4249734e-06 -1.0788325e-19 -0.00053216424 -9.359541e-05 -4.0471903e-08 0.18754439 -0.0013811869 0.108413935
-4.865442e-06 7.74511e-25 -0.013859064 -0.0057159574 4.6816507e-14 -4.6490423e-25 -0.051460125 -5.069404e-05
0.00016466164 0.15409091 -2.429166e-07 7.109739e-06 -0.04567764 -0.00016178993 -0.00044811977 -0.11064707
-1.704745e-24 3.093436e-06 -8.134844e-05 0.1441908 0.02892742 -6.749276e-06 0.0009822538 3.0433172e-18
-0.0006074539 -0.010841008 -0.02059873 -2.8496283e-05 -0.03844799 -0.0071014035 0.00075812923 1.8570697e-25
-0.062514715 -0.023488285 -0.120451786 0.038427517 0.21685484 -0.012940802 -0.13895625 0.25150287
0.0010745331 0.09543152 -0.04308418 -0.13399018 -0.07046298 0.0022072736 -0.16503698 0.23020351
0.096193366 0.12621173 0.14845692 0.008687999 -0.007803169 0.08450766 -0.00059689995 0.0008320854
-6.6046864e-06 3.9488077e-06 -0.00042164625 -0.029749325 -0.16777055 1.13865435e-05 -4.913338e-05 -0.11205338
-0.13291389 -5.3316864e-05 -7.3260286e-05 -0.08786867 -3.9423594e-05 -0.00024770605 -8.511857e-05 -0.026295587
-0.0017471324 -2.678217e-06 -0.0648985 2.8960604e-24 0.0005572187 -4.1492415e-10 -6.2786145e-05 6.0707245e-23
-1.0863594e-06 -7.3241705e-16 1.20971e-05 5.727469e-05 0.00012795285 2.3529002e-15 0.05580833 -0.00015348276
0.05060571 8.5723105e-15 -0.0015021518 -0.006683562 -0.002740283 -7.65883e-05 -2.8096401e-05 0.004282671
-4.3072134e-05 0.0050024595 0.045117103 -0.0072593675 3.7713044e-06 -0.05771888 -0.0615909 -0.0018390707
-8.93483e-05 -7.997147e-24 -5.7388634e-06 2.2113381e-05 0.11485046 0.047529884 -0.0029245608 0.0014725291
00000000: 1249 1abe ca2e 85bc 9d42 a43c eb3f d13d
00000010: e89d 83bd f3ae 41be 1682 a9bc ea3e 9fbd
00000020: a373 92bd 712e 363e f3ed cf3b 1bc6 19be
00000030: 38b6 153e 1be1 713c 4127 11bd 2c24 d1bb
00000040: 7905 8bbd 195f ec3c e9ea 8cbe 8a85 3c3d
00000050: 808a 83b8 e077 f0b6 359c 4614 881d b2b8
00000060: ef12 2338 69b5 c538 3755 00be 1e0f 03b8
00000070: d473 0139 e7cc b9bc 82a7 85bc a089 3cb7
00000080: 751b ab37 fbc4 babd 7406 dc14 61be 0739
00000090: 195e c436 1170 d437 b445 9236 ad4b 8f36
000000a0: 396d 01bb 656f 1a1e e2a4 20a2 fa1b 1035
000000b0: a82b 3fa0 7c85 c833 3023 cc97 e914 efad
000000c0: f980 842d 5ff4 c095 007b 12ba 8564 3729
000000d0: 694a 3e3d b561 313a 8904 e338 ff17 0233
000000e0: ce59 5638 b8f2 a6bb bf3a e239 8764 eeb0
000000f0: 3214 1836 5ca9 c0bd d3b3 27b8 70ab 0937
00000100: 5f97 6bbe a4df c722 5417 2339 7b5e 38bd
00000110: 072e 88bc af3a e5b6 ec25 3939 23e6 b8b8
00000120: eb7f ec19 ccc3 3db8 dfdc 853b 3dae 573d
00000130: e0b0 3438 3843 52ba dc58 69b7 9145 743a
00000140: 22ed 1b17 c05b 4a3e 23ee 4f34 9025 e5bc
00000150: ecc2 903a 5706 e338 2377 0d1d aec4 13bd
00000160: 624d e4bb e2f6 843d 207f 30be 0e6f 793d
00000170: 8a68 363e e938 0f3d a407 363e c020 5b3e
00000180: 7492 4fbd 0516 44bd 4b4e d83b cf85 fbbd
00000190: cf32 443e 103d 1dbd 0725 063d 41d6 4c3d
000001a0: 0fac 2fbd fca9 2f3d a82f 0cbe 49b7 36bd
000001b0: ae6f f2bc a215 5cba e8b0 f735 5a0a abb7
000001c0: 5577 93b8 f02d eca0 eb1b 00ba b59f 91bd
000001d0: 83ba 52af 950a 17b2 e60e 42bd 1597 f2bd
000001e0: 46c6 cba2 96df 2cb7 f7a0 01be 60c9 ea9e
000001f0: b85a 333b 8230 c3b8 1468 a1b6 e8ce adba
00000200: 27a3 02b9 481d b2ba a237 e6b2 71ec 513c
00000210: a567 13ab 25bd d5b8 d8cf 9a30 89aa cf22
00000220: 1a96 d7b6 6cbb fe9f f080 0bba a748 c4b8
00000230: 54d3 2db3 a30b 403e f108 b5ba 2008 de3d
00000240: d441 a3b6 15b3 6f17 2111 63bc ed4c bbbb
00000250: c2d7 5229 82e1 0f97 dac7 52bd 50a0 54b8
00000260: 06a9 2c39 02ca 1d3e 346a 82b4 3190 ee36
00000270: 7a18 3bbd 27a6 29b9 9ef1 eab9 ee9a e2bd
00000280: f4e5 0398 d398 4f36 9c99 aab8 c1a6 133e
00000290: 32f9 ec3c d777 e2b6 f8be 803a a38e 6022
000002a0: 8b3d 1fba 7c9e 31bc abbe a8bc 4d0b efb7
000002b0: a47b 1dbd e4b2 e8bb 31bd 463a e3e4 6516
000002c0: b707 80bd 816a c0bc 6daf f6bd 2c66 1d3d
000002d0: 320f 5e3e a805 54bc 8c4a 0ebe fcc4 803e
000002e0: 59d7 8c3a 9a71 c33d 0a79 30bd b934 09be
000002f0: e54e 90bd e8a7 103b 74ff 28be 78ba 6b3e
00000300: 0701 c53d a63d 013e 1705 183e 1c58 0e3c
00000310: bab1 ffbb 5a12 ad3d 4779 1cba 4e20 5a3a
00000320: d39d ddb6 0080 8436 6710 ddb9 dbb4 f3bc
00000330: 0bcc 2bbe d508 3f37 9114 4eb8 3e7c e5bd
00000340: 941a 08be 8ca0 5fb8 51a3 99b8 7df4 b3bd
00000350: c35a 25b8 8bde 81b9 af81 b2b8 d869 d7bc
00000360: 0900 e5ba 6bbb 33b6 81e9 84bd 6312 6018
00000370: 5012 123a 621b e4af 0eac 83b8 f7c7 921a
00000380: 06cf 91b5 d71a 53a6 a6f4 4a37 3b3a 7038
00000390: 152b 0639 598b 2927 4797 643d 37f0 20b9
000003a0: ef47 4f3d ce6c 1a28 dae3 c4ba c801 dbbb
000003b0: 5296 33bb 089e a0b8 90b0 ebb7 a655 8c3b
000003c0: 5aa8 34b8 aceb a33b b6cc 383d fddf edbb
000003d0: 8416 7d36 a26a 6cbd bd46 7cbd f90c f1ba
000003e0: 8160 bbb8 f4af 1a99 7690 c0b6 2080 b937
000003f0: b836 eb3d b2ae 423d fda9 3fbb e101 c13a

bias f4 [128]
-0.017553179 -0.03242803 -0.018396283 -0.0074711964 -0.022899274 -0.010506151 0.018598279 0.031546507
-0.020660507 -0.043171793 0.024446845 -0.034839932 0.055017434 -0.008328716 -0.010683043 0.005687626
4.1183743e-23 0.06855009 -0.0087161055 -0.010492581 -0.0010658585 -0.013878187 -0.016286168 -0.0031827898
0.009924462 -0.009158032 0.029209215 -0.016768547 -0.013868878 -0.016116504 0.011689646 -0.024210425
-0.027000863 -0.01479144 0.067002445 0.0092691695 -0.037212957 0.0065542823 -0.008042124 0.008919915
-0.030078795 -0.004135318 -0.012431487 0.043034043 -0.00406359 -0.031107454 -0.007854882 0.040477578
-0.033360455 0.005509303 0.0034319586 -0.0029756231 -0.033903785 0.0068379347 -0.008334598 -0.021322269
-0.025747221 0.04262819 0.0013193812 0.012835493 0.019256394 0.00356865 -0.005616435 -0.0010013068
0.0091362735 -0.017962277 0.04707648 0.0015312039 -0.012458104 -0.003031453 0.035969235 0.0033552272
0.026519552 -0.025733493 0.043874055 0.031415287 0.037284143 -2.2786991e-05 0.066097185 -0.040297367
-0.015496901 -0.02757404 0.050124213 -0.034730118 0.02674943 -0.036515944 -0.017360687 0.0013021266
-0.0005260969 0.007554896 0.005100867 0.025587952 -0.017200503 -0.00840867 0.019192286 0.034374475
-0.018030148 0.0032418994 0.0078123147 -0.01792684 -0.00845 0.009309093 -0.02869018 -0.0073505514
0.05273928 -0.02048088 0.034859616 0.014718701 0.058538742 0.029427962 0.010191694 -0.023727113
-0.0021549447 0.0016526078 -0.0027934255 0.030203043 -0.033829182 0.0026198344 0.0031302238 -0.025095541
0.031887583 -0.030747743 -0.013485344 0.04780551 0.0024105785 0.009587368 -0.015464681 0.05308376
00000000: afcb 8fbc 41d3 04bd cdb3 96bc f0d0 f4bb
00000010: 4297 bbbc fe21 2cbc 6b5b 983c e936 013d
00000020: 3940 a9bc e8d4 30bd c044 c83c 51b4 0ebd
00000030: f659 613d 2b75 08bc ee07 2fbc 445f ba3b
00000040: 0127 471a fd63 8c3d ffcd 0ebc 13e9 2bbc
00000050: 47b4 8bba 5661 63bc 926a 85bc 5a96 50bb
00000060: 369a 223c 920b 16bc 2a48 ef3c 315e 89bc
00000070: 4a3a 63bc c206 84bc ee85 3f3c f154 c6bc
00000080: ea30 ddbc cc57 72bc 9438 893d b7dd 173c
00000090: 9d6c 18bd 4ec5 d63b 1dc3 03bc d624 123c
000000a0: ce67 f6bc 9081 87bb 70ad 4bbc 7744 303d
000000b0: dd27 85bb 0fd5 febc c3b1 00bc d1cb 253d
000000c0: f9a4 08bd 6287 b43b b6ea 603b ac02 43bb
000000d0: b2de 0abd c110 e03b d68d 08bc 0aac aebc
000000e0: d6eb d2bc e69a 2e3d 16ef ac3a f64b 523c
000000f0: 96bf 9d3c 03e0 693b 120a b8bb 483e 83ba
00000100: 4fb0 153c a025 93bc 44d3 403d adb2 c83a
00000110: 131d 4cbc 57ab 46bb 7a54 133d 5fe3 5b3b
00000120: 883f d93c 0ccf d2bc 48b5 333d 51ad 003d
00000130: 42b7 183d b126 bfb7 f65d 873d da0e 25bd
00000140: b7e6 7dbc f4e2 e1bc 0c4f 4d3d 2b41 0ebd
00000150: 9f21 db3c be91 15bd 0038 8ebc 1eac aa3a
00000160: c4e9 09ba 108f f73b 2c25 a73b d39d d13c
00000170: 12e8 8cbc 85c4 09bc 2439 9d3c 40cc 0c3d
00000180: f6b3 93bc 0c76 543b 72fe ff3b 4fdb 92bc
00000190: de71 0abc 2a85 183c ab07 ebbc e5dc f0bb
000001a0: 2505 583d 85c7 a7bc f5c8 0e3d b526 713c
000001b0: 52c6 6f3d e912 f13c 10fb 263c 5d5f c2bc
000001c0: f939 0dbb 519c d83a e711 37bb 5f6c f73c
000001d0: 7890 0abd 87b1 2b3b 7124 4d3b 2a95 cdbc
000001e0: 8e9c 023d b1e2 fbbc a2f1 5cbc b6cf 433d
000001f0: ccfa 1d3b 5614 1d3c 935f 7dbc 5b6e 593d

weight f4 [128, 128]
-0.025008721 -0.03643549 0.014563677 -0.061303854 -0.018783001 0.054397177 0.12912472 0.0861107
0.06780393 -0.09055235 -0.016764252 0.0356593 0.017564885 0.006949769 -0.2902515 0.017033843
-0.05285547 -0.064233616 0.14015906 -0.13537826 -0.116121456 -0.079952516 0.027279805 0.08024314
0.01589768 -0.04722418 0.01861229 -0.062109057 -0.17111531 -0.1437919 0.088996805 -0.022164421
0.098732434 -0.013147856 0.12635207 0.052999504 -0.0069202962 0.11213443 -0.14305383 0.07151605
-0.15151474 -0.06006672 0.030041644 0.054918878 0.1679222 0.0035161984 -0.08951748 -0.1089908
-0.038407188 -0.08738009 -0.021108788 -0.15864287 -0.10459135 -0.009404473 0.03293094 -0.107294746
-0.047324833 0.02463405 -0.06801217 -0.024525397 0.13758375 -0.06392874 -0.006318362 -0.02865247
-0.092476375 -0.0117198005 -0.05646247 -0.12816007 0.061829165 -0.059548613 0.124229714 0.027837731
0.0022338745 -0.052700117 0.10144882 0.12677231 -0.08950304 -0.11609534 -0.13111265 -0.01140586
0.0715432 -0.08008162 -0.019371808 -0.081022285 -0.03501842 -0.10640512 -0.085818864 0.056948494
-0.079761066 -0.15483253 -0.037661955 0.036109738 0.03225617 0.11797475 0.11159812 -0.03566638
-0.12511514 -0.09334757 0.04113325 -0.120647244 -0.121942796 -0.028009636 0.051183555 -0.07936523
-0.041006733 0.00029206544 0.088039786 0.025500782 0.0827287 -0.02507836 -0.08716899 0.028223962
0.09470978 0.041907556 0.05816565 -0.0748098 -0.18856722 -0.10507002 -0.06357512 -0.031337928
-0.10827855 -0.0053770784 0.02478556 0.047550727 0.110828914 -0.08056089 -0.0564367 -0.008580537
0.07826253 0.06602522 -0.012082111 0.09636293 0.0572602 0.02672322 -0.017808491 0.049758505
0.06316391 0.043848716 -0.022553036 0.015100799 0.05841974 0.013144342 0.1940899 0.008807548
0.041052677 -0.09613955 0.059778113 0.04226414 0.06763175 0.073118925 0.12514621 0.033417325
0.0044706557 0.073845685 -0.044300802 0.09791737 -0.0102603305 0.09270189 0.003989232 0.10080175
-0.032991815 0.12449489 0.04330301 0.041691203 0.06700759 -0.038542353 0.16307655 0.030388283
0.041503645 0.12303617 -0.05721078 -0.0025567187 0.02859946 0.11160681 0.09027097 -0.023111273
-0.0440065 0.029834783 0.035801463 0.01615001 0.03691354 0.08787101 -0.046089303 0.09012926
0.22374822 -0.05123424 -0.018106679 0.010999868 0.08132891 0.02758605 0.060398336 0.0733686
-0.03621278 0.08135059 0.013069646 0.16774489 0.066233814 -0.14177375 -0.015351632 0.10056472
0.039583918 0.14705056 -0.113618955 0.033400897 0.02521613 0.21291417 0.010563565 0.19290328
0.16756794 0.10355197 0.101528056 -0.029098848 -0.06457327 0.16173986 -0.031739112 0.12146156
0.06904095 0.14048433 -0.076958194 -0.04557547 0.05731488 0.08166864 0.0050276048 0.016941756
-0.028002411 -0.0070840265 -0.031864163 0.11070036 0.045729518 -0.031426594 0.167567 0.020031262
-0.054185018 0.12659931 -0.054079205 -0.0051144282 -0.038646866 -0.067996964 0.14004369 0.1618463
0.1963413 0.08965373 0.03208685 0.06585758 0.09540588 0.1263989 0.06622593 -0.0642031
-0.06867397 0.077884495 0.048300795 0.06239087 0.082051665 0.017965252 0.103078425 -0.019031722
00000000: 17df ccbc 613d 15bd 7d9c 6e3c c019 7bbd
00000010: cfde 99bc 93cf 5e3d 4539 043e cf5a b03d
00000020: c9dc 8a3d 8373 b9bd 2f55 89bc 7c0f 123d
00000030: 3ce4 8f3c e3ba e33b d89b 94be 8f8a 8b3c
00000040: fa7e 58bd ea8c 83bd db85 0f3e 99a0 0abe
00000050: 16d1 edbd 25be a3bd e679 df3c 8456 a43d
00000060: da3b 823c 246e 41bd cd78 983c 1166 7ebd
00000070: da38 2fbe 2f3e 13be f543 b63d 2992 b5bc
00000080: 3b34 ca3d 1b6a 57bc 7062 013e 0216 593d
00000090: a7c3 e2bb bca6 e53d b47c 12be 0277 923d
000000a0: ae26 1bbe 8508 76bd e519 f63c 9ef2 603d
000000b0: ccf3 2b3e 0570 663b f154 b7bd 9236 dfbd
000000c0: db50 1dbd 55f4 b2bd 56ec acbc 4773 22be
000000d0: fd33 d6bd 3815 1abc 98e2 063d 59bd dbbd
000000e0: afd7 41bd 59cd c93c f749 8bbd 7ce9 c8bc
000000f0: c1e2 0c3e 12ed 82bd 430a cfbb 96b8 eabc
00000100: 4164 bdbd 6804 40bc 3145 67bd 653c 03be
00000110: 9440 7d3d 3fe9 73bd 266c fe3d f40b e43c
00000120: 3266 123b 14dc 57bd 66c4 cf3d 9ad0 013e
00000130: 5f4d b7bd 65c3 edbd 6542 06be a5df 3abc
00000140: 3e85 923d d501 a4bd a0b1 9ebc 03ef a5bd
00000150: 7a6f 0fbd edea d9bd cdc1 afbd d342 693d
00000160: c559 a3bd 6b8c 1ebe 6c43 1abd cee7 133d
00000170: 0c1f 043d bf9c f13d 8e8d e43d e916 12bd
00000180: 2f1e 00be 032d bfbd 577b 283d e715 f7bd
00000190: 25bd f9bd 7774 e5bc d9a5 513d 3d8a a2bd
000001a0: adf6 27bd 5c20 9939 344e b43d 04e7 d03c
000001b0: aa6d a93d 2271 cdbc a885 b2bd f035 e73c
000001c0: 33f7 c13d 42a7 2b3d 1b3f 6e3d e135 99bd
000001d0: c417 41be f32e d7bd ac33 82bd 335c 00bd
000001e0: 25c1 ddbd 3432 b0bb 160b cb3c 8dc4 423d
000001f0: 45fa e23d 1cfd a4bd 2b2a 67bd 6195 0cbc
00000200: 1b48 a03d 3b38 873d 0cf4 45bc ee59 c53d
00000210: ac89 6a3d a7ea da3c 1de3 91bc 93cf 4b3d
00000220: 145c 813d b69a 333d 25c1 b8bc 5769 773c
00000230: 8a49 6f3d 5e5b 573c 81bf 463e 894d 103c
00000240: da26 283d d0e4 c4bd e5d9 743d 2a1d 2d3d
00000250: 8482 8a3d 60bf 953d 5426 003e 9be0 083d
00000260: 947e 923b 683c 973d c274 35bd e788 c83d
00000270: f21a 28bc 7dda bd3d 1ab8 823b 2671 ce3d
00000280: 6d22 07bd 2df7 fe3d 7f5e 313d 65c4 2a3d
00000290: 463b 893d 96de 1dbd 8afd 263e d9f0 f83c
000002a0: baff 293d 63fa fb3d da55 6abd 9f8e 27bb
000002b0: 6a49 ea3c 1c92 e43d fcdf b83d da53 bdbc
000002c0: 2940 34bd 1368 f43c 8ea4 123d 074d 843c
000002d0: a732 173d b7f5 b33d 23c8 3cbd b195 b83d
000002e0: 411e 653e ffda 51bd 7554 94bc ca38 343c
000002f0: c68f a63d 24fc e13c 3f64 773d 4742 963d
00000300: da53 14bd 239b a63d 1222 563c 51c5 2b3e
00000310: 98a5 873d 232d 11be 6985 7bbc e0f4 cd3d
00000320: bf22 223d 6c94 163e 0eb1 e8bd 61cf 083d
00000330: 0f92 ce3c 2c06 5a3e ce12 2d3c 7088 453e
00000340: ee96 2b3e 0e13 d43d f1ed cf3d b560 eebc
00000350: fe3e 84bd 229f 253e df00 02bd d7c0 f83d
00000360: 5765 8d3d 20db 0f3e 429c 9dbd 58ad 3abd
00000370: 02c3 6a3d e341 a73d 9bbe a43b 70c9 8a3c
00000380: 5065 e5bc 1f21 e8bb ff83 02bd dfb6 e23d
00000390: e04e 3b3d 2cb9 00bd af96 2b3e 9a18 a43c
000003a0: 1cf1 5dbd 40a3 013e 2882 5dbd ef96 a7bb
000003b0: 2d4c 1ebd fe41 8bbd 9d67 0f3e 09bb 253e
000003c0: b20d 493e 609c b73d 806d 033d 57e0 863d
000003d0: 2864 c33d b76e 013e 76a1 873d ea7c 83bd
000003e0: f0a4 8cbd e881 9f3d 0ed7 453d 928d 7f3d
000003f0: b40a a83d dd2b 933c c81a d33d 6ae8 9bbc

bias f4 [128]
-0.010735194 -0.018932993 0.024310902 -0.014440449 -0.04218535 -0.00020620108 0.018521426 -0.0006328987
-0.028619653 -0.024881339 -0.0029083726 0.029946582 0.042556416 0.028947651 -0.011204521 -0.0036044463
-0.026740666 -5.8434926e-25 -0.016116831 -0.017705847 0.00010389572 -0.0058852606 -0.031340983 -0.013202572
-0.0001400686 -0.022879705 -0.0010382389 -0.026014596 0.0018109203 -0.009616789 0.00031985118 -0.008652401
-0.033767246 -0.004255874 -0.0014950595 -0.0003749596 -0.0042294497 0.0026520442 -0.021712884 -0.0003376929
-0.022214899 0.038998444 0.016601497 0.029159877 -0.01659584 -0.0015098264 -0.001963682 -0.004307803
-8.7997215e-08 -0.008527227 -0.00035905544 -0.017501997 -0.00039580063 -0.001024144 -0.0005732947 -0.018805832
-0.025890863 0.005178582 -0.0057604862 0.0076669147 -0.00089602976 -0.00048822915 -0.0007853238 -0.03518985
0.025209973 -0.031071972 -0.0076474072 0.0006581408 0.021005027 7.0348673e-25 0.029748868 0.039105337
0.017466785 -0.032938644 0.03282788 -0.010589582 0.06636758 -0.03190964 -0.019096086 -0.02747112
-0.029189127 -0.021275705 0.039781224 -0.022692483 0.014274677 -0.0107552055 0.030104004 -0.010709233
-0.016575126 -0.020320727 -0.026280785 0.020422274 -0.0054520485 -0.02174415 0.058664694 0.05113429
-1.3649347e-07 -0.0047398764 0.021872103 -2.526897e-10 -0.0044757267 -0.018384375 -0.011795452 -0.005128364
0.030581491 -0.006512528 0.017166577 -0.00019462717 0.041287605 -0.0041789566 -0.025682122 -0.021187164
-0.009977927 -0.005083438 -0.00094174856 0.023771524 -0.003919939 -0.050681632 0.0013003809 -0.01111375
0.024629807 -0.029148348 -0.016073402 0.03475433 -0.021050377 -0.011833162 -0.002043605 -0.005500432
00000000: abe2 2fbc 5d19 9bbc a827 c73c a297 6cbc
00000010: 8cca 2cbd ae37 58b9 3fba 973c 1de9 25ba
00000020: c373 eabc f3d3 cbbc 659a 3ebb 8952 f53c
00000030: a34f 2e3d a023 ed3c 2b93 37bc 9338 6cbb
00000040: 3e0f dbbc ebd8 3497 7207 84bc da0b 91bc
00000050: 97e2 d938 25d9 c0bb 675f 00bd 9a4f 58bc
00000060: 61df 12b9 386e bbbc 8415 88ba 901c d5bc
00000070: 675c ed3a bd8f 1dbc b3b1 a739 cdc2 0dbc
00000080: 864f 0abd dc74 8bbb dff5 c3ba 3a96 c4b9
00000090: 3297 8abb ebcd 2d3b 38df b1bc 600c b1b9
000000a0: 05fc b5bc d5bc 1f3d ddff 873c b2e0 ee3c
000000b0: 00f4 87bc 5ee5 c5ba 1eb1 00bb 7928 8dbb
000000c0: fbf8 bcb3 c8b5 0bbc 9b3f bcb9 5960 8fbc
000000d0: 7683 cfb9 923c 86ba 2849 16ba b00e 9abc
000000e0: 1319 d4bc 18b1 a93b 76c2 bcbb be3a fb3b
000000f0: 8ae3 6aba 02f9 ffb9 30de 4dba 3b23 10bd
00000100: 2585 ce3c a68a febc 1a97 fabb 1587 2c3a
00000110: bc12 ac3c f6b7 5917 e6b3 f33c eb2c 203d
00000120: 8116 8f3c acea 06bd 8776 063d ed7f 2dbc
00000130: baeb 873d afb3 02bd 656f 9cbc 1d0b e1bc
00000140: 091e efbc 634a aebc a3f1 223d 96e5 b9bc
00000150: 56e0 693c 9a36 30bc ac9c f63c c775 2fbc
00000160: 8fc8 87bc a777 a6bc cd4a d7bc 9d4c a73c
00000170: 19a7 b2bb ca20 b2bc 644a 703d 3072 513d
00000180: 0a8f 12b4 f750 9bbb 202d b33c eaea 8aaf
00000190: 1ea9 92bb d49a 96bc b641 41bc d60b a8bb
000001a0: 0986 fa3c 0b67 d5bb eca0 8c3c d514 4cb9
000001b0: 311d 293d a1ef 88bb 5063 d2bc b490 adbc
000001c0: 767a 23bc f892 a6bb addf 76ba 80bc c23c
000001d0: d572 80bb 8b97 4fbd 8b71 aa3a 7216 36bc
000001e0: 73c4 c93c 84c8 eebc 5eac 83bc 8e5a 0e3d
000001f0: d771 acbc e1df 41bc 01ee 05bb f83c b4bb

weight f4 [128, 128]
-0.09642662 -0.0063980897 0.058533248 0.055820208 0.042051908 0.057966985 0.026361784 -0.06668045
0.1099116 0.08793995 -0.02900648 -0.026298529 0.09873325 -0.019420395 0.12547876 0.018736888
-3.1727084e-06 -0.020374408 0.13325112 -0.04870239 -1.0564259e-24 -0.07911893 0.008968693 -0.09828129
-0.10083511 0.086894326 0.031559862 -0.0073270597 0.007436922 0.13550714 0.022849396 0.07353692
0.10186628 0.114370264 0.007373159 0.041651525 0.011064414 -0.10973339 -0.0068343356 -0.03908721
0.061369553 -0.047037866 0.048527066 -0.045948286 0.006479732 -0.020224996 -0.14686671 -0.049600773
0.07688227 0.11249839 0.0035116118 -0.030695058 0.040241048 0.07508461 0.11293729 0.008449033
-0.07096323 -0.086841576 0.02251955 0.04690448 0.027745133 -0.07504523 0.10887923 -0.08575986
0.0022951567 0.088466145 -0.015467564 0.014999914 -0.011195328 0.06588138 0.047749233 0.05341688
0.019138364 -0.043816224 -0.0057410095 0.038675718 0.08166627 2.2303035e-25 -0.008584117 0.11318509
-0.091602266 -0.08488148 0.020243641 0.08006598 0.04898453 0.10596449 0.07589216 0.038869724
-0.12523678 -0.08415758 -0.12770247 0.05563593 0.18825446 -0.03995543 0.004819777 0.007496629
2.1211561e-07 0.015339801 0.02196324 -0.11638542 0.13624093 -0.05797402 -0.055478793 0.04153421
-0.074758224 -0.049132336 -0.024363365 -0.05922721 0.013096635 0.049647417 -0.0690574 0.010716353
-0.15626185 0.07836893 0.06788419 0.04403964 0.06090841 -0.023681177 -0.0581978 -0.17601657
-0.0059656086 0.03493322 0.06304832 -0.060994476 -0.17944436 -0.07870162 0.03730861 -0.04896288
-8.516894e-07 -2.218403e-06 3.4482492e-10 -0.0046330197 1.7358823e-05 -0.015865523 -0.0017245742 -0.0013403255
3.9762576e-06 -0.0032030684 0.0018701805 -3.0381852e-05 -0.056714468 3.3284723e-06 -1.400326e-10 -0.0080903815
-4.665513e-23 0.0009673902 8.098308e-20 -0.0034746141 5.1077433e-21 7.6816696e-07 4.4625785e-14 -1.7648255e-05
1.6826452e-22 3.5018216e-15 -0.0041151014 -1.4777068e-10 2.0838579e-05 1.3938048e-06 0.01854904 -2.8671861e-06
1.999037e-06 2.5871281e-17 0.00089197076 -0.0021056188 -9.743516e-07 -1.4521159e-20 1.3297625e-22 0.00933267
-1.375178e-05 -1.10252125e-16 -5.7501313e-07 0.0001815096 -4.9928687e-05 -0.00010479879 -3.1275836e-13 0.016614007
-1.5024865e-08 -0.006113049 -0.01557964 5.206549e-20 -9.519087e-06 -5.458387e-06 -0.00050359295 -0.00016382661
-0.00021398063 0.02856435 0.013104862 0.022879375 0.032001223 -0.003407769 4.6974628e-14 -2.8608666e-22
0.0017241103 -3.8235987e-05 -0.018769918 -0.002319704 0.01277279 -3.9568715e-08 -0.03249121 -0.003287521
-0.0063724485 6.211369e-05 0.028868884 0.023073295 0.017511893 5.2774393e-16 0.014738859 0.00045167858
0.0003742052 2.4254296e-05 0.036424648 7.287053e-05 0.0018224207 0.0032892325 -6.9877497e-16 -0.008940651
-2.1298823e-22 -3.4827344e-06 2.1309823e-18 -0.0013771555 -2.849729e-07 4.713671e-09 0.007495345 -0.017854936
8.396021e-13 -1.2035512e-05 -0.012850998 2.9062694e-09 -2.0125653e-06 -3.079392e-06 -1.6582851e-07 -0.00079688657
-0.038628433 0.00012761429 0.03495191 -0.0038980267 -0.05061488 -0.018334793 -1.9190591e-09 -1.2848358e-07
-4.329538e-21 -0.014029499 -0.0030737314 0.017969163 -4.9460974e-05 1.704777e-21 0.006544927 2.8034305e-05
0.004295463 1.0959142e-13 -0.00039227764 -0.024823185 3.737741e-17 -0.015179263 4.040175e-05 -0.0049430807
00000000: 527b c5bd 11a7 d1bb 8fc0 6f3d bba3 643d
00000010: 9f3e 2c3d ca6e 6d3d abf4 d73c c38f 88bd
00000020: 5519 e13d dc19 b43d ff9e edbc 0370 d7bc
00000030: a834 ca3d 8517 9fbc 817d 003e 1a7e 993c
00000040: b7ea 54b6 3be8 a6bc fb72 083e 287c 47bd
00000050: 5779 a397 1b09 a2bd 6df1 123c b347 c9bd
00000060: a382 cebd a7f5 b13d ea44 013d d517 f0bb
00000070: 6cb1 f33b 62c2 0a3e a82e bb3c 869a 963d
00000080: 459f d03d f53a ea3d 8a9a f13b ca9a 2a3d
00000090: 8447 353c e6bb e0bd 90f2 dfbb e919 20bd
000000a0: a45e 7b3d c7aa 40bd 51c4 463d 4534 3cbd
000000b0: ef53 d43b e4ae a5bc 3a64 16be 2e2a 4bbd
000000c0: 7474 9d3d 8e65 e63d 1223 663b 3474 fbbc
000000d0: ccd3 243d f6c5 993d aa4b e73d d06d 0a3c
000000e0: 2c55 91bd ffd9 b1bd eb7a b83c e91e 403d
000000f0: c349 e33c 50b1 99bd 13fc de3d dea2 afbd
00000100: 576a 163b bd2d b53d aa6b 7dbc 33c2 753c
00000110: 9c6c 37bc d1ec 863d b394 433d a9cb 5a3d
00000120: 0fc8 9c3c a478 33bd 141f bcbb 6e6a 1e3d
00000130: a540 a73d 920c 8a16 65a4 0cbc 96cd e73d
00000140: f899 bbbd 57d6 adbd fed5 a53c a2f9 a33d
00000150: 01a4 483d e903 d93d 596d 9b3d dc35 1f3d
00000160: 123e 00be cf5a acbd 70c4 02be 80e2 633d
00000170: c7c5 403e 4ea8 23bd 38ef 9d3b 48a6 f53b
00000180: e5c1 6334 ca53 7b3c 41ec b33c 7b5b eebd
00000190: be82 0b3e 2a76 6dbd bb3d 63bd c71f 2a3d
000001a0: d71a 99bd fd3e 49bd ae95 c7bc 3b98 72bd
000001b0: 4593 563c 175b 4b3d f76d 8dbd a493 2f3c
000001c0: 1b03 20be e47f a03d de06 8b3d e962 343d
000001d0: 197b 793d 07ff c1bc d160 6ebd b03d 34be
000001e0: 277b c3bb 2316 0f3d 7a1f 813d 58d5 79bd
000001f0: 43c0 37be 512e a1bd ead0 183d 4d8d 48bd
00000200: a69f 64b5 e0df 14b6 cb91 bd2f 96d0 97bb
00000210: ca9d 9137 6af8 81bc 1c0b e2ba dcad afba
00000220: cb6b 8536 92ea 51bb d820 f53a 88dc feb7
00000230: 6e4d 68bd b85e 5f36 acf7 19af 858d 04bc
00000240: 419c 619a 7598 7d3a 4537 bf1f 5ab6 63bb
00000250: 10f7 c01d 0834 4e35 07fa 4829 570b 94b7
00000260: 596b 4b1b 3555 7c27 f9d7 86bb c079 22af
00000270: 82ce ae37 c512 bb35 28f4 973c e269 40b6
00000280: 3227 0636 d69e ee23 25d3 693a 6cfe 09bb
00000290: 77c6 82b5 0226 899e 28c2 201b 0ee8 183c
000002a0: 72b7 66b7 5e39 fea4 9a5a 1ab5 9d53 3e39
000002b0: 856a 51b8 6cc7 dbb8 3b11 b0aa 191a 883c
000002c0: 0710 81b2 f94f c8bb bf41 7fbc 51df 751f
000002d0: 2bb4 1fb7 3027 b7b6 8d03 04ba dfc8 2bb9
000002e0: fd5f 60b9 c9ff e93c c6b5 563c 876d bb3c
000002f0: b713 033d e054 5fbb 0f8e 5329 c4ed ac9b
00000300: 8bfb e13a 945f 20b8 5fc3 99bc 2d06 18bb
00000310: f744 513c 43f2 29b3 8115 05bd 7373 57bb
00000320: f9cf d0bb 0943 8238 707e ec3c 3504 bd3c
00000330: 1a75 8f3c a11c 1826 417b 713c 46cf ec39
00000340: f930 c439 b475 cb37 0332 153d 11d2 9838
00000350: 4bde ee3a 2a90 573b 7e68 49a6 cf7b 12bc
00000360: 55be 809b ecb8 69b6 1e3d 1d22 ac81 b4ba
00000370: 61fe 98b4 e3f5 a131 839b f53b 8444 92bc
00000380: b553 6c2b 21ec 49b7 fe8c 52bc a2b7 4731
00000390: 9c0f 07b6 8da7 4eb6 980e 32b4 27e6 50ba
000003a0: d938 1ebd 33d0 0539 bc29 0f3d 0976 7fbb
000003b0: 8c51 4fbd d932 96bc 72e0 03b1 4cf5 09b4
000003c0: b990 a39d fcdb 65bc a870 49bb 1134 933c
000003d0: 5174 4fb8 2fcf 001d d476 d63b 362b eb37
000003e0: f5c0 8c3b 27c7 f629 9daa cdb9 fe59 cbbc
000003f0: 755f 2c24 72b2 78bc 0c75 2938 91f9 a1bb

weight f4 [1, 128]
-0.021642774 -0.07475611 0.014661917 0.16918576 -0.04501912 0.16244556 0.12442864 0.2661351
-0.04094867 -0.04067852 -0.17095536 -0.19943956 0.32841587 -0.19864665 -0.13019383 0.25258502
-0.17046171 0.24326992 0.06846067 0.10626493 -0.2789723 -0.19568963 -0.22157583 -0.16516882
0.08410675 -0.09634224 0.2550359 -0.14396067 -0.20431425 -0.02694037 0.25755432 -0.100304395
0.04482015 -0.10898277 0.30616665 0.24695387 0.019511687 0.12019828 -0.121860005 0.29038754
0.0661529 -0.10784918 -0.14161342 -0.11778779 -0.1897376 -0.17745446 -0.21942337 0.23609544
-0.07758169 0.2672611 0.20018482 0.042358767 0.062618665 -0.2359286 0.10448413 -0.0040969956
0.020851487 0.27445003 0.24691541 0.2600275 0.20487018 0.2970134 -0.045665197 -0.0045180507
0.17250276 -0.18112981 0.27523032 0.042262767 0.20093393 -0.0654339 0.16272484 0.12584062
0.18393658 -0.28739616 0.2254772 0.23517047 0.29622847 -0.09608231 0.12134269 -0.02589723
-0.12481749 -0.12074606 0.31750727 -0.015853459 0.07036712 -0.13871339 -0.08154353 0.20271319
-0.05400932 -0.20372477 0.050777473 0.13087876 0.07678015 -0.2096956 0.24661945 0.14459935
-0.1074441 -0.16436726 0.25534844 -0.12981443 0.055037536 -0.11013244 -0.0036436955 0.15401118
0.13210769 -0.021476416 0.28487492 0.29270807 0.30805197 0.29601288 -0.08585549 -0.017981337
-0.21809892 0.17809449 0.1074079 0.18243505 -0.088700734 -0.21671145 0.28176832 0.089904495
0.20163603 -0.21621339 0.1140338 0.31772658 -0.14362305 0.22592391 0.008606093 0.19131051
00000000: 304c b1bc bb19 99bd 8a38 703c 083f 2d3e
00000010: f865 38bd 2158 263e 71d4 fe3d dc42 883e
00000020: cbb9 27bd 859e 26bd ec0e 2fbe e239 4cbe
00000030: 2026 a83e 076a 4bbe 8851 05be d352 813e
00000040: 848d 2ebe c01b 793e 1c35 8c3d 6da1 d93d
00000050: 75d5 8ebe dd62 48be c6e4 62be 0422 29be
00000060: 2940 ac3d 154f c5bd 1194 823e 6d6a 13be
00000070: c137 51be 0db2 dcbc 29de 833e 646c cdbd
00000080: 5595 373d 5c32 dfbd e0c1 9c3e 7ae1 7c3e
00000090: f9d6 9f3c 842a f63d bd91 f9bd adad 943e
000000a0: 2c7b 873d 08e0 dcbd 1c03 11be ba3a f1bd
000000b0: 934a 42be 9fb6 35be 85b0 60be 01c3 713e
000000c0: 26e3 9ebd 72d6 883e 40fd 4c3e 6380 2d3d
000000d0: 373e 803d 4497 71be c7fb d53d 1740 86bb
000000e0: bdd0 aa3c b784 8c3e 65d7 7c3e 5322 853e
000000f0: 7dc9 513e 2412 983e 6e0b 3bbd 280c 94bb
00000100: 90a4 303e 187a 39be fdea 8c3e b91b 2d3d
00000110: a0c1 4d3e 3502 86bd 57a1 263e 5ddc 003e
00000120: df59 3c3e 9725 93be 7fe3 663e 87d0 703e
00000130: 42ab 973e cdc6 c4bd 8482 f83d 6d26 d4bc
00000140: 50a0 ffbd b649 f7bd 5090 a23e 1ddf 81bc
00000150: a31c 903d e20a 0ebe 4b00 a7bd 0c94 4f3e
00000160: e038 5dbd 3a9d 50be 0afc 4f3d 1505 063e
00000170: e93e 9d3d 72ba 56be cf89 7c3e da11 143e
00000180: a70b dcbd e44f 28be 08bd 823e 13ee 04be
00000190: 0a6f 613d 1e8d e1bd 11cb 6ebb 1bb5 1d3e
000001a0: 3d47 073e 4fef afbc 20db 913e d5dd 953e
000001b0: fdb8 9d3e 008f 973e 01d5 afbd 994d 93bc
000001c0: 5355 5fbe 675e 363e acf8 db3d 41d0 3a3e
000001d0: bba8 b5bd 9be9 5dbe f043 903e d91f b83d
000001e0: ad79 4e3e 0b67 5dbe 8e8a e93d 0fad a23e
000001f0: ec11 13be 9958 673e 9200 0d3c e7e6 433e

weight f4 [128, 256]
-9.838657e-06 -0.0001931045 -0.00065410754 -0.0004982664 -1.7607581e-05 -0.00025610538 -0.0015951551 -0.0008142474
-3.7942216e-05 -8.230171e-05 -0.00036716776 -0.00028798642 -0.0038955202 -0.00045909223 -1.8222483e-05 -0.0005690574
-1.8424173e-05 -0.003399595 -5.6408117e-05 -0.00044128826 -0.00010484376 -9.3286566e-05 -7.699572e-06 -1.4151717e-05
-0.00014886398 -0.0001151153 -0.0018658844 -6.912996e-06 -0.00024463062 -0.00018898644 -0.0019016023 -1.1312443e-06
-5.1252955e-05 -3.567477e-05 -0.0029626482 -0.00042464456 -3.83627e-05 -0.0005721256 -2.926279e-05 -0.0012781451
-0.00032663834 -0.00023505292 -9.912556e-05 -0.0008328219 -0.00010175797 -8.755579e-06 -6.8486174e-06 -0.001764375
-7.5817254e-05 -0.0017788933 -0.00088883366 -0.00022317671 -1.8105116e-05 -1.8743143e-06 -0.00045191977 -0.00039621073
-0.0005444338 -0.0026475524 -0.001703961 -0.0022994601 -0.001227818 -0.00047096686 -6.75945e-06 -2.389383e-05
-0.0023201734 -0.0002078492 -0.0017392036 -6.3327905e-05 -0.0015562493 -3.517555e-05 -0.0031677966 -0.0020607673
-0.0021840136 -0.00020816008 -0.0032501116 -0.0017287646 -0.0034881192 -1.9361687e-05 -0.002195443 -0.00019395673
-9.5676485e-05 -0.00027699693 -0.0030844915 -0.00030775194 -0.0007891713 -6.151131e-05 -0.0003103283 -0.00032531575
-0.0002156177 -0.000592107 -0.0007832093 -0.0013650199 -2.7382293e-06 -2.0017292e-07 -0.0029445917 -0.0027644534
-9.505815e-06 -2.5806394e-06 -0.0028328737 -2.3966297e-06 -0.00017300989 -2.0806718e-05 -7.8731755e-05 -0.0007719356
-0.0029778273 -6.2296785e-05 -0.0028760268 -0.00075351266 -0.003353161 -0.0024577216 -1.7753808e-05 -0.00030136647
-3.520358e-05 -0.00051075633 -0.0001475369 -0.0012222808 -6.0321832e-05 -5.6747154e-05 -0.0015620984 -0.00029602146
-0.002013171 -9.433958e-05 -0.000447271 -0.0030913674 -0.00016718691 -0.0018266013 -1.9353645e-06 -0.0020409892
-1.0861029e-12 2.5960317e-12 -4.121296e-05 -2.9291348e-05 -5.6608134e-12 -1.1294068e-06 -0.00049407664 -0.00012151437
-5.1215503e-12 2.0194511e-10 -4.6575803e-07 -9.1163216e-08 -0.002913118 -2.7899753e-07 -3.851757e-12 -2.6991485e-05
5.693968e-14 -0.0022899753 8.0701e-12 -5.582822e-07 -6.4784406e-12 -5.6108057e-12 -8.1953926e-13 -4.734637e-12
-1.1434832e-11 -9.73229e-12 -0.00082978775 4.272526e-12 4.097783e-11 -2.0893087e-09 -0.0010484372 1.2420768e-12
-9.803418e-09 1.8889237e-12 -0.002082311 -2.1147394e-05 -4.849685e-12 -8.229716e-06 7.299237e-13 -0.00028937854
-8.325469e-07 7.097164e-12 8.580343e-12 -2.3821978e-05 -4.3637503e-11 -6.580821e-12 4.9002673e-12 -0.00072300987
-7.5428865e-12 -0.00067540223 -0.00015870607 2.1431269e-10 7.5728685e-12 -1.8585873e-12 -1.5737334e-06 -1.495389e-07
-1.4150093e-06 -0.0017323054 -0.0008053795 -0.001194683 -0.00032280988 -7.538438e-06 -3.5577218e-12 -1.1475058e-11
-0.001146313 5.796162e-11 -0.0008240889 -1.1378078e-12 -0.0005929379 5.793084e-12 -0.0023597542 -0.0010488038
-0.0009924066 4.681557e-12 -0.0021574104 -0.00064709206 -0.00262512 -9.143779e-12 -0.0009759719 -6.630678e-08
-5.9227415e-12 -2.9794197e-08 -0.0018677437 -3.5180441e-12 -0.00010763463 -4.9024977e-12 -4.0517884e-11 -9.087509e-08
-5.187496e-09 -1.1147491e-06 -6.682458e-06 -0.00031889995 2.2056896e-12 5.2944763e-13 -0.0021442738 -0.002106212
-8.470492e-12 -7.5836294e-13 -0.0017605184 -1.6781384e-12 -3.9507592e-10 -4.7600196e-12 -1.3232203e-11 -7.935715e-05
-0.002028532 3.7315086e-12 -0.0017613227 -0.00012369068 -0.0025706945 -0.0012942114 3.1756154e-13 -7.3669137e-09
7.038777e-13 -2.9915527e-05 -6.011729e-07 -0.00035472153 4.8668773e-12 -6.348257e-12 -0.00071709085 -9.3323074e-08
-0.00082223595 4.1581773e-12 -5.2781697e-06 -0.0023338657 1.6775267e-12 -0.00079904834 -3.220074e-12 -0.0011609853
00000000: b610 25b7 187c 4ab9 6a78 2bba 189e 02ba
00000010: feb3 93b7 e245 86b9 8614 d1ba 3873 55ba
00000020: 2524 1fb8 6599 acb8 6c80 c0b9 e2fc 96b9
00000030: fc4b 7fbb 51b2 f0b9 7cdc 98b7 cc2c 15ba
00000040: 9c8d 9ab7 bdcb 5ebb c197 6cb8 b55c e7b9
00000050: 91df dbb8 d8a2 c3b8 692d 01b7 296d 6db7
00000060: 5f18 1cb9 0e6a f1b8 b190 f4ba 2ff6 e7b6
00000070: c441 80b9 a92a 46b9 2f3f f9ba 42d5 97b5
00000080: 71f8 56b8 7ea1 15b8 fd28 42bb d4a2 deb9
00000090: a3e7 20b8 b3fa 15ba 5d79 f5b7 6f87 a7ba
000000a0: a840 abb9 8a78 76b9 a1e1 cfb8 bb51 5aba
000000b0: e566 d5b8 ede4 12b7 2dcd e5b6 9a42 e7ba
000000c0: 1400 9fb8 c129 e9ba 9e00 69ba 8b04 6ab9
000000d0: 71e0 97b7 f390 fbb5 a5ef ecb9 81ba cfb9
000000e0: 55b8 0eba 8f82 2dbb 7257 dfba 8ab2 16bb
000000f0: bcee a0ba 1aec f6b9 3ccf e2b6 9c6f c8b7
00000100: 0d0e 18bb 18f2 59b9 fdf5 e3ba e9ce 84b8
00000110: 10fb cbba 7689 13b8 cf9a 4fbb f00d 07bb
00000120: ab21 0fbb 8c45 5ab9 d3ff 54bb b797 e2ba
00000130: ee98 64bb e86a a2b7 6ce1 0fbb dd60 4bb9
00000140: eca5 c8b8 e639 91b9 2e25 4abb c459 a1b9
00000150: 64e0 4eba a2ff 80b8 8fb3 a2b9 248f aab9
00000160: 7017 62b9 a137 1bba 4950 4dba 78ea b2ba
00000170: 6cc2 37b6 1def 56b4 0dfa 40bb d52b 35bb
00000180: 2a7b 1fb7 0c2f 2db6 bca7 39bb c9d5 20b6
00000190: fd69 35b9 168a aeb7 ca1c a5b8 b95b 4aba
000001a0: a727 43bb 55a5 82b8 b97b 3cbb 6187 45ba
000001b0: b5c0 5bbb ba11 21bb 03ee 94b7 b900 9eb9
000001c0: 8ea7 13b8 47e4 05ba 23b4 1ab9 f034 a0ba
000001d0: 1302 7db8 cb03 6eb8 53bf ccba 5433 9bb9
000001e0: 68ef 03bb 2dd8 c5b8 b37f eab9 8a98 4abb
000001f0: e54e 2fb9 926a efba 4fe1 01b6 1ec2 05bb
00000200: fbda 98ab f3ad 362c 14dc 2cb8 b1b6 f5b7
00000210: 132c c7ac 1f96 97b5 ec84 01ba 88d5 feb8
00000220: d332 b4ac 7f0a 5e2f 4c0d fab4 82c5 c3b3
00000230: 03ea 3ebb 21c9 95b4 8b85 87ac c66b e2b7
00000240: 7e37 8029 6913 16bb 80f8 0d2d dcdc 15b5
00000250: 9bf0 e3ac a569 c5ac 07ae 66ab d295 a6ac
00000260: e829 49ad 5636 2bad 1d86 59ba 7e53 962c
00000270: ef38 342e 8293 0fb1 b76b 89ba 88ce ae2b
00000280: e36b 28b2 d3eb 042c 6277 08bb af65 b1b7
00000290: 14a2 aaac 5c12 0ab7 8c74 4d2b bbb7 97b9
000002a0: 307c 5fb5 92b5 f92c 6ef2 162d 4fd5 c7b7
000002b0: 76eb 3fae c48a e7ac af69 ac2c 5f88 3dba
000002c0: 24b2 04ad 7a0d 31ba 566a 26b9 a9a3 6b2f
000002d0: 2b39 052d 55c9 02ac 1139 d3b5 f190 20b4
000002e0: 59eb bdb5 860e e3ba 1a20 53ba e996 9cba
000002f0: cf3e a9b9 b0f2 fcb6 385a 7aac 11df 49ad
00000300: e23f 96ba fcea 7e2e ab07 58ba d921 a0ab
00000310: 646f 1bba 76d3 cb2c 1ba6 1abb 0478 89ba
00000320: a413 82ba b7b7 a42c 5763 0dbb 9da1 29ba
00000330: 350a 2cbb ebdb 20ad 5ed8 7fba 8a64 8eb3
00000340: 5063 d0ac 22ee ffb2 14cf f4ba 738f 77ac
00000350: e7b9 e1b8 c67d acac 1533 32ae 1c27 c3b3
00000360: b33d b2b1 7d9e 95b5 e139 e0b6 0732 a7b9
00000370: 2c36 1b2c b906 152b f286 0cbb 6008 0abb
00000380: b403 15ad cf75 55ab 32c1 e6ba 4f2d ecab
00000390: fe31 d9af 727a a7ac 8bc8 68ad 8c6c a6b8
000003a0: 1ff1 04bb 714a 832c 2fdc e6ba f7b2 01b9
000003b0: 1979 28bb 87a2 a9ba 71c5 b22a 0f20 fdb1
000003c0: bc1f 462b 1bf3 fab7 4a60 21b5 ebf9 b9b9
000003d0: ef3c ab2c 045c dfac 27fb 3bba e768 c8b3
000003e0: 528b 57ba 884d 922c 221b b1b6 c5f3 18bb
000003f0: 4517 ec2b 3a77 51ba b297 62ac 342c 98ba

bias f4 [128]
-0.004813627 -0.06006145 0.021644894 -0.0028953091 -0.032975372 0.04443578 -0.0062774513 0.046138145
0.011714898 -0.0035375317 -0.008209146 0.03205099 -0.0071733044 0.028651135 -0.0008163375 -0.002188759
0.019311422 0.0050265905 -0.0033540083 0.043132655 -0.0009435614 0.02916881 -0.029040974 -0.0006259371
-0.00453208 -0.013358181 0.00017754699 -0.03691482 -6.9012544e-06 -4.8628795e-06 0.0134781925 -5.908395e-11
0.03263479 0.016315332 -0.0112838065 -0.021693174 -0.00011418525 0.012472139 0.009191439 -0.0025494876
-0.0021187623 -0.0075613367 -0.032951437 -0.0050478172 -3.046935e-07 0.047687687 -0.00693995 0.023683384
0.00018484978 -0.00094047195 0.048941005 0.030186642 -0.0029759854 -0.0023173399 -0.0077076033 -0.025343517
0.05242459 -2.0949594e-06 0.028700734 0.049786475 0.08395092 0.031090658 -0.0039785737 -0.0006092806
0.0071955803 0.056687612 0.0191756 0.056081243 -0.045708183 0.015701948 -5.4796918e-05 -0.0007239228
0.005804825 -3.649345e-05 -0.0018894974 0.04183743 -0.003191548 -3.00546e-06 -0.0047977963 0.08903103
-0.0073500765 -0.00010590412 -0.0016387972 -0.0015898511 -0.024241604 0.047976065 0.016046396 0.03472814
0.0129235415 -0.00243288 0.07656578 0.093177564 0.0061288415 -4.7423753e-05 0.09286891 -2.2911348e-05
-0.0031969785 0.0050095823 0.017327094 -1.927957e-16 0.040213943 -0.00159122 -0.045231268 0.00191724
-0.016039254 -0.00038269596 0.022108592 -6.790097e-05 -3.155904e-05 -6.3825385e-15 -0.02557193 -0.001564645
-1.31263596e-08 0.03042476 0.010585799 0.025698267 -0.020731082 -3.4691716e-09 0.07182861 -9.677557e-06
0.04783139 -0.0438298 -7.1318404e-06 -4.30074e-10 0.035639003 -0.010203476 -0.015172938 -0.0064194244
00000000: a1bb 9dbb ff02 76bd a250 b13c 3abf 3dbb
00000010: 2f11 07bd 4b02 363d 14b3 cdbb 5afb 3c3d
00000020: d8ef 3f3c efd5 67bb a77f 06bc e647 033d
00000030: 0a0e ebbb c9b5 ea3c 7bff 55ba 4871 0fbb
00000040: fd32 9e3c 19b6 a43b ecce 5bbb deab 303d
00000050: 5559 77ba 6ef3 ee3c 56e7 edbc ed15 24ba
00000060: d881 94bb 46dc 5abc e82b 3a39 ff33 17bd
00000070: 5391 e7b6 d12b a3b6 a3d3 5c3c 4fed 81ae
00000080: 0fac 053d bba7 853c b7df 38bc e2b5 b1bc
00000090: bd76 efb8 f157 4c3c b097 163c 4e15 27bb
000000a0: efda 0abb 17c5 f7bb 16f8 06bd 2968 a5bb
000000b0: c194 a3b4 2a54 433d 8568 e3bb a803 c23c
000000c0: 3cd4 4139 018a 76ba 5d76 483d fa49 f73c
000000d0: c008 43bb 83de 17bb 1090 fcbb 359d cfbc
000000e0: 2bbb 563d 2197 0cb6 cd1d eb3c e7ec 4b3d
000000f0: 76ee ab3d d6b1 fe3c b25e 82bb 21b8 1fba
00000100: e7c8 eb3b 4531 683d 2616 9d3c 72b5 653d
00000110: 8138 3bbd 5fa1 803c bed5 65b8 a3c5 3dba
00000120: 6736 be3b 8b10 19b8 03a9 f7ba ba5d 2b3d
00000130: 4a29 51bb 69b1 49b6 d536 9dbb e755 b63d
00000140: e9d8 f0bb d718 deb8 e9cc d6ba 8d62 d0ba
00000150: 5496 c6bc 8d82 443d bb73 833c 183f 0e3d
00000160: 43bd 533c f470 1fbb 85ce 9c3d e1d3 be3d
00000170: 73d4 c83b dee8 46b8 0e32 be3d bf31 c0b7
00000180: 6684 51bb 6c27 a43b 8df1 8d3c 3f47 5ea5
00000190: 60b7 243d 7c90 d0ba 6c44 39bd e64b fb3a
000001a0: c164 83bc 95a4 c8b9 141d b53c 0e66 8eb8
000001b0: 435e 04b8 87f4 e5a7 397c d1bc c614 cdba
000001c0: 5782 61b2 593d f93c 0f70 2d3c 2c85 d23c
000001d0: 3bd4 a9bc 5066 6eb1 e11a 933d ca5c 22b7
000001e0: d9ea 433d e086 33bd 0b4e efb6 896f ecaf
000001f0: 34fa 113d 7b2c 27bc ea97 78bc 095a d2bb

weight f4 [64, 128]
-0.008410903 0.05511498 0.045593176 2.2933328e-26 0.08053358 -0.066749945 3.3022985e-22 0.0383033
0.005003337 2.6695425e-23 0.11249497 0.055638533 0.051180977 0.014398775 0.0008049139 -0.00022557269
0.030538952 0.003195013 0.000741781 -0.07733364 3.1258574e-07 0.010420671 0.038610306 0.0011759457
5.221933e-05 -0.0016434806 0.030353827 0.07494132 -1.7180984e-21 2.523541e-22 1.7552791e-18 1.1615785e-16
0.023088811 0.056509208 -0.0103992475 0.057366673 3.8525952e-22 0.11215114 0.032843824 -3.2194058e-17
0.00011281903 0.011550055 0.10045931 0.0035875202 -3.7696238e-13 -0.0865296 0.004520586 0.056888267
0.039848033 0.0011465743 -0.07591323 0.06892988 -0.004043291 9.844832e-24 0.008044962 0.07505806
-0.0463242 5.3290234e-14 0.06320922 -0.093059406 -0.074408494 0.0032793889 -5.033141e-20 -2.9738865e-20
0.06803055 -0.021163568 0.009433388 -0.06416343 0.08227543 0.07107517 -1.2587666e-21 2.8609743e-09
0.07898673 1.0648163e-26 0.068999544 -0.060835 0.088663474 4.9903266e-24 0.087907255 -0.09931465
0.047664948 2.2020494e-26 0.040573508 0.0020394556 0.078534395 -0.083754495 0.06390885 0.06292353
0.039813884 -4.92969e-07 -0.013383992 -0.10084155 0.08976721 3.841551e-18 -0.1354125 -7.838438e-26
2.2685068e-20 0.00049703085 0.021410678 -4.6033975e-23 -0.013631291 1.1006845e-22 0.092022315 0.030513924
0.09288188 3.7650804e-14 0.009312463 2.8844015e-26 -5.0768553e-13 1.30228e-19 0.09441072 0.02987789
1.5417106e-14 -0.00038547107 0.044855822 0.052722722 0.08765941 1.0323762e-23 -0.07078463 6.9229357e-12
0.06570533 0.05062476 -1.3872971e-25 -1.041855e-11 0.05196519 0.054765392 0.015462069 0.03860675
-0.01040067 0.050746527 0.008866609 1.1928942e-11 0.08549256 -0.07184729 6.553506e-23 0.070692025
-0.03187059 -2.953336e-15 0.1231932 0.001584477 0.09526976 0.09401333 0.0014448984 -0.001194055
0.08766077 0.0098372325 -0.0073183463 -0.11550464 -3.5286003e-09 0.08886488 -0.012632411 0.002037438
5.1786188e-05 0.0076410375 0.09911882 0.053527754 -7.0968e-23 -3.7637224e-24 -0.0061707115 -1.15816e-12
0.008998199 0.0075155487 -0.010552325 0.09274158 -4.5211516e-24 0.106440246 0.014230505 2.4256176e-08
0.000121013654 0.009578468 -0.030291654 0.0043308027 9.990888e-13 -0.121716306 0.005015987 -0.052003555
0.06138022 0.001905488 -0.07665312 0.09507155 -0.0051982836 2.5306443e-16 0.009144072 0.06210402
-0.018875193 -3.7811084e-25 0.06948651 -0.19789611 -0.049240075 0.082604975 0.0032898707 4.4631312e-07
0.084331445 -0.07294855 0.075289026 -0.13588557 0.050184675 0.071088836 -0.0007435418 2.2228841e-08
0.005062551 1.0964699e-15 0.11232369 -0.13233718 0.09371029 1.6807792e-14 0.08111368 -0.15982708
0.118114114 3.2465857e-13 -0.042865917 0.0034743636 0.030611698 -0.14031333 0.11158354 -0.04425817
0.015726287 -1.7528498e-06 0.03500522 -0.15701705 0.112926364 -3.7917046e-16 -0.16409709 7.266388e-19
3.776887e-17 0.098077446 0.08584633 8.0541456e-22 -0.047895603 -2.2954113e-22 0.1278107 0.10075608
0.1335203 0.0028588667 0.08131592 -4.919063e-24 -2.7949467e-17 -5.122623e-12 0.14900386 0.04115884
1.9931722e-13 -0.07093566 0.086506985 -0.028382294 0.12844272 7.486033e-21 -0.040530685 2.9087044e-13
-0.037545998 0.08457484 7.880473e-18 -6.652999e-11 -0.019369159 0.09034941 0.030992754 0.033569444
00000000: e2cd 09bc 3fc0 613d e9bf 3a3d e51e e314
00000010: caee a43d 32b4 88bd 989c c71b ece3 1c3d
00000020: 08f3 a33b 5617 011a c363 e63d 3be5 633d
00000030: 25a3 513d d7e8 6b3c dc00 533a b587 6cb9
00000040: d32c fa3c 6c63 513b 1574 423a 1961 9ebd
00000050: 75d1 a734 76bb 2a3c d725 1e3d 3122 9a3a
00000060: 1406 5b38 0f6a d7ba 97a8 f83c d67a 993d
00000070: dbd0 019d e889 981b 4984 0122 bfeb 0525
00000080: bf24 bd3c 3376 673d 9b61 2abc 51f9 6a3d
00000090: 06e0 e81b 7faf e53d 3f87 063d 0978 14a4
000000a0: 4199 ec38 713c 3d3c 9cbd cd3d 9a1c 6b3b
000000b0: 0136 d4aa 6e36 b1bd 6d21 943b ac03 693d
000000c0: b137 233d a648 963a 6578 9bbd 1c2b 8d3d
000000d0: 957d 84bb 3f6d 3e19 04cf 033c 0ab8 993d
000000e0: 72be 3dbd 75ff 6f29 d673 813d ee95 bebd
000000f0: 7b63 98bd 04eb 563b f1ae 6d9f 1570 0c9f
00000100: 9a53 8b3d 385f adbc 7f8e 1a3c 1e68 83bd
00000110: 0580 a83d dc8f 913d 2d38 be9c cb9a 4431
00000120: cbc3 a13d 9ae8 5214 a24f 8d3d 1f2e 79bd
00000130: 3295 b53d cd0d c118 b808 b43d 7b65 cbbd
00000140: 523c 433d 9614 da14 6830 263d 63a8 053b
00000150: a4d6 a03d 7a87 abbd a5e2 823d 0dde 803d
00000160: e213 233d 9254 04b5 8848 5bbc 0486 cebd
00000170: dfd7 b73d 6cba 8d22 93a9 0abe 0112 c295
00000180: 2141 d61e 2d4b 023a 7265 af3c 4d9b 5e9a
00000190: c755 5fbc 8910 051b 3276 bc3d 56f8 f93c
000001a0: db38 be3d 6c90 2929 4d93 183c 22d4 0e15
000001b0: 99e6 0eab ffbe 1920 685a c13d 7ac2 f43c
000001c0: 6ddd 8a28 0d19 cab9 bdba 373d c8f3 573d
000001d0: c786 b33d cbb0 4719 88f7 90bd 4394 f32c
000001e0: 8490 863d e95b 4f3d 33bd 2b96 fa48 37ad
000001f0: 73d9 543d ad51 603d 9e54 7d3c 1d22 1e3d
00000200: 9267 2abc 97db 4f3d 4145 113c 2edb 512d
00000210: b916 af3d ac24 93bd 3d74 9e1a fbc6 903d
00000220: bc8a 02bd 6fcf 54a7 b74c fc3d 3aae cf3a
00000230: cb1c c33d 108a c03d bf62 bd3a d681 9cba
00000240: 7d87 b33d 582c 213c bdce efbb b28d ecbd
00000250: cb7b 72b1 cafe b53d 2cf8 4ebc 8a86 053b
00000260: ff34 5938 ab61 fa3b cffe ca3d eb3f 5b3d
00000270: 1097 ab9a 1a9a 9198 ae33 cabb 1dff a2ab
00000280: 2f6d 133c fe44 f63b a9e3 2cbc 4cef bd3d
00000290: 51e7 ae98 58fd d93d 1027 693c e55b d032
000002a0: b6c8 fd38 02ef 1c3c 3426 f8bc 68e9 8d3b
000002b0: f89b 8c2b 6646 f9bd 265d a43b ae01 55bd
000002c0: d369 7b3d 91c1 f93a 50fc 9cbd dfb4 c23d
000002d0: 5d56 aabb b8e1 9125 05d1 153c c960 7e3d
000002e0: 26a0 9abc 0e0a ea96 f14e 8e3d 47a5 4abe
000002f0: f6af 49bd cc2c a93d df9a 573b cf9c ef34
00000300: f7b5 ac3d 0d66 95bd 2231 9a3d 9625 0bbe
00000310: 728e 4d3d 0697 913d 3fea 42ba bdf1 be32
00000320: c1e3 a53b 9904 9e26 f609 e63d 6683 07be
00000330: 2eeb bf3d 2164 9728 ee1e a63d b6a9 23be
00000340: d0e5 f13d 3bc4 b62a 2c94 2fbd 26b2 633b
00000350: 62c5 fa3c 4cae 0fbe e985 e43d 0e48 35bd
00000360: 6ad4 803c 7643 ebb5 a261 0f3d 14c9 20be
00000370: f045 e73d af93 daa5 1109 28be 4777 5621
00000380: 9d2d 2e24 d4dc c83d 33d0 af3d ef6b 731c
00000390: 2e2e 44bd c5bf 8a9b cfe0 023e 3459 ce3d
000003a0: 8cb9 083e d35b 3b3b f688 a63d 0a4c be98
000003b0: e8e4 00a4 7c3c b4ac 7894 183e 2c96 283d
000003c0: 4769 602a b746 91bd 932a b13d fc81 e8bc
000003d0: 7d86 033e 3c68 0d1e 8103 26bd d9be a32a
000003e0: d5c9 19bd 9335 ad3d 7b5e 1123 0e4d 92ae
000003f0: 12ac 9ebc 1d09 b93d 84e4 fd3c 1d80 093d
