outputs/DD_Glo/model.pth (torch, 625622 bytes, 13 tensors)

bias f4 [128]
000000 0f 1d 6c 3c f8 af 33 bc d3 d7 16 bc bf 09 55 3c
       0.014411225 -0.010967247 -0.00920673 0.013002812
000010 aa 3f 53 3c 12 1d 7e 3c 7f 1c ac 3c 6c 39 02 bc
       0.012893597 0.015509861 0.021009682 -0.007948261
000020 e9 bd db 3b eb 34 6f 3c 01 cd 36 3c cf 4d f7 3b
       0.0067059887 0.014600019 0.011157275 0.0075471173
000030 e9 3a fb 3b 8d ee bd 3b 07 2f 8c 3c 45 53 77 3c
       0.0076669347 0.0057962597 0.017112268 0.015095537
000040 ac 9b df 3c b4 55 7c 3c aa 83 80 3c 66 e2 cf b8
       0.02729591 0.015401293 0.015687782 -9.912699e-05
000050 54 45 3e 3c aa 88 b6 ba ab 2d 95 bb 84 22 5d 3c
       0.011613209 -0.0013926227 -0.004552563 0.013496999
000060 fb 4f 68 bb d3 53 5d 3c b4 83 02 3c 08 65 3c bb
       -0.0035448063 0.013508755 0.007965971 -0.0028746743
000070 90 27 3c 3c 4c 5d 6d 3c 93 e9 89 3b dd eb 70 3c
       0.011484042 0.014487576 0.0042087524 0.014704672
000080 59 94 12 3b e6 93 21 3c a8 b6 57 bc 16 1f ba 3c
       0.0022366254 0.009861922 -0.013166107 0.022719901
000090 9d c1 c7 bb f4 d2 82 3c 73 50 4c 3c dd 5c c8 3b
       -0.0060960785 0.01596973 0.012470352 0.006114586
0000a0 83 51 8c 3c cb 94 07 b9 31 58 0d 3c d1 25 a1 3b
       0.017128712 -0.00012930033 0.0086269835 0.004917838
0000b0 92 27 80 3a 1c 20 4a 3c d1 9a 05 3c 99 91 c7 bb
       0.0009777418 0.012336757 0.008154587 -0.0060903546
0000c0 97 53 83 3b 4f c0 38 3c 60 1a 95 3c 86 07 f0 3b
       0.0040077674 0.011276319 0.018201053 0.0073251156
0000d0 32 64 92 3c 4d 99 4c 3c 9b d4 21 3c f2 ee 36 3c
       0.017870042 0.012487722 0.009877349 0.011165367
0000e0 d8 91 82 bc 91 02 b6 bb cc 1b 65 3c 9f c5 a1 bb
       -0.015938684 -0.005554505 0.013983678 -0.0049368883
0000f0 a0 f8 5a 3c 87 b7 d6 3c 88 23 cb 3c 5c dd ec 3b
       0.013364941 0.02621056 0.024797216 0.0072285365
000100 f8 75 75 36 dc 08 59 bb 4b 3f 28 3c 77 4b a9 ba
       3.6576512e-06 -0.0033116853 0.0102689965 -0.0012916167
000110 68 42 1d 3b 71 cc 67 3c fb 5e 61 3b 5e 97 32 3c
       0.002399588 0.014147864 0.0034388888 0.010900347
000120 46 be 11 3c a2 e0 06 3d a5 5c 55 3b 96 eb a2 bb
       0.008895462 0.03292907 0.003255644 -0.0049719317
000130 b6 6c 21 3c 07 d3 aa 3c dd 9c d2 3c 27 0f af 3c
       0.009852579 0.020852579 0.025709564 0.02136953
000140 85 00 a5 bb c7 ea 23 3c fe a0 5a 3c 02 10 60 3c
       -0.0050354623 0.010004706 0.013344048 0.013675692
000150 84 70 cf 3b ae 20 88 3c 44 41 fc bb bb b4 c5 3c
       0.0063305516 0.016617145 -0.00769821 0.02413403
000160 3b 1d f7 3b db a1 5a 3b 7f 27 a7 3c 82 96 22 3c
       0.0075413263 0.0033360634 0.020404575 0.009923579
000170 46 7b 04 3d fb 02 9b 3b 4e 60 9a bc f4 7c 08 bb
       0.032344125 0.00473058 -0.01884475 -0.002082643
000180 14 65 8d 3b ec b1 0e 3c 27 b2 40 3c 74 25 dc ba
       0.004315028 0.008709412 0.011761225 -0.001679583
000190 31 3f 06 3b e8 25 33 bb 68 fb cd 3b 45 ef 9d 3c
       0.0020484442 -0.0027335826 0.0062860735 0.019279132
0001a0 45 e7 36 bc 45 87 06 3b 8e 44 58 3c f6 b6 df 3c
       -0.011163537 0.0020527404 0.013199938 0.027308922
0001b0 e4 0f 4b 3c dd 2f 01 3b ac 14 1b 3c d9 c2 37 bb
       0.012393925 0.0019712367 0.009465378 -0.0028039722
0001c0 bd 46 1c 3c d7 db 62 bb 55 81 21 3c 3b ec 89 3b
       0.00953835 -0.0034615898 0.009857495 0.004209069
0001d0 61 83 8f 3b 86 bc 02 3c 79 36 91 3c 29 0a 37 3b
       0.0043796753 0.007979518 0.01772617 0.002792964
0001e0 30 99 c3 3b b0 40 b5 3c 3f f0 8a 3c ce 4e 9e 3b
       0.005969189 0.022125572 0.016960261 0.0048311716
0001f0 44 54 55 3c 6f ff d4 3c 48 18 b9 bc 4e ca 0a 3c
       0.013020579 0.026000706 -0.022594586 0.008471085

weight f4 [128, 89]
000000 20 fe 40 be 5b c3 80 bd 45 d2 e2 bd 48 61 53 3e
       -0.18846941 -0.06287261 -0.11075262 0.20642579
000010 19 71 33 be 4b 1b 9a bd 12 61 60 bc 36 62 01 3d
       -0.17523612 -0.07524737 -0.013695018 0.031587802
000020 a5 6a 7e 3e 2c ce d7 3d 86 c1 91 3d 80 ca 0d be
       0.24845369 0.10537371 0.0711699 -0.13846779
000030 b4 8b 17 3d 42 09 71 3d 43 82 21 be 89 49 15 bd
       0.036998466 0.05884672 -0.15772347 -0.03644708
000040 7a 7f 21 be 83 8d de bd 6a 94 36 be c9 55 cb 3c
       -0.15771285 -0.10866835 -0.17830053 0.024821179
000050 1a 79 b8 bb 1e b7 53 3b 0a b4 ba b0 ba 31 90 bb
       -0.005629671 0.0032305191 -1.3584451e-09 -0.004400459
000060 75 95 76 b9 e6 42 fa 3c 87 76 36 bc 7d 82 18 ba
       -0.00023516065 0.030549478 -0.011136658 -0.0005817784
000070 c8 c7 ac 3b 88 c8 9b 3c e5 02 5a bb 90 85 dd ba
       0.005272839 0.01901652 -0.0033265885 -0.0016900767
000080 a3 03 ce bb 43 ae 00 be a1 ec 7a 3b 8c e0 3d 3c
       -0.0062870546 -0.12566476 0.0038288014 0.011589181
000090 8b 44 a3 3a e5 37 2d bb 47 68 91 ba 9f d3 9a 3a
       0.001245634 -0.002643102 -0.0011093699 0.0011812336
0000a0 51 f7 0d bc 9a ee 04 2c 81 be 80 3c d1 69 d1 3b
       -0.008664922 1.8890779e-12 0.01571584 0.006390788
0000b0 b7 08 2e 3c a6 b6 1f 3c d5 33 af 3b ad f4 17 b7
       0.010622195 0.009748137 0.005346755 -9.057269e-06
0000c0 77 01 a8 3a fe 5c 08 bc 44 3a 2d bb c0 46 99 b5
       0.0012817819 -0.008322952 -0.0026432434 -1.1419979e-06
0000d0 e3 9d 16 bd 83 10 3b bc bd 6e bc 3d 7f a5 02 39
       -0.036771666 -0.011417511 0.09200809 0.00012459418
0000e0 67 81 12 bc 99 53 2c 3c e9 3f ad 3b a7 24 26 b8
       -0.008941985 0.010517978 0.0052871597 -3.961162e-05
0000f0 17 ac 54 3a e5 24 85 3c 2e 1a 49 bb 08 28 b7 3b
       0.00081128016 0.016252944 -0.003068577 0.005589489
000100 fb 19 e4 bd 04 c9 43 bc 20 e8 db 3b 26 bb 40 bd
       -0.11137768 -0.011949781 0.006711021 -0.04705348
000110 aa f9 0b b9 60 a7 5e 3b 8d ca 62 bc d2 d0 92 bb
       -0.0001334908 0.0033974275 -0.013842237 -0.0044804597
000120 33 68 5c a9 57 eb a0 bc a3 ef 9d 3d de 34 e2 bd
       -4.894019e-14 -0.019643469 0.07711723 -0.1104524
000130 b2 71 0a bc 13 e4 14 b8 ad cc 51 3b 1c b8 a0 bb
       -0.008449959 -3.549836e-05 0.0032012865 -0.00490476
000140 30 90 13 bb 1e c5 8e ba 74 c4 9a 39 c5 e4 8b bd
       -0.0022516362 -0.0010892486 0.00029519538 -0.06830744
000150 98 68 01 bc 17 1b a9 3a 2c ac 6f 2b 14 e2 a1 3b
       -0.007898472 0.001290175 8.5148793e-13 0.0049402807
000160 04 06 b2 a7 18 e0 d1 3d 20 66 e3 bc f9 5d 96 3d
       -4.9411447e-15 0.102478206 -0.027758658 0.073421426
000170 5f bd 14 3e 76 4e 3c bd 56 9f 09 3e b3 e5 0f 3e
       0.14525364 -0.045973264 0.13439688 0.14052467
000180 7d ad 54 3c 31 51 03 3d 0f 13 0b 3c ff cb 0c be
       0.012980816 0.032059852 0.008488431 -0.13749693
000190 f0 67 05 3e fd 96 83 bd e3 50 02 3d af a6 3d 3d
       0.1302793 -0.06425283 0.03181542 0.04630154
0001a0 5b 92 b7 3b 4e a4 bd 3d 40 ce f4 bd 9f 31 2c bd
       0.0056021637 0.09259854 -0.119534016 -0.04203951
0001b0 5b f0 4b 3d 0b a2 fb b9 f3 16 31 3c 0f de 09 bb
       0.049789768 -0.00047995182 0.010808694 -0.0021036898
0001c0 c8 7b 1e b9 94 c7 85 b8 59 4d 36 3d 97 46 28 be
       -0.00015114166 -6.3791085e-05 0.04450736 -0.16433178
0001d0 4f fc 2a 3b 62 7f 9d b8 be 5e 29 bc 52 8f 1a bc
       0.002609033 -7.51007e-05 -0.01033753 -0.009433584
0001e0 03 7c 5e b1 28 6b 0a bc c5 b9 25 be 18 15 43 3b
       -3.2375744e-09 -0.0084484 -0.16184147 0.0029767212
0001f0 3c 13 cf 3d a2 16 e3 37 b6 d3 87 ba 30 1a cb b9
       0.101110905 2.7071048e-05 -0.0010362777 -0.00038738688
000200 63 99 9a bb b9 ec 79 3c b1 5c f8 b8 00 a1 0e 3d
       -0.004717992 0.015254193 -0.00011842827 0.03482151
000210 60 4f 03 3c 3e e8 9a 3c 02 9f d0 3c b1 a3 d2 3b
       0.00801453 0.01890957 0.025466446 0.006428205
000220 2c 0c ab ba 80 14 a0 3a 4e ac 22 bd ea 5a cf bb
       -0.0013049892 0.0012213141 -0.039715104 -0.0063279765
000230 c5 69 13 b9 e8 aa 63 3c 96 1b 2e ba 9b be 44 3e
       -0.00014058415 0.013895728 -0.0006641684 0.19213335
000240 29 8c 96 ba 3e ed dc a5 a8 3c ae bc e4 90 e6 ba
       -0.0011485863 -3.8324678e-16 -0.021269158 -0.0017590788
000250 dc bf a8 b5 53 b3 a6 a5 98 7f eb 3c 22 d8 cf b6
       -1.2572814e-06 -2.8917925e-16 0.028747365 -6.194242e-06
000260 20 0b 4d 3d 8f 8c 09 3e ca 90 18 bd 22 1e dc 3b
       0.050059438 0.13432525 -0.037247457 0.0067174593
000270 bf c0 41 3c cd 6e 87 bd 32 2a ac 3a ba 3f fe bc
       0.011825739 -0.066129304 0.0013135134 -0.031036247
000280 62 be c5 a5 06 e3 74 3a 5f 62 ab bb fb b4 1d 3e
       -3.430306e-16 0.00093416905 -0.0052302326 0.1540107
000290 4c b6 20 3d 9e 7e e2 ba 19 ba 6a 3c ac 7c 18 3c
       0.03923635 -0.0017280167 0.014326596 0.009307068
0002a0 cd ed 91 bb 56 3a 39 3c 79 1d bf bc d3 43 30 38
       -0.004453397 0.011305412 -0.023329483 4.2024836e-05
0002b0 87 03 4b 3c d6 bc 82 ba 74 80 a5 3a 8a cc 8e 24
       0.012390978 -0.000997449 0.0012626783 6.1929186e-17
0002c0 2d ce 10 3c 18 0f 11 ba 61 e8 48 be 06 0b f3 3d
       0.008838219 -0.000553356 -0.19619896 0.11867337
0002d0 60 49 d8 3d a3 8d 97 3b 04 a1 ad bd a1 56 28 3e
       0.1056087 0.0046250387 -0.08477977 0.16439296
0002e0 ff 15 1b 3d 14 2a 0b 3e 76 46 92 3c 52 46 e9 bd
       0.037862774 0.1359027 0.017855864 -0.11390366
0002f0 2d 35 8a bd c5 00 93 bd 68 ee 49 be de 46 4b 3e
       -0.06748424 -0.07177881 -0.19719851 0.19851252
000300 62 04 fe 3d 6f 5d c5 3d bc 46 1e 3e 8d 08 3b be
       0.1240318 0.09636962 0.1545667 -0.1826498
000310 e7 6f 80 3c 11 ff 81 3d d8 f7 be bb 85 a8 2e ba
       0.01567836 0.06347478 -0.005827885 -0.00066626846
000320 be 15 03 39 c1 63 a3 b9 89 3c 91 bb 97 ad 05 3d
       0.00012501233 -0.00031164105 -0.004432265 0.03263625
000330 32 56 22 be ba f3 ff 3a 72 d5 5d bb 7a f8 c5 3c
       -0.15853193 0.0019527592 -0.0033849147 0.024166334
000340 74 9f e5 bc 68 a8 66 bb 0e ab 17 bc 0f ce 21 be
       -0.028030135 -0.0035195593 -0.009257091 -0.15801261
000350 0c ba 68 3b fc fe 5e 3d ff e3 4d 3a 6d f8 0f 3b
       0.0035511283 0.05444239 0.00078541035 0.0021968142
000360 6d f7 5b ba bc d6 c9 38 a4 25 5f 3c 3c 84 72 a7
       -0.00083910563 9.624424e-05 0.013619814 -3.365593e-15
000370 42 e0 42 3c 15 a6 42 3b f7 f2 d6 3a c1 6c eb 3b
       0.011894288 0.0029701043 0.0016399313 0.0071845953
000380 07 41 3a 3a 82 db 29 b4 70 52 e5 3a b1 8a 5f bd
       0.0007105027 -1.5819208e-07 0.0017495882 -0.054575626
000390 21 ec 9d ba ce 97 fd b4 7b 6c 95 bd 63 d6 0e bb
       -0.0012048521 -4.7235375e-07 -0.07296082 -0.0021795265
0003a0 e7 11 a3 3d 73 81 27 b5 bd ab 3f bc 9f 34 dd 3b
       0.07962399 -6.240072e-07 -0.01169866 0.0067506577
0003b0 31 53 b0 b9 4b 31 89 bb fd 25 2a bb c9 a1 f9 3c
       -0.00033631318 -0.0041867844 -0.0025962584 0.030472653
0003c0 00 c0 48 bb fc 92 3d 3c 0a b5 e3 bc 52 fe ac b9
       -0.003063202 0.011570688 -0.027796287 -0.0003299588
0003d0 a8 d8 2a 3b 2a 15 97 bd 1a d5 bc bc c8 62 bd bb
       0.0026069079 -0.073770836 -0.023050833 -0.005779598
0003e0 a2 66 2c bc 83 50 68 27 64 64 a2 ba ce 1d a8 bb
       -0.010522516 3.2240113e-15 -0.0012389538 -0.005130506
0003f0 76 63 d7 3d 39 64 41 3d 0d 3e 5a bc d3 f9 d5 ba
       0.105170175 0.04721472 -0.013320458 -0.0016325064

bias f4 [128]
000000 16 27 c2 3b e2 3f 2e ba 8e be 10 3c c0 90 8f 3c
       0.0059250696 -0.00066470925 0.008834494 0.017525077
000010 88 f5 b7 3c 88 d4 f3 bb 7d df 9c 3c d3 ab 43 3c
       0.022455946 -0.007441107 0.019149536 0.011942822
000020 d2 3a 28 3c b8 14 0c 3b be fc 91 3b b3 0c 1f 3c
       0.01026793 0.0021374654 0.004455178 0.009707618
000030 58 3e 04 3c af 78 96 3c 2f 3a 23 bc c4 e5 11 3b
       0.0080715045 0.018368093 -0.0099626025 0.0022262195
000040 83 45 91 3c c0 0b 02 bc b7 d9 0a 3b 12 cb 1f 3b
       0.017733341 -0.007937372 0.0021186897 0.0024382514
000050 8a d1 6c 3c e9 51 47 3c 5a c2 6a 3c 48 0b 0a 3c
       0.014454255 0.012165525 0.014328564 0.008425541
000060 89 23 d2 39 1d 7e 2c 3b e6 62 71 3b a5 bb d1 3a
       0.00040080797 0.0026320287 0.003683263 0.0016001357
000070 e6 96 75 3c be c9 99 3c 6f a0 af 3a 7f 0b 93 3c
       0.01498959 0.018772956 0.0013399253 0.017949818
000080 5a c9 cc bb d2 d6 0c 3b 6f cb 1c 3c c9 fc 47 3c
       -0.006249589 0.0021490348 0.009569987 0.012206265
000090 9c c4 90 3b 21 c2 57 3c 8d 63 19 3c 36 03 5b 3b
       0.004417969 0.0131688425 0.009362114 0.0033418662
0000a0 61 7e 8a 3b 2d 04 8f 3b 55 d6 32 3b dd a8 ca 3c
       0.0042264913 0.0043645115 0.0027288396 0.024738723
0000b0 e5 ed 59 3c b2 92 b1 bb 9f c7 2c 3a 8d 7d 38 3c
       0.013301347 -0.005419099 0.0006591025 0.011260402
0000c0 b8 55 b3 3b 0e 3f be 3b 21 e8 8e 3c 53 b4 d8 3b
       0.005472865 0.0058058565 0.017444672 0.006613293
0000d0 1e e6 00 3c e9 ed d1 3c 4d cf df 3b 12 92 45 3c
       0.007867364 0.02562614 0.006830132 0.012058752
0000e0 9c 5d 8f 3b 16 e2 4e 3c 7a f6 e0 3a af 73 b9 3c
       0.004375173 0.012627145 0.00171633 0.02263817
0000f0 82 ea 49 3c ad 06 e7 b9 ff 55 84 3b ad c7 07 3c
       0.012323977 -0.00044064727 0.004038572 0.0082873525
000100 98 c3 5a 3c 9e 6e eb 39 f3 04 24 3c bf 98 5c 3c
       0.013352297 0.0004490511 0.010010946 0.013464152
000110 0c e7 aa 3b 01 df cb ba 9d 76 86 bb 50 42 05 3c
       0.005215531 -0.0015554131 -0.0041034953 0.008133486
000120 75 e8 ce 3b d7 9d 34 3c aa fe c1 bb 6e be 60 3b
       0.006314332 0.01102396 -0.005920251 0.0034293192
000130 ea 79 3e 3c f0 ae d1 3c 48 54 8d 3c f5 27 09 3c
       0.011625746 0.025596112 0.017252102 0.008371343
000140 ea e5 c8 3b 9b 9c 95 36 27 e7 c4 3c c7 dc 17 3c
       0.0061309235 4.4587773e-06 0.024036003 0.009268946
000150 a9 c0 89 3c 9d 1c 82 3b 1b ed 64 3c f5 97 26 3c
       0.0168155 0.003970696 0.013972546 0.010168065
000160 6f b4 50 3c ff ee 9a 3c 39 90 31 bb 58 93 ff 3b
       0.012738331 0.01891279 -0.002709402 0.007799547
000170 3c 05 e2 b9 08 83 f8 39 84 b4 c6 bb c0 df dc 3b
       -0.0004310998 0.00047399872 -0.0060639996 0.0067405403
000180 49 8f 0d 3c 2c 35 ab 3c c5 73 37 3b 40 40 e3 3b
       0.008640119 0.020899378 0.0027992588 0.0069351494
000190 12 b9 ad 3c cd 3e a0 bb 36 6a 8a 3b 95 91 50 3c
       0.021206412 -0.004890299 0.004224087 0.012730022
0001a0 3c f7 0e 3c 80 da 55 bb ce 34 88 3b 3b be 9b 3b
       0.008725937 -0.0032631457 0.0041566854 0.004752902
0001b0 57 18 82 3c e6 c0 39 3c 0a 3d b2 3b a5 39 b6 3b
       0.015880747 0.0113374945 0.0054394053 0.005561071
0001c0 c2 c6 dd bb 1b 95 3c bc ec 19 98 ba 3f 2f cc 3c
       -0.0067680785 -0.011510159 -0.0011604405 0.024924872
0001d0 09 54 c0 b9 f6 d7 1a 3c 13 17 5f 3b 90 a4 43 3c
       -0.00036683705 0.009450903 0.0034040853 0.01194109
0001e0 65 bf a6 3b c1 49 13 3a 6f b9 62 3a 45 61 42 3c
       0.005088734 0.0005618595 0.00086488476 0.011864011
0001f0 9e 7a d8 ba df 22 61 bc 88 3c 8c 3c 70 17 62 3c
       -0.0016516035 -0.013741224 0.017118707 0.013799533

weight f4 [128, 128]
000000 21 0a b9 3d 9f 38 85 3b 61 55 65 3d 6f 67 c1 bd
       0.09035135 0.0040655877 0.055989627 -0.094435565
000010 8b b1 92 bc 81 e1 95 3c 1a 6a 19 3e d9 55 16 3e
       -0.017906925 0.018296005 0.14981881 0.14681186
000020 d6 93 60 bd 0a 2e 00 3d 34 ed c9 3d 51 26 b3 3d
       -0.054828487 0.031293906 0.09859696 0.08747543
000030 1a 7e 92 3d 44 22 a1 3d 12 6a 05 bd 9b 0c fb 3c
       0.07152958 0.07867864 -0.03257186 0.03064566
000040 ee d9 30 3d 0f e1 dd bc b7 fd 07 3e ec 4d fa ba
       0.043176584 -0.027084855 0.13280378 -0.0019096709
000050 29 ad 20 3d 11 de eb bc 55 e0 81 3d 01 ee 49 3d
       0.03922764 -0.028792413 0.06341616 0.049299244
000060 3f 4a 8f 3d d0 e9 ce 3d c7 5c 8f 3d 43 d0 c5 bc
       0.06996583 0.1010319 0.07000118 -0.024147158
000070 20 3d 81 bc 4d 58 72 bd 06 eb d8 3d 98 4a 63 3d
       -0.015776217 -0.05916624 0.10591702 0.05549106
000080 79 08 4f bd 12 06 00 3e 17 08 0f 3e 6f 3e 42 3d
       -0.05054519 0.12502316 0.1396793 0.047422823
000090 ef 1d b9 3c 34 d7 9b 3d c0 1f 66 bb c1 3d 4f 3d
       0.022597281 0.07609406 -0.003511414 0.050596002
0000a0 a1 d8 a5 bd 33 06 be bd b8 19 59 bd e3 4b 02 3e
       -0.08097959 -0.09278526 -0.053003043 0.12724261
0000b0 f3 aa ac 3d 2a aa 26 bb cd 7b 5a bd e1 65 80 bd
       0.084310435 -0.0025431016 -0.053340722 -0.06269432
0000c0 2d 99 3b 3c 61 72 13 be 3c 2e ac bc 56 43 94 bd
       0.011450094 -0.14399101 -0.02101814 -0.07239406
0000d0 8e eb e9 3c 6a f3 22 3c 2a 1e d3 3c 05 e1 eb 3d
       0.028554704 0.00994573 0.02577122 0.115175284
0000e0 bc 76 8e 3d e9 74 7f 3d 91 c3 c5 bd e4 29 a2 bd
       0.069562405 0.062367354 -0.09656442 -0.07918146
0000f0 88 cd 30 3e a8 46 c4 bc c6 87 1f 3e fe aa b4 bd
       0.17265904 -0.023959473 0.15579137 -0.08821677
000100 e4 6a cb bd 80 d1 ad 3b f4 86 bd bd 03 73 42 bd
       -0.09932497 0.0053045154 -0.09254256 -0.047472965
000110 b9 75 f3 3d 27 1d 9d 3c e4 b0 11 3e 7a cb 05 3d
       0.11887688 0.01917894 0.14227635 0.032664753
000120 9b eb 5b 3d 0b 4d c4 3d 1c ee 1d 3e 68 ef d7 3d
       0.053691488 0.09585007 0.15422863 0.1054371
000130 c5 86 e1 bd 82 17 b5 bd bc 65 0e bd 95 21 4e bd
       -0.110120334 -0.088423744 -0.03476499 -0.050324995
000140 3e 21 d9 3d 46 57 c6 3d 98 3d 1f 3d ba a7 ed bd
       0.106020436 0.09684615 0.0388771 -0.11604257
000150 49 33 13 bc a7 31 b9 bd 66 30 0d bd 2d c5 30 3d
       -0.008984395 -0.090426736 -0.034469984 0.04315679
000160 73 5f 28 3d b2 41 a2 bd 9e c3 f7 3d be b9 00 3d
       0.041106652 -0.07922687 0.12097858 0.031427138
000170 72 bd f4 3c 1f f1 0f 3d 6a 3c 0d 3e 99 4c d8 3c
       0.02987549 0.03514206 0.13792577 0.026403712
000180 cd 83 6b bd ec f3 b1 3c e7 51 c6 3c 60 11 f7 bd
       -0.057498742 0.021722756 0.024208976 -0.12063861
000190 4f f7 57 3d 0c db 07 bd 14 e8 4e 3c 66 4b b0 bd
       0.052726086 -0.033167884 0.012628574 -0.08608131
0001a0 ef 79 40 3d c1 52 bd 3a 16 d8 b8 3d 6d 37 42 bc
       0.046991285 0.0014444218 0.0902559 -0.011854035
0001b0 58 bd f9 3d 6d 1d e9 3c e6 d1 6f bd 29 86 1e 3e
       0.121943176 0.028456414 -0.058549784 0.15480866
0001c0 66 60 dd 3d 4e bf 61 3b 2a 71 8e 3d af 3f 5c bd
       0.10809402 0.0034446302 0.06955178 -0.05377167
0001d0 9a 0c d4 bc df 28 c3 bb 20 10 84 bd e0 ba 21 3d
       -0.025884915 -0.0059558 -0.06448388 0.03948486
0001e0 ba b2 a3 bd ba c3 f4 bc 2d 8d b8 bc 88 82 a1 3d
       -0.07993074 -0.029878486 -0.022528255 0.07886225
0001f0 24 75 da 3c 32 9b 8b bd fa 0b 46 3d a5 de 1c bc
       0.026667185 -0.068167105 0.048351265 -0.009574567
000200 63 b0 34 bd ca e0 6f bd 93 8e 34 bd b8 46 03 3e
       -0.044113528 -0.058563985 -0.044081282 0.12819946
000210 98 31 34 bd 54 67 4c bd 37 d8 ea bd 22 24 b6 3c
       -0.04399261 -0.04990323 -0.11467021 0.022234026
000220 91 ac 19 bd eb d9 55 3c a5 5b 88 bc 2a c0 a0 bd
       -0.037518088 0.013052444 -0.016645262 -0.078491524
000230 3d 1c 6d 3d 78 44 1a be 90 6f 34 3d 17 6d a9 bb
       0.05788826 -0.15065181 0.044051707 -0.005170475
000240 3d 6f 89 3d 57 c0 4e bd 24 9b d4 3c f6 45 60 3d
       0.0671067 -0.0504764 0.025952883 0.05475422
000250 56 81 b1 3d d0 f5 47 bc a5 cc 47 3d c6 fa a6 bd
       0.08667247 -0.012204602 0.04877915 -0.081533
000260 28 59 d0 bd e8 c8 a2 bd e5 11 01 bd 00 0c 39 3d
       -0.10173255 -0.07948476 -0.031511206 0.04517746
000270 a2 09 62 bd 51 a9 f0 38 26 4e 58 bd 97 74 27 bd
       -0.055184968 0.000114756294 -0.052808903 -0.040882673
000280 b1 e7 ba 3d d9 49 62 bc 97 99 80 3d 73 2c 9f 3c
       0.09126223 -0.013811552 0.06279295 0.019430375
000290 85 97 17 3d 4e 70 86 bc d1 41 08 3e 73 64 63 b9
       0.037009735 -0.016410973 0.13306357 -0.00021685827
0002a0 b7 97 b7 bd ce b2 8b 3d 4b 93 4a bc fb 0d e9 3b
       -0.08964484 0.06821214 -0.012364219 0.0071122623
0002b0 ad 86 e7 ba 0d 28 48 3c 8a 01 b2 3d 19 9f 89 bd
       -0.0017664038 0.01221658 0.086917 -0.067197986
0002c0 44 42 10 be 5c 86 45 3d 43 b3 d4 bb 9a 05 c5 bd
       -0.14087778 0.04822384 -0.006491096 -0.09620209
0002d0 ca c7 50 bd bd 52 07 3c 7b 62 90 bd 0f 3c 6d 3c
       -0.050971784 0.008259472 -0.07050034 0.014479651
0002e0 3b 37 01 3e 5d c7 86 bd fb fa bc bd a5 c2 ae ba
       0.12618725 -0.06580994 -0.09227558 -0.0013333155
0002f0 a3 10 a4 3c 44 c8 11 bc 3a 9b e5 bc f1 23 47 3d
       0.020027464 -0.008897845 -0.02802812 0.04861826
000300 b4 54 67 bd ab 6c d5 bc a5 4a 9d 3d 93 0c 86 3d
       -0.056477264 -0.026052793 0.07680253 0.06545367
000310 ec cf 91 bc 2f 4b ee bd be 4d 59 bd 46 26 eb 3d
       -0.01779934 -0.11635434 -0.053052656 0.114819095
000320 81 10 05 bc 4a 40 eb bc 29 6c 02 be 95 da bd ba
       -0.008121611 -0.028717179 -0.12736572 -0.0014484698
000330 f2 26 99 3c 7e e7 21 3e 05 ae a4 3b 23 e7 7f bc
       0.018695328 0.15810964 0.0050256276 -0.015619072
000340 03 13 28 3d a3 cc bd 3d 47 5e 91 3c 7a bc 58 3d
       0.041033756 0.09267547 0.01774515 0.05291412
000350 f8 87 3b bd eb 59 bf 3b 3a 8a 56 bc e0 ec 05 3e
       -0.045783967 0.0058395765 -0.013094479 0.13078642
000360 53 d1 79 bd 30 67 6e 3d 7d 49 69 3c b3 f7 0b be
       -0.060990643 0.058203876 0.014238712 -0.13668709
000370 6b 22 00 3c 4e a6 3b bb 90 ab 84 3c 28 3e 39 bd
       0.007820706 -0.002863306 0.016195089 -0.045225292
000380 7a c9 d9 bc eb 13 b3 bb ed 06 38 bb 8a 8a 3b bd
       -0.02658533 -0.005465021 -0.00280803 -0.045786418
000390 32 91 a8 3d e8 a6 64 3b 63 0d b6 3d 2e 97 62 bc
       0.08230819 0.0034889523 0.08889272 -0.013829989
0003a0 04 3f 76 bd a6 2f 25 bd 1e 82 ec bd ae 89 40 3c
       -0.06011869 -0.040328644 -0.115482554 0.011751575
0003b0 55 b4 88 bc e1 be ec bd 01 d5 d9 3d f4 e5 d1 3d
       -0.016687552 -0.11559845 0.106363304 0.10248938
0003c0 ef 3e 4a 3d a8 23 00 3e 4f dd 9f 3c 37 88 dd 3d
       0.049376424 0.12513602 0.019514708 0.108169965
0003d0 6e f7 84 bd 96 44 e9 3d b0 b3 95 3c d5 33 94 3b
       -0.06492506 0.11390035 0.018274158 0.0045227804
0003e0 07 c4 49 bd f3 fc 13 bd 3c 5f 85 3d 38 a0 98 3d
       -0.049259212 -0.036129903 0.06512305 0.07452434
0003f0 db 7a 18 bd cd 15 9d bb ab 30 46 3d 0c 6b b9 bc
       -0.03722654 -0.0047938586 0.048386257 -0.022634052

bias f4 [128]
000000 c1 ce fa 3b 1c 9b 61 3c b7 ac 4a 3a 15 27 7b 3b
       0.0076540415 0.013769891 0.0007731425 0.0038322855
000010 40 ec 1e 3c 8d c0 15 3c ea b7 8b 3b bb 40 8e bc
       0.009699881 0.009140146 0.0042638676 -0.01736485
000020 44 a5 77 3c 03 96 89 3b cf e4 a1 3c 15 66 98 3b
       0.015115086 0.004198791 0.019762425 0.004650841
000030 f2 a8 93 3b 9c ac 85 3c 29 63 71 3b bc b2 3c 3c
       0.004506224 0.016317658 0.0036832786 0.011517223
000040 33 0a dc 3b 50 f8 36 3c 1d a5 94 3c e9 bb 48 3c
       0.006715083 0.011167601 0.018145138 0.0122518325
000050 43 b5 3f ba dd bc a6 3c 6a 2f c0 3a 5c 19 9b bc
       -0.0007313082 0.020353729 0.0014662568 -0.01893299
000060 96 73 a1 b9 06 fc c7 3b 6e 80 5e 3c c9 9b 35 bc
       -0.0003079443 0.0061030416 0.013580425 -0.011084505
000070 d9 da fd 3b bf 31 2f b9 3a 49 bb bb be a2 fb 3c
       0.007747036 -0.00016707832 -0.0057155164 0.03071725
000080 cf 92 12 3c a7 d1 a3 bb 93 95 9d 3c 56 61 bf bb
       0.008946135 -0.0049993577 0.019236362 -0.005840461
000090 b3 cc 9d 3c 43 fd b9 3b 1a 8b 6c 3c 01 75 97 bb
       0.019262647 0.005675943 0.014437461 -0.0046221022
0000a0 32 8b 8f bc 08 e2 21 bb 9e 4b 07 3c fa 2a 46 3c
       -0.017522428 -0.0024701376 0.008257775 0.012095207
0000b0 3d 5f 51 36 a5 3e 61 3c 9a df 86 3a e8 11 69 3c
       3.1198863e-06 0.013747846 0.0010290027 0.014225461
0000c0 50 68 93 3c 2d 04 bd 3c a0 ab a6 3c c8 02 e3 37
       0.017994076 0.02307328 0.020345509 2.7061804e-05
0000d0 73 58 26 bc 26 02 c2 bb 5c 94 2b 3c 7e ea 91 3c
       -0.010152924 -0.0059206663 0.010472383 0.01781201
0000e0 61 ac 05 3b 23 17 41 3c 2b b5 ed 3b 20 3c 02 3d
       0.0020396935 0.011785301 0.007254263 0.03179562
0000f0 09 e2 a5 3c 84 e5 3f 36 7c 37 a0 3c e7 7e 79 3c
       0.020249384 2.8594814e-06 0.019557707 0.01522801
000100 0c 19 91 bb 0a be b9 3c 4b 63 90 3a 9d 13 fd 3a
       -0.0044280346 0.022673625 0.001101592 0.0019308213
000110 78 95 a1 3b 60 98 c9 bc cb f8 3f 3b 1d f0 08 3c
       0.004931148 -0.02460879 0.002929258 0.008358029
000120 78 0f 01 3c 2d 8b 71 3b 73 a3 46 bc 6b 50 a6 3c
       0.007877223 0.0036856637 -0.01212393 0.020302018
000130 51 6e 05 bd 2d 89 9a 3c 3d 42 14 3c ba c5 0c bd
       -0.03257591 0.018864239 0.009048996 -0.034368254
000140 d3 c2 0b 3c d3 d8 9a 3c ec e0 6f 3c e0 95 07 3c
       0.008530336 0.018902218 0.014641028 0.008275479
000150 10 f5 73 3b a1 06 0b bb 2f de ae 3c 35 76 be 3c
       0.0037224926 -0.0021213668 0.02134618 0.023249725
000160 42 5d 2d 3c 4d fa db 3c 2d 36 b9 3b 00 c5 eb bb
       0.010581316 0.026852751 0.00565221 -0.007195115
000170 15 9e 3c ba b2 ab 6a 3b 6b f5 8b 3c a7 79 d1 bb
       -0.0007195187 0.0035807905 0.017084798 -0.006392676
000180 bc a2 11 3d 40 bf 32 3c 27 24 11 3b 59 b1 af bb
       0.035555586 0.010909855 0.0022146793 -0.0053617177
000190 52 db cd bc fa 26 17 3b 54 f3 f9 3a 38 95 19 3c
       -0.025128994 0.0023064003 0.001906971 0.009373955
0001a0 74 b7 82 3c c6 a8 8e 3c 26 a1 c8 3c 31 a3 4b bb
       0.015956618 0.017414462 0.024490904 -0.0031072611
0001b0 c8 d8 b5 3c 9e 32 f1 3b ca 24 4b 3c 18 65 f8 3c
       0.022198096 0.0073607704 0.012398908 0.030321643
0001c0 34 ae 09 3a 0e 58 d1 3a e6 af 19 3c 30 d9 33 3c
       0.00052520935 0.0015971677 0.009380316 0.0109770745
0001d0 89 ea 72 ba 71 32 66 3c ab 8b 82 bb 89 fc 51 3c
       -0.0009266516 0.014050112 -0.003983935 0.012816557
0001e0 28 93 06 3c 0e c9 19 3c ea 21 36 3c f1 98 88 3b
       0.008213796 0.009386314 0.011116484 0.0041686227
0001f0 52 a1 69 3b c7 31 c5 3b b3 27 13 3c 80 9d 62 3c
       0.0035649133 0.006017897 0.008981633 0.013831496

weight f4 [128, 128]
000000 91 fc 85 bd f4 69 82 3d 83 d1 7d 3d ca 29 00 3d
       -0.06542314 0.06367865 0.061967384 0.031289853
000010 36 e7 7e bd 15 5e cb 3d 75 08 64 3d c6 a1 01 be
       -0.06223222 0.09930054 0.055672128 -0.12659368
000020 1f dd 4e 3d 3a 73 b1 3d 67 13 99 3d 8c 00 01 be
       0.050503846 0.08664556 0.07474404 -0.12597865
000030 9e dc cd 3d 2a d9 78 3d 9d 85 e6 3d e0 bf 36 bd
       0.10051845 0.06075398 0.112559535 -0.04461658
000040 91 19 e0 bd b6 49 11 bd 36 11 14 3e 67 74 01 bd
       -0.109423764 -0.035470687 0.1445969 -0.03160515
000050 64 16 d4 ba 4e 5a 77 3c 68 6b 10 3c 8f a6 78 3d
       -0.0016180989 0.015097214 0.00881467 0.060705718
000060 b4 b8 e2 3c 0d ad ae 3d 57 b8 ce 3d 5d 12 c4 bd
       0.027675964 0.085291006 0.10093754 -0.09573815
000070 20 71 42 bd 77 82 9a bb 6a 7d 40 3d e5 c0 03 bc
       -0.047471166 -0.0047152597 0.046994604 -0.008041595
000080 0a a1 d4 3d 4b 8e 37 3e 71 af 47 bd e5 67 9c 3c
       0.10382278 0.17925374 -0.0487513 0.01909251
000090 3b 3b 80 bd 44 49 ea 3c 8e 2d 91 3d 95 41 e5 bc
       -0.06261297 0.028599389 0.07088767 -0.027985374
0000a0 fc cc 81 bd bb 92 8d bd 53 21 0c 3e cd d7 15 3c
       -0.06337926 -0.06912752 0.13684587 0.009145689
0000b0 00 20 80 3d 69 56 a3 3d b7 7c 81 bd 47 24 91 bd
       0.062561035 0.07975466 -0.063226156 -0.070869975
0000c0 a0 9d 53 3d 77 6a 0c 3e 80 20 e9 bc 41 00 52 bd
       0.051663995 0.13712488 -0.02845788 -0.051269773
0000d0 0a c1 6b bd 17 29 88 ba ea 8d e1 3d 99 5f 84 bd
       -0.057557143 -0.0010388222 0.11013396 -0.06463546
0000e0 5a 16 0b be 87 73 37 bd 2d ef 9a bc 0f 26 46 3d
       -0.13582745 -0.04478791 -0.018912876 0.04837614
0000f0 a2 8b 9b 3c 8f b9 05 be c3 5d dc 3d 15 8d 96 bc
       0.01898748 -0.13059066 0.10760071 -0.01837782
000100 b6 1d 9f bb df 22 4e 3d d6 79 a4 3b 59 e7 9e bd
       -0.0048558367 0.050326224 0.005019407 -0.0775897
000110 99 98 55 bd 65 16 3f b3 13 d7 10 3e d2 ca aa 3d
       -0.05214748 -4.449102e-08 0.14144544 0.08339466
000120 38 f2 11 bd 23 08 c4 3d e8 96 f0 ac 98 eb c5 3d
       -0.03563139 0.095718645 -6.8379642e-12 0.096640766
000130 43 9b 8e 3d f4 b0 3d 3d 6e 8a 0e bd 89 63 b0 3d
       0.069632076 0.046311334 -0.034799986 0.08612735
000140 23 cf 61 bc 07 08 51 bd df be 7b 3c b7 36 d3 3d
       -0.013782295 -0.051033046 0.015365331 0.103131704
000150 02 9a cb 3d 68 e5 a8 3d ff fe f4 3c 19 37 08 3d
       0.09941484 0.08246881 0.029906748 0.03325567
000160 6a 01 5a bd b0 24 6e 3d 34 c9 e4 bd fd 46 7e 3d
       -0.053224005 0.058140457 -0.11171189 0.06207942
000170 67 b6 20 3e fb 76 d2 3c 74 b6 46 3b 4a 46 18 bc
       0.15694581 0.0256915 0.0030321153 -0.009294102
000180 c6 10 c7 3d 34 0d 06 3d 9f d8 18 3c 66 8f 08 be
       0.09719996 0.032727435 0.00932899 -0.13335952
000190 75 0e cf 3d c3 b0 3b 39 ce 1d 98 bd 82 31 19 bd
       0.10110179 0.00017899559 -0.0742756 -0.03740073
0001a0 66 84 0f be a7 b8 d9 3c 82 a1 b6 bd b8 9b 01 be
       -0.1401535 0.026577307 -0.08917524 -0.12657058
0001b0 b6 ab 3c bd c0 91 54 3d c0 7c 9b 3c 24 d8 ab bd
       -0.046062194 0.05189681 0.018980384 -0.08390835
0001c0 df 5a 91 3c 6a 0c 04 3e cf b9 98 3d ef e1 b5 3c
       0.017743526 0.1289536 0.07457315 0.02220246
0001d0 65 5a 2d 3d db 83 6f bd 93 01 d1 bd 66 4a 9f bd
       0.042322535 -0.058475357 -0.102053784 -0.07777862
0001e0 68 fe 2f 3d ba a7 d9 ba 94 c0 5d bc 91 d0 3f bd
       0.04296723 -0.0016605773 -0.013534684 -0.046829764
0001f0 02 4a a0 b2 51 ee ab bd 43 ef 71 3c fe 4e 0d bd
       -1.8660106e-08 -0.083950646 0.014766517 -0.03449916
000200 22 ad 23 3c 6a ce b7 bd 80 7a ba 3d a5 7c 70 bd
       0.009990009 -0.08974917 0.09105396 -0.05871262
000210 ec 39 73 3d fa d9 98 3c 98 f8 e0 3c 0d 1a 24 3e
       0.05938141 0.018658627 0.027462289 0.16025563
000220 5a 87 9f bb e3 8f ec bd a1 3c 10 3e 85 a7 f3 bd
       -0.00486843 -0.11550882 0.14085628 -0.11897186
000230 92 59 10 be 97 88 81 3d 93 f5 ae bd 69 ac 4f bd
       -0.14096668 0.063248806 -0.08542933 -0.050701533
000240 cf 15 57 bd 66 14 09 3e bf 0d 50 3d a4 12 1e be
       -0.052511033 0.13386688 0.05079436 -0.15436798
000250 25 de b7 3d c2 1b 0e bd 51 3a 58 bc c9 1c 8f bd
       0.089779176 -0.03469444 -0.013197497 -0.06987912
000260 6c 3d f3 3b df 17 06 3d a4 aa 2a 3d c7 60 6a 3d
       0.0074230935 0.03273761 0.04166664 0.0572212
000270 75 26 8f 3d bd ce 18 3e ac 50 c9 3d b5 2b 25 bc
       0.06989757 0.14922614 0.0982984 -0.010081221
000280 b7 2b 0d 3e 18 62 3c 3d 5e 3b 8f bd 8b 47 99 bd
       0.13786207 0.045991987 -0.06993745 -0.07484349
000290 81 24 d0 3d 85 c5 20 3b 24 7c 03 bc cc b3 08 3e
       0.101632126 0.0024531793 -0.008025203 0.13349837
0002a0 4d 09 21 bd ff 76 b9 bd 48 1d a6 bd b4 99 91 bc
       -0.03931551 -0.090559 -0.08111054 -0.017773487
0002b0 a2 bb 64 3d 7f 17 98 bd a3 ab 44 3d 3a d3 09 3d
       0.055843003 -0.074263565 0.048015248 0.033648707
0002c0 be ce d9 3b c3 d8 93 bc b7 eb a8 bd e0 37 47 bd
       0.00664696 -0.018047696 -0.08248084 -0.04863727
0002d0 30 2c c8 3d 41 e5 34 bb b3 61 97 3c 9a 5c eb bd
       0.09774053 -0.0027602466 0.018479204 -0.11492272
0002e0 b1 6d 81 bd dd a4 09 3e a7 4d 69 3d fd 2b 73 3e
       -0.0631975 0.13441797 0.05695882 0.23747249
0002f0 68 6e fd 3d 6d bb 58 ba e6 f9 e0 bc 98 53 50 3c
       0.12374574 -0.0008267675 -0.02746291 0.012715243
000300 d7 f7 a3 3a 92 c1 a5 bc c9 25 39 bd ee f1 89 bd
       0.0012509775 -0.020233903 -0.04520205 -0.067355976
000310 47 82 26 3e 5a d5 16 33 ca 54 43 bd a1 88 91 3c
       0.16260634 3.511864e-08 -0.047688283 0.017765345
000320 4c 67 92 3d 04 dd ea 3d 56 2b 6e 3a b4 5c f4 3d
       0.071486086 0.11467937 0.0009085437 0.11931744
000330 b3 e3 13 3d 2a e3 5b 3d d9 27 17 3e aa b1 51 3d
       0.036105823 0.053683437 0.14761294 0.051194824
000340 ea 62 a8 3c b8 9c 34 bc da 89 14 3e 62 3a 7f 3d
       0.020554978 -0.011023693 0.14505711 0.062311538
000350 47 75 0f 3d fe 3b a1 3d ea c7 0c 3d c5 ab 29 bd
       0.035023954 0.07872771 0.03437034 -0.041423578
000360 9b df 8c 3d 93 6c 35 bd 60 b5 ca bb b0 07 60 bd
       0.06878587 -0.044292998 -0.0061861724 -0.05469483
000370 1b b6 84 3d 90 f5 1d 3d ed 98 47 3e 18 fb bf 3c
       0.06480046 0.038564265 0.1949193 0.02343516
000380 38 3f 30 3e 9a 64 17 bd 54 01 c3 bd ed f8 95 bc
       0.17211616 -0.036961176 -0.09521738 -0.018307174
000390 11 fc 85 bc 91 22 7c ba cc 2a 08 3d 2d 36 9d 3c
       -0.016355546 -0.0009618188 0.03324394 0.019190872
0003a0 ce 4e ad bd 6d 1c bf 3c cc 6b c5 3d ae 3b 84 bd
       -0.084622964 0.023328984 0.09639701 -0.064566955
0003b0 b6 29 cf bd 91 a2 a3 bc f7 95 b7 bd 54 3a 1f be
       -0.101153776 -0.019974979 -0.089641504 -0.15549594
0003c0 ed ab fe bd 69 2b 88 bd f0 97 07 bd fc ea d8 3c
       -0.12435136 -0.06648905 -0.033103883 0.026479237
0003d0 fd 36 90 bd 37 0d a8 bc f8 74 29 bd 1c 7c 87 3d
       -0.07041738 -0.020514114 -0.041371316 0.06615469
0003e0 a0 4d 77 bb 18 b7 db 3d 3e 6a 27 bd c7 b4 94 bd
       -0.0037735477 0.10728282 -0.040872805 -0.07261043
0003f0 76 6f dc b4 64 d4 94 bd 8c 07 99 bc 8c 22 c9 bc
       -4.1059292e-07 -0.07267073 -0.018680356 -0.024552606

weight f4 [1, 384]
000000 1e 26 d3 3d f6 6f 02 3e 2d 1e c4 3d b5 73 07 be
       0.10310005 0.12738022 0.09576068 -0.13227732
000010 54 f4 03 3e 06 ae 14 3d bc e8 77 3d dc 05 ec bc
       0.12886173 0.036298774 0.060524687 -0.028811388
000020 26 8a fd 3c ee 0d 2b 3c 16 1a 05 bd 00 3a 07 3e
       0.030949663 0.010440333 -0.03249558 0.13205719
000030 d5 2d 05 3e 33 17 fd 3c e4 08 f2 3c 4b cf 02 be
       0.13005765 0.030894851 0.029545255 -0.12774388
000040 64 1c 32 3e b5 97 fe 3d 1c c3 0a be 77 07 43 3d
       0.17393643 0.124312796 -0.13550991 0.04761454
000050 f1 90 21 3e 65 82 aa 3c b4 a1 10 bd c8 f2 28 bd
       0.15777947 0.02081413 -0.035310462 -0.04124716
000060 9b ad 3a 3e 16 f8 06 3e 2d 09 d3 3d 99 88 f3 bd
       0.18230288 0.13180575 0.103044845 -0.11891288
000070 0f 9f 7f bd c3 33 a7 3a 25 7b 7f bc a8 24 b5 3d
       -0.06240755 0.0012756515 -0.015593325 0.08844882
000080 44 49 b0 bd 1c 42 1f 3c fd 59 9d 3d 7e e1 c2 bd
       -0.08607724 0.009720352 0.076831795 -0.095156655
000090 19 51 8b 3d 3d 1a 8c bd d2 d9 92 bc bc 67 ad bc
       0.068025775 -0.06840942 -0.01792613 -0.021167628
0000a0 aa 6e 34 bd cb 55 80 3c 60 90 db bd 4d 03 03 3e
       -0.04405085 0.01566591 -0.10720897 0.12794228
0000b0 3c 4b a7 bd 60 68 19 be 29 28 94 3d 01 7b 79 3d
       -0.08168647 -0.14981222 0.072342224 0.06090832
0000c0 8d d8 87 3d 7f a9 b6 bd ce ba fb bc 53 c6 5e bd
       0.06633101 -0.089190476 -0.030728724 -0.054388355
0000d0 16 ae f2 3d 5c 3c b3 bd db 26 84 3d 10 f1 bf 3d
       0.118496105 -0.08751747 0.064527236 0.09372151
0000e0 ea 88 17 bd 8c 2b 09 3d 75 85 2e bc 54 a6 82 3d
       -0.036995806 0.033488795 -0.010651936 0.06379381
0000f0 ab 95 ca 3c 2c 5e 0a 3d aa 2b bc bc e4 2b ae bd
       0.02472957 0.033781216 -0.02297004 -0.08504465
000100 1d e0 06 3d 99 30 bf bc dd f7 4a bd ef 93 52 3d
       0.032928575 -0.023338603 -0.049552787 0.05141061
000110 17 ea 7f bc 81 70 fb bd 3f 8d 9f 3c ec 30 53 3c
       -0.015619776 -0.12277318 0.019476531 0.012890082
000120 ef 5d 08 bc 10 ba 02 3d 81 40 ba 3d 20 5b 66 3d
       -0.008323177 0.031915724 0.090943344 0.056239247
000130 4f 37 a5 bd 95 39 95 3d ca 15 17 bd c8 c7 cd bd
       -0.0806719 0.072863735 -0.036886014 -0.10047871
000140 72 3d 50 3c 9c 71 6f 3c 67 48 be 3d 46 fe 69 bd
       0.012709962 0.014614489 0.092911534 -0.05712726
000150 69 63 d2 3c 36 90 bd 3d b9 16 b1 bb d5 6a f3 bd
       0.025682168 0.09256022 -0.00540432 -0.11885611
000160 1b e6 c7 bd 53 b2 87 bd 2d 2a 5e bd 35 34 ef bc
       -0.09760686 -0.066258095 -0.05423944 -0.029199699
000170 02 5b 91 bd ff af 35 3d d5 3b c8 3d 55 9f f3 bc
       -0.070974365 0.044357296 0.09777037 -0.029739061
000180 6b f3 01 3e ed c4 9a 3d e5 2e 9f 3c 0f e0 47 bd
       0.12690513 0.07557092 0.01943154 -0.048797663
000190 bb 2f 58 3d 2a 0c d1 bc 3f d4 6d 3d 3f 7c 68 bd
       0.052779894 -0.025518496 0.05806374 -0.056759115
0001a0 4d 42 7d bc 26 1d df 3d 04 d3 e4 bd 5d 33 4e 3d
       -0.015457702 0.108942315 -0.111730605 0.050341953
0001b0 53 29 a3 ba 46 09 80 3c cc 25 f8 bd 4a 96 8b 3d
       -0.0012448229 0.015629422 -0.12116584 0.06815775
0001c0 e8 65 c8 bd bc 62 cf bd 45 3e 8e bd ca dd 13 3e
       -0.09785062 -0.10126254 -0.06945471 0.14440075
0001d0 0f 9b c1 3d b3 13 62 bd c4 0e 07 3e e9 cd 09 3b
       0.09453403 -0.055194568 0.13189226 0.0021027273
0001e0 6b 77 5a bd 41 e6 87 bd 3c 33 ad bb 3f 88 c1 3d
       -0.053336542 -0.06635714 -0.0052856486 0.09449815
0001f0 d7 21 bf bc d5 60 a5 bc 10 68 96 3d 69 57 91 3d
       -0.023331566 -0.020187775 0.07344067 0.0709675
000200 41 99 dc 3d d5 f3 54 3d 53 28 04 3e 0e 9f 17 3e
       0.10771418 0.05199035 0.12906007 0.14806768
000210 7e f8 69 3c 32 b3 e6 3d 66 da 8b 3d 58 37 fe bd
       0.014280437 0.112646475 0.068287656 -0.124129
000220 85 c3 0b be d8 53 0b be cc 2e ea 3d 9e 19 d9 bc
       -0.13648804 -0.13606203 0.11434707 -0.026501473
000230 49 af b9 bd 9d 8f ca 3d 49 bb 9e bc 91 3b e2 bc
       -0.09066636 0.09890673 -0.019376414 -0.027616294
000240 79 72 9e bd 75 0e 9e 3d 9a 68 07 3c a4 67 c0 bc
       -0.07736678 0.07717601 0.008264685 -0.02348692
000250 77 11 65 3d 26 67 22 be fb 79 a5 bd 72 dd 21 3e
       0.05592486 -0.1585966 -0.080799066 0.15807131
000260 67 57 b5 bc a7 de 1d 3e 88 04 33 3e 63 ce a0 bd
       -0.022136403 0.15416966 0.17482197 -0.07851865
000270 ef 03 13 3d 1e e2 fd bd 20 b4 d0 3d a8 1b 7c bc
       0.035892423 -0.12396644 0.10190606 -0.015387453
000280 d9 90 78 3d 76 4f ad 3d ac f8 87 bd e4 0a ad bc
       0.060685012 0.084624216 -0.06639227 -0.021123357
000290 21 24 3f 3d 74 d2 02 be d0 0d a9 bd dd 13 84 3d
       0.046665315 -0.12775594 -0.08254588 0.06449101
0002a0 fc 9d 14 be 15 84 0e be 67 31 b5 3c f3 df 1a bd
       -0.14513391 -0.13917573 0.022118283 -0.03781123
0002b0 5b 2c 66 3d 43 10 18 3e 8f 94 c0 3d 6b df 98 3c
       0.056194644 0.14849953 0.09403335 0.018661221
0002c0 8a fa 95 bd cd d7 c8 bd ec da c8 bd 7d 73 86 3d
       -0.07323177 -0.09806786 -0.09807381 0.065649964
0002d0 d7 40 9a bd 49 dc ba bc 63 66 6c 3c bc e8 82 bd
       -0.075318985 -0.022810118 0.014428708 -0.06392047
0002e0 87 20 88 3d 3b 72 f0 3d 73 7b d9 bd c8 c8 6c 3c
       0.06646829 0.11740538 -0.10619249 0.014452167
0002f0 be 78 2c 3d 1c d1 fd bd 84 36 00 3e 30 b7 88 3d
       0.042107336 -0.123934 0.12520796 0.06675565
000300 73 2c 7a 3d d1 e5 21 3e 4c ce c4 3d 3d 98 85 bd
       0.061077546 0.15810324 0.096096605 -0.06523178
000310 7e 0b 40 bd df 1f 88 37 10 2e 58 bd c4 3c 03 be
       -0.04688596 1.6227305e-05 -0.052778304 -0.12816149
000320 d7 8e e8 bd c3 62 33 bd 93 06 23 ba 69 80 41 bd
       -0.113553695 -0.04379536 -0.0006218936 -0.047241602
000330 8b 3b 1a be 4f 79 06 3e 40 a4 f3 ba 76 42 77 bd
       -0.15061776 0.13132213 -0.0018588379 -0.060366116
000340 af cb ca bd 50 00 e2 3c fa c5 a7 3d 3e 9e 07 bd
       -0.09902131 0.02758804 0.08192058 -0.033109896
000350 bd 38 0d 3e 56 ef 0b be 86 9e ac bd 4b 77 1c 3e
       0.13791175 -0.13665518 -0.084286734 0.15279882
000360 3a 92 8f 3d 53 7b 20 3e d4 1b bf bc 55 e9 c9 bd
       0.070103124 0.15672044 -0.0233287 -0.09858958
000370 48 e5 88 3d 6c c2 01 3e 37 6a c2 3c 03 4c f0 bd
       0.06684357 0.12671822 0.023732288 -0.11733248
000380 79 82 92 bc 76 60 e4 3d 4f 7d 0d bd e9 dc 9f bc
       -0.01788448 0.11151211 -0.03454333 -0.019514518
000390 c3 ca b3 bc 71 43 73 b8 48 06 07 3e df 3d 25 3d
       -0.02194727 -5.7998524e-05 0.1318599 0.040342208
0003a0 3a 88 bf bd 17 81 5d 3d 62 72 5e bd 9b 53 1f be
       -0.09352155 0.054078188 -0.054308303 -0.15559237
0003b0 36 01 96 bc 6b 09 b3 bc 5f 6a d2 bd 25 5a 8e bd
       -0.018311124 -0.021855077 -0.10274195 -0.069507875
0003c0 46 70 1c 3d 9a c6 0e 3e 72 3a dc bd bc 7c e5 bb
       0.03819301 0.13942948 -0.10753335 -0.007003395
0003d0 a0 99 08 be 8d d2 0f be c0 42 8d bc 72 5a 1b 3e
       -0.13339853 -0.14045162 -0.017243743 0.15171221
0003e0 99 ab dc 3d 76 df a3 3d 0d a8 0e be d3 c9 0e bc
       0.10774917 0.08001606 -0.13931294 -0.008715111
0003f0 40 84 40 b9 65 b2 9d 3d f8 8c ea 3c 17 8f 18 be
       -0.00018359814 0.07700042 0.028631672 -0.14898334

weight f4 [128, 768]
000000 48 d1 82 a6 96 f9 2e a6 c7 f8 d6 24 df 9f 13 26
       -9.077288e-16 -6.070663e-16 9.322915e-17 5.1217536e-16
000010 85 14 e5 26 3d e1 43 a7 62 0a 88 25 de c2 ec 25
       1.5895629e-15 -2.7183788e-15 2.3599275e-16 4.107152e-16
000020 da 1e 2e 26 57 bd 35 a5 f1 55 d3 26 3c ba 23 27
       6.041019e-16 -1.5763398e-16 1.4664361e-15 2.2721752e-15
000030 a1 ef 8a a6 a4 51 aa a6 b9 81 df a5 4c 6e ff 27
       -9.640625e-16 -1.1818248e-15 -3.8772237e-16 7.08963e-15
000040 ec 8a 03 a7 78 7e 91 26 bf f6 0e 27 d0 45 09 a6
       -1.8255212e-15 1.0095676e-15 1.984022e-15 -4.7626037e-16
000050 e4 9c dc 25 c6 9d 84 a6 f4 e5 21 27 68 c1 b9 a6
       3.827023e-16 -9.202105e-16 2.2467896e-15 -1.2889377e-15
000060 c5 62 49 26 17 f7 ed 26 4e 48 b8 a5 a5 e6 11 28
       6.986974e-16 1.6512152e-15 -3.1967908e-16 8.09913e-15
000070 be 52 08 a7 cb 8d 6f 26 7e 48 3d 26 f9 ce d7 27
       -1.8918646e-15 8.311195e-16 6.567079e-16 5.9898888e-15
000080 a2 57 0b a7 9f 6f b4 26 e4 a8 0b 26 db f0 22 a7
       -1.933763e-15 1.2520264e-15 4.84542e-16 -2.2612584e-15
000090 48 62 22 a7 12 60 48 27 0e 31 99 25 87 84 b9 a6
       -2.2535295e-15 2.7807655e-15 2.657451e-16 -1.2872875e-15
0000a0 14 02 aa 25 95 1f fa a5 6e c3 09 27 49 d9 cb a6
       2.9491707e-16 -4.3389488e-16 1.9118512e-15 -1.414485e-15
0000b0 70 81 8f 24 03 5f 4d 27 a8 3b 98 25 35 6a 0c 25
       6.223564e-17 2.850097e-15 2.6408221e-16 1.2179049e-16
0000c0 81 23 10 26 7e 22 38 a8 88 37 80 a7 0a 47 07 a7
       5.0008153e-16 -1.0221531e-14 -3.5587344e-15 -1.8773524e-15
0000d0 b6 b1 ca a4 3e 39 e1 27 ea f7 85 26 5b ec fd a6
       -8.790459e-17 6.2512107e-15 9.295926e-16 -1.7619466e-15
0000e0 f9 e3 de 26 7c 01 52 26 35 29 00 26 11 fd 91 26
       1.5466137e-15 7.28604e-16 4.4464767e-16 1.012999e-15
0000f0 c7 8f db a6 0d 25 2a 26 b7 20 3a 26 ad 10 91 a9
       -1.5235149e-15 5.903081e-16 6.457605e-16 -6.442186e-14
000100 ed 03 58 26 da 4f d9 a6 b9 62 0b 27 1c 43 c4 26
       7.4945375e-16 -1.5079044e-15 1.9343643e-15 1.3618422e-15
000110 81 17 10 a5 ba fd 53 26 f6 2b e2 26 c0 25 04 28
       -1.2497972e-16 7.3549194e-16 1.5693816e-15 7.335658e-15
000120 c1 3e be 26 7c d0 c1 a5 44 09 d3 26 5f 05 10 a7
       1.3200908e-15 -3.3621438e-16 1.4643578e-15 -1.9986926e-15
000130 f6 2e c5 a6 f5 53 a2 26 03 da b1 25 13 80 3b 27
       -1.368235e-15 1.1263765e-15 3.0852336e-16 2.6020892e-15
000140 f2 be 0e 27 02 8f af 27 08 89 71 25 a2 a5 53 a6
       1.980997e-15 4.8727307e-15 2.0949846e-16 -7.3429805e-16
000150 83 6b 68 25 2d a3 a5 28 21 35 06 26 ef f6 bc 29
       2.0159219e-16 1.8389446e-14 4.656259e-16 8.391713e-14
000160 cc 7d 8b a6 56 cf 27 a4 0e 11 c6 26 fe e1 3e a6
       -9.67916e-16 -3.6387973e-17 1.3743633e-15 -6.622577e-16
000170 69 ee 7d a6 12 e2 42 a7 ab 90 a8 a6 2e 2e eb 25
       -8.8100114e-16 -2.7045461e-15 -1.1696554e-15 4.0797294e-16
000180 e0 83 a5 a6 68 e1 b3 a6 e3 01 bb 26 72 10 8c a7
       -1.148492e-15 -1.2481717e-15 1.2976243e-15 -3.8875636e-15
000190 fa 75 9e 26 90 82 22 a7 5f 2d f3 24 f9 c9 cd a6
       1.099543e-15 -2.2552794e-15 1.0546131e-16 -1.4279477e-15
0001a0 2f a7 ee 25 76 f1 91 a6 8d c3 0a a7 77 a3 0e a7
       4.1399707e-16 -1.0126844e-15 -1.9257355e-15 -1.9795073e-15
0001b0 b1 83 47 a5 81 a2 8b 26 bf ef 59 a8 df 31 84 a6
       -1.7305117e-16 9.689109e-16 -1.20979065e-14 -9.172858e-16
0001c0 3d d6 e3 25 a3 54 f1 25 81 2c 08 a7 9a 0e 03 27
       3.9523396e-16 4.1864188e-16 -1.8897917e-15 1.8187818e-15
0001d0 c3 4a aa a6 c7 cb 7d a6 0d ca ac a6 80 07 fe a6
       -1.1816384e-15 -8.805318e-16 -1.1989663e-15 -1.7626823e-15
0001e0 bf 9e 73 26 d1 7a 34 27 5e 05 a2 26 63 15 e5 a6
       8.45227e-16 2.5046597e-15 1.1242463e-15 -1.5895864e-15
0001f0 7d 47 a1 26 8f ca dd 26 59 bb 81 26 fc 78 65 27
       1.1190996e-15 1.5389859e-15 9.001954e-16 3.184572e-15
000200 42 aa 58 a4 8d b6 7f 25 2d ac 5d 26 4f 09 ef 23
       -4.6981748e-17 2.2179575e-16 7.690812e-16 2.5916374e-17
000210 2c f8 7e a7 d6 05 80 a6 7c 86 89 24 4c 0f 06 24
       -3.5384115e-15 -8.883366e-16 5.9642104e-17 2.9069575e-17
000220 dd 86 f4 27 11 16 e9 28 32 70 8a 26 5f 37 d8 27
       6.7869824e-15 2.5877766e-14 9.606084e-16 6.0012077e-15
000230 c3 a1 f8 26 ba 3e b9 26 f7 ba 35 a6 80 a4 46 a7
       1.7252302e-15 1.2853956e-15 -6.3050374e-16 -2.7567195e-15
000240 f9 78 77 a7 06 fe 45 26 1c 92 24 25 b5 ac af a7
       -3.4343715e-15 6.869237e-16 1.4274236e-16 -4.8759507e-15
000250 98 3d 5c 26 22 28 4e a7 42 fb 2b 26 a1 2a 9b 26
       7.641131e-16 -2.8609999e-15 5.966806e-16 1.076684e-15
000260 91 25 9b a5 42 3c 8e 25 1a a6 e0 25 43 a7 5b 27
       -2.691367e-16 2.4673906e-16 3.897036e-16 3.0483028e-15
000270 1d 1e 51 26 c3 8b f5 a5 ab 9e 21 25 e6 aa 61 a6
       7.255225e-16 -4.2595431e-16 1.4018283e-16 -7.8294167e-16
000280 4f 84 09 26 94 1f f9 a6 25 b2 55 a6 40 e3 48 a8
       4.7710735e-16 -1.7286405e-15 -7.414065e-16 -1.1151507e-14
000290 3e 5d 72 a5 95 45 a9 25 5a 3a 06 27 90 8b c2 24
       -2.1021746e-16 2.9363977e-16 1.8627868e-15 8.4370517e-17
0002a0 ec e7 2e a7 48 4f b4 a7 02 6f 98 26 d4 3c 0f 25
       -2.4273076e-15 -5.0045993e-15 1.0577207e-15 1.2423882e-16
0002b0 d7 96 c0 26 df 1f 83 26 56 e0 39 26 cf cc 1e 26
       1.3363562e-15 9.09859e-16 6.44888e-16 5.509483e-16
0002c0 a4 bf 43 a6 72 f0 28 27 a8 6b d0 27 0b b3 d0 a6
       -6.7913937e-16 2.344503e-15 5.784832e-15 -1.4481429e-15
0002d0 02 0e db 23 c6 65 2e 25 ea 1b 92 a6 42 b4 6d 28
       2.374996e-17 1.5126576e-16 -1.0138351e-15 1.319523e-14
0002e0 d5 e2 22 27 2d 4e 96 a6 c5 b5 df 28 ce 39 aa 25
       2.2604982e-15 -1.042953e-15 2.4836803e-14 2.952947e-16
0002f0 30 32 82 26 b5 58 ca 27 aa 06 8d a6 86 b6 6b 26
       9.034165e-16 5.616244e-15 -9.785647e-16 8.177937e-16
000300 e1 5b dc 24 2e 14 41 a6 fb 11 33 26 15 c1 43 a8
       9.556544e-17 -6.6987675e-16 6.212747e-16 -1.08665425e-14
000310 aa a6 7b a7 17 8f 53 a5 f1 e4 0f a3 a8 b4 a8 a6
       -3.4923596e-15 -1.8349813e-16 -7.800526e-18 -1.1706309e-15
000320 4a ad eb 26 61 1d 02 a7 97 24 b1 a4 d4 19 2e 26
       1.6353371e-15 -1.805705e-15 -7.68235e-17 6.040338e-16
000330 a4 16 86 26 3c ff 95 24 2d 64 8f 26 ab 7e 4b 28
       9.304255e-16 6.5050833e-17 9.949771e-16 1.12962304e-14
000340 bc 4d fc 26 ac d8 42 a7 f6 93 86 a5 53 03 91 a8
       1.7507083e-15 -2.7040366e-15 -2.3345557e-16 -1.6099676e-14
000350 7f ae 8f a6 bd 4a b6 29 96 21 16 a7 da 79 51 a6
       -9.969916e-16 8.0953886e-14 -2.0834889e-15 -7.267658e-16
000360 30 38 70 24 a3 3d 88 a6 b5 ea 7f a6 79 b8 e3 27
       5.2089297e-17 -9.453602e-16 -8.8788985e-16 6.3205162e-15
000370 dd c3 8f a6 80 39 1e 24 af 57 a6 26 76 47 15 a6
       -9.975707e-16 3.4309493e-17 1.1542331e-15 -5.1791607e-16
000380 9b 00 b5 26 c6 88 7e a6 00 59 dd a6 f6 8d 1f a6
       1.2559562e-15 -8.8309315e-16 -1.5359079e-15 -5.53566e-16
000390 ad 94 b3 26 0a a2 bc 23 fb 78 3a 26 0f 91 68 a8
       1.2460919e-15 2.0451627e-17 6.469567e-16 -1.2910042e-14
0003a0 5e d7 e0 a6 37 31 0b a5 06 0f 91 a8 5d 0c 54 a6
       -1.5601498e-15 -1.2073003e-16 -1.610475e-14 -7.356903e-16
0003b0 04 8b 65 26 08 d0 23 27 ff 22 64 27 54 b1 e2 a5
       7.9638737e-16 2.2733568e-15 3.1660328e-15 -3.9324913e-16
0003c0 43 f7 72 26 33 b4 87 24 26 98 3f a6 b8 5c 01 a7
       8.429572e-16 5.8852187e-17 -6.6472636e-16 -1.795261e-15
0003d0 de 77 04 ac 97 14 8c 27 dd 87 6d a7 f2 cd a2 a6
       -1.8824868e-12 3.888013e-15 -3.2964009e-15 -1.129683e-15
0003e0 c7 cc 12 a7 f9 3b db a6 f9 86 6c a5 99 a5 f7 a5
       -2.037258e-15 -1.5212433e-15 -2.0515468e-16 -4.2959883e-16
0003f0 ee 59 1c 23 c7 32 0f 25 f3 53 ef a6 13 5b be 26
       8.47582e-18 1.2420477e-16 -1.6606711e-15 1.3208584e-15
