outputs/NCI1_Hie/model.pth (torch, 335830 bytes, 13 tensors)

bias f4 [128]
000000 13 fc cb 3b 7b 34 0e bc 96 9b 55 bb 8a 63 84 3c
       0.006225118 -0.0086795045 -0.0032593957 0.016160745
000010 db 1c 50 3d 27 c3 f1 39 fb f6 20 3d 6b 84 00 3d
       0.05080877 0.00046112502 0.03929804 0.031376284
000020 36 a0 9e 3c fb ee 2e bd 4b 92 78 3d 32 a3 17 3d
       0.019363504 -0.04270838 0.06068639 0.03702087
000030 9d a4 d5 3c ed 79 58 3d 70 6f 53 b7 c6 b9 4b bc
       0.02607947 0.052850652 -1.2602526e-05 -0.012434429
000040 1f fe d7 bc 49 93 58 3a dd 32 ee 3c ee e5 77 3d
       -0.026366292 0.00082616933 0.029076988 0.060522012
000050 40 c3 8b 3d 6c 2c 9e 3d e3 f6 6c 3d 65 3c 8d 3d
       0.0682435 0.077233166 0.057852637 0.06896285
000060 07 d0 46 3d c5 6f 3d bd 84 12 5e 3d e2 23 82 3d
       0.048538234 -0.04624917 0.054216877 0.063545
000070 3b 10 2b 3d 33 a3 a9 3d ae 8d 50 3d 5b 89 2f bd
       0.041763525 0.08283081 0.050916366 -0.0428556
000080 ac 43 4d bc a6 8e 92 bb 88 c0 1b 3d 6b 67 7b 3a
       -0.012528341 -0.0044725714 0.03802541 0.00095903006
000090 b3 d0 ab 3c e6 87 c2 bb 53 59 cf bc bc de 59 3c
       0.020973539 -0.0059366105 -0.025311148 0.013297733
0000a0 47 04 c4 bc 68 ab 10 bd f7 e7 9f bc d3 bb 0a 3d
       -0.02392782 -0.035319716 -0.01951979 0.03387053
0000b0 5c 5a 9a 3c 14 b4 ba 3b 3d e0 15 bd 4e d0 4e bd
       0.018841915 0.0056977365 -0.036590803 -0.050491624
0000c0 5b cc 57 bb 3b 6f 92 3c 5f 46 b1 bb c4 ec 38 3d
       -0.0032928202 0.017875304 -0.00541 0.045147672
0000d0 11 c9 13 3c 11 5d 39 3d 66 de c8 3c 3e b2 26 3c
       0.009020106 0.04525477 0.02452011 0.010174332
0000e0 45 41 0b 3d 69 11 ee 3b fd 6c 92 bc 75 ac 62 bd
       0.033997793 0.007265259 -0.017874235 -0.05534025
0000f0 fa b4 27 3d 43 0e 95 3c 38 d1 24 bd ed 43 89 3c
       0.040944077 0.018195277 -0.04023859 0.016756022
000100 ae 77 3a bd 8a ef 36 3c da bc b7 bb 37 f3 93 3c
       -0.04552429 0.011165509 -0.0056072297 0.01806031
000110 6b 86 14 bd 0b 43 24 3d 82 14 1f 3d c8 04 0c 3d
       -0.036261003 0.040103 0.038837917 0.034184247
000120 6f 29 70 3c 73 fe c0 3c bc dd bd 3c b8 c7 2d 3d
       0.014658316 0.02355883 0.02317702 0.042426795
000130 23 7d 8b 3d 4d 3f 40 bc 43 e9 20 3d 26 d4 ee 3c
       0.06810977 -0.011733842 0.039284956 0.029153895
000140 e5 55 5a 3d 9c 73 1f 3d 75 e3 0b 3d 2f 95 23 b7
       0.05330457 0.038928613 0.034152467 -9.750292e-06
000150 f7 2f 5a 3a 56 1c 92 3d 90 56 22 3d ab 50 11 3c
       0.00083231874 0.07134311 0.039633334 0.00886933
000160 52 d7 d9 3c bc e7 2d bd d9 ef f5 3c 95 72 24 3d
       0.02659193 -0.042457327 0.030021595 0.040148336
000170 99 fc 6c 3d a7 72 f5 3b 9d f9 a4 bb d1 a8 12 3d
       0.057858083 0.0074904743 -0.005034639 0.035805527
000180 04 db 37 3d 62 79 3e 3d 53 63 b9 3c 15 9d 84 3d
       0.044886604 0.04650248 0.02263037 0.064752735
000190 43 cf 71 3d 9a e7 f6 3b ee 81 c5 3c 14 ff 53 3c
       0.05903555 0.0075349333 0.024109807 0.012939233
0001a0 95 21 6d 3d ad fd c4 3c 92 5c 96 bb 5d c1 a1 b8
       0.057893354 0.024046743 -0.004588672 -7.713095e-05
0001b0 a5 85 91 3c eb 9b 12 3c 2e d0 06 3d 9f 6f 47 3d
       0.017763922 0.008948307 0.03291338 0.048690435
0001c0 15 a8 42 3d a3 29 66 bb bd e5 36 3d 61 18 d0 3c
       0.047523577 -0.0035120032 0.04465269 0.02540225
0001d0 ec b6 d6 3c f7 ad ee bc 7c 6b 34 3d c5 81 16 3d
       0.02621027 -0.029135687 0.044047818 0.03674485
0001e0 79 c0 cb bc e0 11 a7 bb 2f 2b 03 bc e3 91 a9 bd
       -0.024872052 -0.0050985664 -0.008005901 -0.08279779
0001f0 4c 18 61 3c 98 b6 f5 bc 32 cd ed 3b 66 5b fe bc
       0.013738703 -0.029994294 0.007257127 -0.031049442

weight f4 [128, 37]
000000 20 20 d2 3d 32 10 10 3e fd 72 ae 3d 73 2d a0 bd
       0.102600336 0.14068678 0.08518026 -0.07821169
000010 b7 99 bf bd ad a1 82 bd b8 3d 48 bd 17 79 86 9d
       -0.09355491 -0.063784935 -0.048886985 -3.559471e-21
000020 a7 07 50 3e a2 e1 54 9d 02 8e 6d 38 e2 0e 50 9d
       0.20315419 -2.8174616e-21 5.663746e-05 -2.7536265e-21
000030 0f 79 8e 27 f7 79 cc ba 6c 77 7b b4 32 3d 1c 3b
       3.954417e-15 -0.0015600313 -2.3419642e-07 0.0023840186
000040 98 c6 13 bc b3 85 2b 1c 53 a2 70 bb f1 51 1f bc
       -0.009019516 5.6751956e-22 -0.0036717847 -0.009724126
000050 f7 e3 38 bd d5 38 e6 bd 92 6c ca b4 70 69 51 35
       -0.04513928 -0.112413086 -3.7704427e-07 7.8012e-07
000060 56 2a a9 bb 7a bf fb bc 9c 42 41 3b 83 e4 09 ba
       -0.0051625175 -0.030730952 0.0029489165 -0.0005260186
000070 fa a0 13 29 6b 93 f2 3a 0b bb 2d bb d9 40 50 3a
       3.2780182e-14 0.0018507069 -0.0026509191 0.00079442334
000080 b1 48 94 1d 51 05 83 35 b1 eb 64 3a 9f 33 0f 39
       3.9250435e-21 9.761808e-07 0.00087326305 0.00013656773
000090 b5 b9 eb 3b 53 1c 84 3e 1f 04 a4 be 17 35 77 bc
       0.007193769 0.2580286 -0.32034394 -0.015088341
0000a0 89 f2 84 bc 1e a7 aa bc 53 36 a0 bd d4 1e 7b 3d
       -0.016228931 -0.02083164 -0.078228615 0.061308697
0000b0 63 62 f2 20 56 db 75 3e 53 e8 c9 b6 ef df 56 a9
       4.1061502e-19 0.24009451 -6.017313e-06 -4.7711777e-14
0000c0 4e 70 f5 ba b4 79 4f 37 c7 69 4d 3d e3 4b f5 a4
       -0.0018725486 1.2366498e-05 0.050149705 -1.0638037e-16
0000d0 6a 95 ce 35 52 1c 09 3a 3c 0f 76 1c f8 9f 08 3c
       1.5391681e-06 0.00052303553 8.141426e-22 0.008338921
0000e0 f7 bd 21 28 56 88 3b ba 75 9d 39 be 27 cd db a2
       8.978487e-15 -0.00071537995 -0.18126471 -5.9577282e-18
0000f0 45 a3 11 ac 42 8c 10 b8 5b d3 e6 bb 4f cd 35 bb
       -2.0696372e-12 -3.44629e-05 -0.0070442385 -0.0027740782
000100 55 42 4e a7 79 49 8a b3 d0 37 06 2c 8b 9a 0d 9c
       -2.8624202e-15 -6.4394904e-08 1.9073527e-12 -4.685273e-22
000110 f8 ef 90 b9 d2 cd 15 3b b3 87 36 bb 83 f6 80 9d
       -0.0002764461 0.0022858274 -0.002785188 -3.4136205e-21
000120 59 24 c0 ba 32 58 cb 3b 97 08 35 3e e3 5c 8c be
       -0.001465927 0.006205582 0.17679058 -0.27414617
000130 8c fe 92 bc 7f 95 5a bd 38 69 45 3d 64 17 9e 3d
       -0.017943643 -0.053365227 0.048196048 0.07719305
000140 e6 77 4c 3d 16 57 ef 9b 9d aa a4 3e b3 cc c2 1e
       0.04991903 -3.959551e-22 0.32161418 2.062521e-20
000150 e6 d6 08 20 02 33 0f ae 56 d5 ac 24 3d e7 5e 3d
       1.1590752e-19 -3.255974e-11 7.4954515e-17 0.054419745
000160 d9 21 22 bb a5 7b d2 b8 ba 8c c8 2c 17 db 4a 1e
       -0.0024739413 -0.00010036611 5.6999657e-12 1.0739098e-20
000170 99 07 8b 3c cf af 1c b2 11 4d 2e 3a eb a1 20 be
       0.016971396 -9.120369e-09 0.0006649057 -0.15686767
000180 4f 72 04 bb 4f cd 59 39 b3 eb e1 ba 36 18 84 bd
       -0.0020209735 0.00020771216 -0.0017236382 -0.0644993
000190 f5 84 27 36 9a 5a 8c 32 e4 b8 b4 9d 39 92 92 2d
       2.496233e-06 1.6339346e-08 -4.7836776e-21 1.6663214e-11
0001a0 21 98 61 37 fc 8f 14 ba 50 f4 27 3b 3c f7 05 a3
       1.3446465e-05 -0.00056672073 0.00256278 -7.262298e-18
0001b0 39 ff 0b 9c d1 4a a7 b7 44 62 02 bc 97 5f 91 be
       -4.632111e-22 -1.994279e-05 -0.007957999 -0.28393242
0001c0 2e 9a 86 be 78 cb 97 3d 72 cb 9f bb 0c 8e 20 3e
       -0.26289505 0.074118555 -0.0048765475 0.15679187
0001d0 f1 44 41 bd 09 d0 a0 3d 8b 1a 98 21 99 7e 50 be
       -0.04718489 0.078521796 1.0306947e-18 -0.20360793
0001e0 b1 11 87 b9 d6 73 c2 b9 ce 8f 74 37 b3 32 59 34
       -0.00025762388 -0.00037088868 1.45770155e-05 2.0228144e-07
0001f0 90 92 ae 3d 59 6d 38 3b 45 2d 94 3a 52 fc ec 3b
       0.08524048 0.0028141348 0.0011304995 0.0072322274
000200 3c 41 a6 37 6d 11 f7 bb a0 03 9f bc 21 b8 1d 3e
       1.981912e-05 -0.007539919 -0.019410908 0.15402271
000210 da 8c 29 3e 36 2b c2 b5 f3 57 23 1d 9c c9 e6 bb
       0.16557637 -1.4466702e-06 2.161834e-21 -0.0070430767
000220 17 e1 97 bd c4 31 15 3a a4 37 8f 39 de e9 06 9d
       -0.07415979 0.00056913146 0.0002731654 -1.7855659e-21
000230 92 0c 0c 3d 36 11 ac 1c 00 1a 01 9c 7b f5 6c 9c
       0.034191675 1.1386454e-21 -4.2716124e-22 -7.8403126e-22
000240 66 99 3a ba ac bd fc 39 96 bf a0 34 a5 b2 4a 3a
       -0.0007118195 0.00048206502 2.994172e-07 0.00077323086
000250 31 e1 c4 3d 23 ba 4b 3d 32 8b b6 bd 97 f4 4b 3d
       0.09613264 0.04973806 -0.08913268 0.049793806
000260 6a 3a af bc c8 9d b8 bb 90 bd 77 bd 1e 19 c9 ba
       -0.021390159 -0.0056340434 -0.060483515 -0.0015342569
000270 13 11 47 bd 6f 70 c8 b7 95 af 08 21 84 bc 57 9c
       -0.048600268 -2.3894214e-05 4.6310973e-19 -7.1381183e-22
000280 65 a5 57 27 6a cb 44 bc 57 80 f2 9a 4c 73 8a 1e
       2.9926904e-15 -0.012011388 -1.002962e-22 1.4659004e-20
000290 6c 54 3a 3b 6a c5 d8 35 71 96 1c a6 03 60 81 20
       0.0028431667 1.6150709e-06 -5.432726e-16 2.1916985e-19
0002a0 34 82 88 bc 19 16 2f 3e cd eb 0c ba a8 7a 12 b4
       -0.016663648 0.17098273 -0.0005375713 -1.3641932e-07
0002b0 4f c2 1c 3a 85 8d b5 bb 4d 12 3e bc 77 90 3c 33
       0.0005979882 -0.005540552 -0.011601043 4.390355e-08
0002c0 d6 60 22 9c b9 03 90 3c 6a 44 83 38 ca 67 62 9f
       -5.372646e-22 0.0175799 6.25931e-05 -4.7943214e-20
0002d0 2e 9f 99 2e 52 98 0e a9 c7 82 36 a9 80 08 ae 38
       6.9859105e-11 -3.166245e-14 -4.052555e-14 8.29855e-05
0002e0 f4 ec 02 3c 78 ca bb be 85 dd c1 be f5 51 17 3e
       0.007991064 -0.3667791 -0.37864318 0.14777358
0002f0 ba f2 8f bb 5a b6 95 3c b8 ff 9d bd 42 d0 90 3d
       -0.004392949 0.018275429 -0.0771479 0.07070972
000300 86 90 be 36 16 fb 0b 3d 84 e6 b2 32 ba 57 32 2e
       5.679266e-06 0.034175 2.0826754e-08 4.055043e-11
000310 87 56 a1 35 f3 85 86 a4 d7 5f 92 3c 50 a6 39 a0
       1.2020618e-06 -5.8340155e-17 0.017867966 -1.5725138e-19
000320 50 7e a8 2b 09 34 06 3b 2e 87 03 39 11 ca 23 bc
       1.1972177e-12 0.0020477793 0.00012543492 -0.009996907
000330 1c 0d dc bc 89 aa f6 3d 3e b1 3f bc f2 1f e4 ba
       -0.02686172 0.12044246 -0.011699973 -0.001740454
000340 aa 36 e8 a6 22 25 a3 bc 9d 9f 99 bd d9 cf 50 3a
       -1.6113051e-15 -0.019915167 -0.07501147 0.0007965542
000350 1a 77 d2 ba b2 90 a5 21 47 bd 35 bc 90 ff 3a 39
       -0.0016057224 1.1219135e-18 -0.0110924905 0.00017833547
000360 fd 02 4c 39 3a 25 98 22 58 38 ea 36 9d a6 3c 3b
       0.0001945607 4.1239098e-18 6.9803027e-06 0.0028785833
000370 b3 22 12 3b ef 07 d9 33 e6 ab 06 bd f5 a5 dc bd
       0.0022298514 1.0106293e-07 -0.03287878 -0.10773841
000380 89 f5 8b bc 06 8b ce 3d 57 14 48 bd d8 56 88 bd
       -0.017084854 0.1008511 -0.048847523 -0.06657189
000390 3b a6 9f 3d 30 83 4d 27 d0 a9 6e 3d c8 5c 3d bb
       0.07795378 2.8520582e-15 0.058267415 -0.0028894413
0003a0 b1 2a d9 b9 75 a1 c0 22 10 ae 96 9e 61 3a 06 3e
       -0.00041421273 5.2212654e-18 -1.5953858e-20 0.13108207
0003b0 9e 43 34 bb 6b 7b 40 35 93 9b 41 3d 90 3d 29 ba
       -0.0027506123 7.170517e-07 0.047267508 -0.0006456012
0003c0 d5 d1 bf bb a8 e3 75 bc 68 8c d9 3c 59 f8 ef 3d
       -0.0058538713 -0.015007891 0.026556209 0.117172904
0003d0 b8 2f 2b a1 14 79 e6 9c e6 22 0b bb 6f 8a f1 bd
       -5.800021e-19 -1.5251421e-21 -0.0021230518 -0.11793982
0003e0 7c fc 0f ba 58 9e 4c ba fe b0 89 38 9e 58 24 3d
       -0.000549264 -0.00078055775 6.5656364e-05 0.040123574
0003f0 ee f8 32 3b 33 41 00 b9 d0 4e 41 ab 47 88 56 34
       0.0027309018 -0.0001223132 -6.867675e-13 1.997988e-07

bias f4 [128]
000000 0a 9c d9 bb 0f 6a 82 3c 5c 31 98 3b 00 00 00 00
       -0.0066409158 0.015919713 0.004644556 0.0
000010 1d 68 5a bb af 2f 39 3d cb 80 78 3c 40 71 74 bb
       -0.0033326217 0.04521149 0.015167425 -0.0037298948
000020 56 3b a6 3c b3 07 92 3b c6 64 1b 3d 80 34 6a 3d
       0.020291965 0.004456484 0.037937902 0.057178974
000030 6b 6c 62 bc 76 cf 1c 3c f4 70 f5 ba 0d 7b 1e 3c
       -0.013819794 0.009570947 -0.0018725679 0.009672892
000040 77 6d 1a bc cc 61 27 3c 9b 6b be 3c 1c fc e7 bb
       -0.0094255125 0.010216188 0.02324467 -0.0070796143
000050 13 f0 24 bc 58 59 f8 3c 2a 94 e2 3c 50 27 3f bb
       -0.010067004 0.03031604 0.02765854 -0.002916772
000060 e1 9a f4 ba 06 ae 0e bb ad 6b a3 bb 42 2d 39 3d
       -0.001866188 -0.0021771207 -0.004987201 0.045209177
000070 b1 bf 9d 3b 18 29 f2 3c 61 43 2c 3d 2b ff fc b8
       0.004814111 0.02956061 0.042056445 -0.00012063825
000080 51 0d b2 3c 38 99 c7 bb de e5 0b bc 5f 1c 59 ba
       0.021734865 -0.006091263 -0.008538691 -0.00082821207
000090 b3 f1 3c bc 6a bf 01 b8 eb 62 3e bd 6e 58 1a 3c
       -0.011532235 -3.0934265e-05 -0.046481054 0.009420497
0000a0 fe 74 30 bd 61 4a 3f 3c 16 98 31 3c 8a ff 8b 3c
       -0.043080322 0.011675448 0.010839483 0.017089624
0000b0 0d 2b cb ba 00 0d 18 1c ba 92 92 3c 1c 05 a0 bb
       -0.0015500501 5.0309383e-22 0.01789223 -0.0048834216
0000c0 a6 9c be bb 1e 8d 5a bc 2e 0d a0 ba 7b df 15 3d
       -0.005817014 -0.013339309 -0.0012210959 0.03659008
0000d0 e4 12 f5 bb d9 17 42 bc 98 c1 6e bb aa 81 80 3c
       -0.0074790586 -0.011846506 -0.0036431309 0.015686829
0000e0 78 27 90 b9 90 8f 3f 3d f3 d7 fb 38 22 bd 45 ba
       -0.00027495227 0.04676777 0.00012008836 -0.00075431366
0000f0 d5 51 2a 3d c1 48 88 bb f5 e6 17 bb cc 9c 3a 3d
       0.041581947 -0.0041590636 -0.0023178433 0.04555969
000100 cd 9d 51 bd 9c 4b 26 bc 00 00 00 00 e2 d6 91 bb
       -0.05117588 -0.010149863 0.0 -0.004450665
000110 47 66 21 bd 83 d5 6d bb c9 dd 76 bb c0 58 64 3d
       -0.03940418 -0.0036290593 -0.0037668815 0.0557487
000120 43 1b 40 3c 8a 60 db b9 b2 5b 03 3d 80 85 7c 3c
       0.01172525 -0.00041842862 0.03206987 0.015412688
000130 f8 6a c9 bb e1 e8 2d 3d 4a 5a 3e 3d e0 40 91 3c
       -0.006146785 0.04245842 0.046472825 0.01773113
000140 18 0c b1 3b 26 20 56 3d c4 db 09 bb 13 d8 db 3a
       0.005403053 0.052276753 -0.0021035532 0.0016772769
000150 c7 1f 17 bc a8 df 51 3d f4 52 f8 3c 74 b2 44 3d
       -0.009223885 0.051238686 0.030312993 0.04802175
000160 15 07 91 3a 5d 72 71 3b d2 08 0f bc ec 84 4b bb
       0.0011064733 0.0036841847 -0.00873013 -0.003105457
000170 cc e7 78 ba dc 5f e4 bb a1 40 19 bb 98 8a 91 bb
       -0.00094949896 -0.006969435 -0.002338447 -0.0044415705
000180 ef ae a3 3c b8 45 25 bc 8f 62 0d 3d b3 67 6d bb
       0.019980876 -0.010087423 0.03451782 -0.003622514
000190 9e f3 8a bb 37 1b 28 b9 21 62 cf 3b 4b 37 10 bc
       -0.004240467 -0.00016031867 0.0063288365 -0.008802245
0001a0 0f 7a 8f bb 07 b2 8d 3c ac 96 1e bb 76 3b 8e bb
       -0.004378564 0.017296804 -0.0024198694 -0.0043405844
0001b0 5f 5b 86 bc 46 c8 44 bb aa 6f 91 ba f2 8e a4 3b
       -0.016400991 -0.0030026599 -0.00110959 0.005021923
0001c0 91 96 2f 3d 0b 74 50 bb d5 a7 c9 bb 65 7f a4 3c
       0.0428682 -0.0031807448 -0.0061540403 0.020080278
0001d0 fe 32 f6 ba a8 00 89 b9 22 25 9a 3c 8b ff c3 3a
       -0.0018783507 -0.00026131165 0.018816534 0.0014953477
0001e0 95 65 98 bb 60 94 29 bc 99 28 ef 3b e6 07 51 bc
       -0.0046507814 -0.010350317 0.007298541 -0.012758231
0001f0 cb 25 ff 3b 9c ec 89 1d 4c 35 9a 3c 27 1e 66 bc
       0.0077864877 3.6508246e-21 0.018824242 -0.014045275

weight f4 [128, 128]
000000 2e 60 9e b9 5d 4d 9d b8 d1 4f 1b b9 b9 b4 8e b9
       -0.00030207768 -7.5007534e-05 -0.00014811686 -0.00027219
000010 f2 65 1a 39 40 63 db ba 54 37 24 37 a1 07 79 36
       0.00014724562 -0.0016737953 9.788044e-06 3.7108332e-06
000020 2e d5 53 b6 fa 70 11 2f 4c a1 a1 b9 06 e3 b9 ba
       -3.1565537e-06 1.322781e-10 -0.00030828489 -0.0014182038
000030 44 17 9d b9 07 f9 fc b7 59 47 87 39 db ca 07 ba
       -0.00029962708 -3.0156703e-05 0.00025802365 -0.0005180069
000040 8b 72 4d 2a 12 a3 06 2c e9 2e 01 b2 e8 be 68 2b
       1.8247398e-13 1.9133068e-12 -7.519454e-09 8.2687893e-13
000050 98 89 8e b7 ec 21 f9 39 d9 d7 86 b6 3c e4 da 2b
       -1.6991791e-05 0.00047518255 -4.018639e-06 1.5553179e-12
000060 2b 38 6a bb c0 e4 fb b9 cc cf be b9 73 eb 48 b5
       -0.0035739045 -0.00048044883 -0.00036394445 -7.484843e-07
000070 e2 c1 86 39 8c ad 36 ab a2 c9 1c af ff 72 1e b8
       0.00025702926 -6.4900234e-13 -1.4259752e-10 -3.7777234e-05
000080 a1 bf 05 ba a0 70 77 b9 a2 2b 00 ba 08 da 32 bb
       -0.00051021023 -0.00023597712 -0.00048893143 -0.0027290601
000090 f7 73 ed b5 0b 28 4b aa a9 b9 8d b4 e6 2e d1 b5
       -1.7691626e-06 -1.8043915e-13 -2.6398382e-07 -1.5585363e-06
0000a0 85 27 50 b8 33 f1 05 b6 6d 5b cf ac 58 04 a1 b4
       -4.962787e-05 -1.995894e-06 -5.893444e-12 -2.9991747e-07
0000b0 a2 ee ad b7 b7 47 e3 2d e7 bd 67 ba 78 18 f2 b4
       -2.073433e-05 2.583876e-11 -0.00088402483 -4.5093816e-07
0000c0 65 8b 65 b4 09 93 70 38 e4 14 26 b4 eb 17 9d b7
       -2.1377998e-07 5.7357396e-05 -1.5467555e-07 -1.8726996e-05
0000d0 4b 2b ab b8 41 01 98 ba 9a e8 c8 ab ae 6d e9 ba
       -8.161979e-05 -0.0011597053 -1.4275415e-12 -0.0017809176
0000e0 80 03 0e aa 8c a8 20 bb 43 e3 b3 ab c9 ef ee b7
       -1.2613348e-13 -0.0024514524 -1.2781793e-12 -2.848347e-05
0000f0 55 df d0 ba 8a 99 61 2b 88 a0 a6 38 23 10 06 bb
       -0.0015935699 8.0149136e-13 7.945398e-05 -0.0020456396
000100 dc dd 3c b8 bb ab 05 b4 4c ff fc b9 56 67 64 b9
       -4.5029316e-05 -1.2449065e-07 -0.00048255397 -0.0002178227
000110 07 35 1e ba 82 6e 93 b8 9f 8b 90 33 24 79 03 ba
       -0.00060351234 -7.03009e-05 6.7309195e-08 -0.0005015305
000120 07 3d ed b1 67 59 c1 36 70 c9 32 34 90 e3 15 2e
       -6.904546e-09 5.762256e-06 1.6650824e-07 3.4080794e-11
000130 ab e8 3b b9 92 76 02 bb 56 98 16 2c d7 04 83 b7
       -0.00017920385 -0.00199071 2.1400846e-12 -1.561867e-05
000140 df 04 61 2c f6 42 e6 ba 84 a7 ad b7 6c 32 88 37
       3.1977127e-12 -0.0017567563 -2.0701213e-05 1.6235943e-05
000150 5d 9a da 38 5a e4 58 39 c2 41 42 b9 2d 00 0c ba
       0.000104238025 0.00020684433 -0.00018525778 -0.00053406024
000160 07 a4 de 37 bf b6 d0 b0 26 f5 5b b5 ba 93 e8 aa
       2.6540843e-05 -1.5185931e-09 -8.1940595e-07 -4.1313985e-13
000170 b3 ac 44 bb 53 e0 e3 37 54 83 aa 39 8e 04 7c b4
       -0.0030010163 2.7164968e-05 0.00032522774 -2.3470986e-07
000180 55 93 3c b4 2f 5f 8c ae 73 3c df bb 45 6d 84 bb
       -1.7562463e-07 -6.383371e-11 -0.006812626 -0.0040413463
000190 ee 9f 3f 2f 16 39 27 37 59 8d d1 2e f0 17 79 ba
       1.7428167e-10 9.967267e-06 9.529328e-11 -0.0009502163
0001a0 31 5a 2a b9 fa e5 4a bb d0 e9 0b b9 30 3f 7d b6
       -0.00016246062 -0.003095983 -0.00013343175 -3.7736718e-06
0001b0 4b 42 ed b5 61 1e 7e ac 1c 32 25 2c 27 00 0d bb
       -1.767717e-06 -3.6112435e-12 2.3475727e-12 -0.0021514983
0001c0 ca f8 87 2b 09 8b c3 9c 60 18 d5 bb 7e 20 b4 b4
       9.66138e-13 -1.2939957e-21 -0.00650315 -3.3551254e-07
0001d0 dc 58 78 38 38 58 98 b9 e5 c3 38 b8 da 65 d9 b9
       5.9210564e-05 -0.00029057427 -4.405146e-05 -0.0004146535
0001e0 f8 e8 be b8 a4 23 a7 ba e6 39 17 b5 b6 92 5a b6
       -9.1033e-05 -0.0012751711 -5.6336137e-07 -3.2569928e-06
0001f0 8f 1a 47 2c dc b2 71 b7 26 d0 a8 28 09 27 d0 34
       2.8294344e-12 -1.4406363e-05 1.8742017e-14 3.877142e-07
000200 36 8d ff 3c 07 04 d4 3d d7 52 55 bc c7 66 16 bd
       0.031195264 0.10352331 -0.013020239 -0.03671911
000210 41 04 c9 bd 87 2b 28 bb 7c 75 9a 3c 68 96 03 be
       -0.098152645 -0.002566071 0.018854849 -0.12850344
000220 14 52 dc 3a aa ec 84 3d e4 67 01 3d a5 e5 0c 3d
       0.0016809129 0.064904526 0.03159322 0.034398694
000230 b2 f0 eb bd bd 15 34 be a1 4d f2 b8 36 04 85 3d
       -0.11520518 -0.17586417 -0.00011553919 0.06494944
000240 4d 24 ca bc ea 60 83 3d 5c 1e 18 bc 05 df 03 3d
       -0.024675513 0.06414969 -0.009284582 0.03219511
000250 c9 8f 0a be ea 21 36 be 52 85 66 3c 1d 9e 07 be
       -0.13531412 -0.17786375 0.014069872 -0.13243909
000260 dc 35 cc 3c c9 34 34 bd d4 a5 15 be 21 d9 d6 bd
       0.024928026 -0.043995652 -0.1461404 -0.10490633
000270 91 c4 9e bd 19 b9 2c be 1a 32 43 be be 86 f0 bd
       -0.07752336 -0.16867484 -0.19062081 -0.1174445
000280 ec 1b 1a bc e2 2e 97 bd 41 8b 79 3d 6a 99 9f 3d
       -0.009406071 -0.07381989 0.06092382 0.07792933
000290 5b f6 2a bd 08 0a 57 3a cc 88 0d 3b 51 c5 f7 3c
       -0.04173885 0.0008203094 0.002159643 0.030245455
0002a0 63 5b d5 bd 2e 72 07 3d 22 c5 97 3c fe 18 f4 bd
       -0.10417821 0.033067875 0.018526617 -0.119188294
0002b0 57 c4 dc bd 96 0f c2 3d ea 47 c6 bd eb 52 c9 bd
       -0.10779636 0.09475629 -0.09681685 -0.098302685
0002c0 7b fe 52 39 37 c2 d5 3b 64 37 08 be 51 4a 7e 3d
       0.00020121962 0.0065233964 -0.1330238 0.062082592
0002d0 09 a5 8d bb 4a f1 08 3d 48 f0 19 be 2c 53 b2 3d
       -0.0043226522 0.033433236 -0.15033066 0.0870727
0002e0 d4 ef d5 bd 11 3b ca bb 32 3e 94 3d d2 79 85 bd
       -0.10446134 -0.006171592 0.07238425 -0.06517376
0002f0 fb 6f de 3c f1 0b 52 bd a6 0a ad bd 7a 58 80 bd
       0.027153006 -0.05128092 -0.08449297 -0.062668756
000300 c2 64 e1 bd f9 e0 ba bc ee 48 b0 bd c8 a3 f4 3c
       -0.11005546 -0.022812353 -0.0860766 0.029863253
000310 8f 8d fa bc 86 f9 0a be 8d 64 04 be 9b 0b 76 3c
       -0.030585079 -0.13571748 -0.12928982 0.015017415
000320 c3 2f 80 3d 28 eb 84 3e fd f4 51 bd 96 91 0d 3d
       0.0625911 0.2596066 -0.05125903 0.03456267
000330 b9 8a c7 bd 25 e0 76 bd 79 0b ef bd aa 14 88 bd
       -0.09743256 -0.060272355 -0.1167211 -0.06644566
000340 f1 f5 eb bd d5 6a a7 3c 97 d4 a8 bd 1a 6c 01 30
       -0.11521519 0.020436684 -0.08243673 4.708355e-10
000350 bb 75 a5 bd f7 32 b1 bd 6d 97 75 3d d5 f6 d4 bd
       -0.08079096 -0.08652299 0.059958864 -0.10398642
000360 dc f6 16 be 7d 05 3e 3d 05 81 64 bd 79 a2 01 be
       -0.14742607 0.046391953 -0.055787105 -0.12659635
000370 f0 2f 32 3d 1b b5 fc bd 33 6e a1 3a a6 bb 0a be
       0.043502748 -0.123392306 0.0012316167 -0.13548145
000380 aa aa 59 3e 8c 67 f0 bd b6 79 4b 3c 25 36 14 3d
       0.2125651 -0.117385 0.012419155 0.03618445
000390 e9 7a a5 bd 75 ed ab 3b ad fd 6c 3e cf e8 20 3d
       -0.08080084 0.005246813 0.23143645 0.039284524
0003a0 b8 e0 1e 3d 08 5f e0 3c 30 45 90 bd c5 d8 c2 a8
       0.038788527 0.027389064 -0.070444465 -2.1632335e-14
0003b0 6a 77 10 bb f0 a0 56 3d f4 46 d5 3a 24 83 b5 3c
       -0.0022043833 0.052399576 0.0016271756 0.02215726
0003c0 f1 95 16 be 20 81 94 1d 7b 51 85 3d 67 27 68 3d
       -0.14705636 3.9308786e-21 0.06509682 0.056678202
0003d0 38 15 b3 bd 9b 00 ce bd 3d 2c 30 bb 9e 9a e6 3c
       -0.087442815 -0.10058709 -0.0026881837 0.0281499
0003e0 aa aa d0 bd 81 38 99 3c 4d 92 78 3d ed d6 4a bc
       -0.101888016 0.018703701 0.0606864 -0.012380344
0003f0 6a ab fd 3c e5 83 4c 3b 8f 66 37 3d 95 a4 9f 3d
       0.030965526 0.0031206545 0.044775542 0.077950634

bias f4 [128]
000000 3d 9b a9 bb 13 d6 02 bc 76 61 8d bb e1 b7 e3 ba
       -0.0051759765 -0.00798561 -0.0043145968 -0.0017373526
000010 ce 44 04 b9 3e e6 36 b9 19 be 8e bb 37 b3 d9 ba
       -0.00012614133 -0.00017442644 -0.0043561575 -0.0016609196
000020 c9 6d 16 bc aa 6f dd ba 3b 94 e5 a3 ff ce e1 ba
       -0.009181448 -0.001689424 -2.4891008e-17 -0.0017227827
000030 58 0c 72 b1 cc a4 3e 3c fe 39 0d bd 30 f2 e4 bb
       -3.5222651e-09 0.01163597 -0.034479134 -0.006986879
000040 b5 17 95 b9 3e f9 87 bb ad 32 e1 b9 d2 52 e7 3b
       -0.00028437158 -0.004149585 -0.000429531 0.0070594335
000050 c4 24 ea ba 93 4e 80 bb 25 bb 33 bb bd 8d 59 3c
       -0.001786374 -0.003915617 -0.002742478 0.013278422
000060 87 e4 f3 b0 f6 88 31 bc c9 f1 05 bb f5 56 0b bb
       -1.7745528e-09 -0.010835877 -0.0020438305 -0.0021261547
000070 ef 25 34 bb 79 87 a0 3a 31 83 8f ba a5 91 6b b9
       -0.002748843 0.0012247405 -0.0010949132 -0.00022465603
000080 ae 74 a7 3c f7 3d 00 3d 99 34 9a ba 70 03 b8 ba
       0.02044138 0.031309094 -0.0011764943 -0.001403911
000090 04 df 1a bc 9b cf 4c b6 34 7a 8c bc 59 fb 74 ba
       -0.009452585 -3.051921e-06 -0.017148115 -0.0009345315
0000a0 b3 53 b6 bb fa 46 de b2 92 6a d5 bb e4 81 15 3c
       -0.005564177 -2.5876478e-08 -0.0065129483 0.009125207
0000b0 80 f5 ab ba 4b 75 17 ba 0c a5 4d b9 9d b1 61 bc
       -0.0013119429 -0.0005777671 -0.00019611808 -0.013775256
0000c0 c9 3a 32 b7 79 f4 89 b9 c6 d5 83 ba f3 37 0f ba
       -1.0623314e-05 -0.00026312823 -0.0010058216 -0.0005463354
0000d0 13 50 8b 3b 07 4b 99 3c f3 43 03 bb 21 57 0d bb
       0.004251489 0.018712534 -0.0020029515 -0.0021566825
0000e0 36 99 47 bb 9e 28 64 ba 22 4f e7 bb 65 fa 26 bc
       -0.003045631 -0.0008703562 -0.007058994 -0.010191535
0000f0 c2 9f 8d ba 90 37 7a bb aa 50 90 ba e1 e2 b3 b8
       -0.0010805058 -0.003818009 -0.0011010368 -8.5776446e-05
000100 fd c2 53 ba f1 c9 2f 3c 32 b2 89 bb 76 69 8e bb
       -0.0008078067 0.010729299 -0.0042021507 -0.004346068
000110 59 43 7d bb eb 81 3d bb cd eb 1a bc 74 5b 3c bb
       -0.0038644879 -0.0028916548 -0.009455633 -0.0028741034
000120 b1 34 85 bb 95 e7 26 bc 3a 97 0e bb 72 2b bb 3a
       -0.004065119 -0.010187049 -0.0021757619 0.0014279915
000130 8b 5f a8 ba f3 84 82 ba f2 e7 7f bb 0f af fb b8
       -0.0012845857 -0.0009957835 -0.0039048162 -0.0001200122
000140 2e 22 53 b8 06 4a 23 3d 74 04 ef bb 25 1f e9 b7
       -5.0338153e-05 0.039865516 -0.007294232 -2.7790267e-05
000150 91 40 b7 bb b3 fa de b9 ac d2 50 b9 56 ce b5 b9
       -0.0055924137 -0.00042529925 -0.00019914907 -0.00034676743
000160 c6 e7 83 bb 1c 7a 63 bc 6b 37 e6 b8 04 d7 7e bc
       -0.0040254323 -0.013884094 -0.00010977577 -0.015554193
000170 bd 3f 5b 3d 87 9d 0b bc d1 28 93 b8 fe b7 b6 b8
       0.053527582 -0.008521444 -7.017109e-05 -8.7127075e-05
000180 ae 30 1b bc 9d 52 92 ba a1 9b eb b9 73 68 17 bb
       -0.009472055 -0.0011163537 -0.00044938645 -0.0023103028
000190 03 cb 18 3b ee cf df b8 f7 14 8c ba 2b 9b d2 bb
       0.0023314364 -0.000106721986 -0.00106874 -0.006427189
0001a0 3a 37 4b 3c 59 12 8a bb 68 ce 98 3c c8 98 90 3a
       0.012403304 -0.004213613 0.01865311 0.001103186
0001b0 63 fd 89 b9 4d 7a 03 bc ca ab 57 ba 8c 30 62 3d
       -0.00026319464 -0.008024764 -0.00082271977 0.05522208
0001c0 39 6f 5e 38 39 23 bb bb 24 5c 27 b8 d0 b6 59 b9
       5.303251e-05 -0.005710986 -3.9901715e-05 -0.00020762836
0001d0 1b 7a 9d bb a7 0b 3a b2 f8 b3 ef ba 34 9d 0c bc
       -0.004805816 -1.0829274e-08 -0.0018287888 -0.008582402
0001e0 47 3b c9 a6 a8 4c 61 bb 9a 3b d1 b7 c2 9d 56 bb
       -1.3963244e-15 -0.0034377966 -2.4942496e-05 -0.003274784
0001f0 09 59 34 3b fd 36 c7 ba 71 94 ab b6 6e fd b2 39
       0.002751889 -0.0015198883 -5.113478e-06 0.00034139625

weight f4 [128, 128]
000000 63 7a 4d b9 18 d8 ab b7 93 7a ea b7 91 c0 57 b8
       -0.00019595916 -2.0485415e-05 -2.7952052e-05 -5.1439336e-05
000010 0a 79 14 9d 2d 3c 17 b6 4e 12 b4 b9 f0 18 08 36
       -1.9650213e-21 -2.253578e-06 -0.00034345913 2.0280095e-06
000020 16 27 59 b6 63 e3 4f 2d 6b 84 04 b8 88 6a 95 b6
       -3.235827e-06 1.1817078e-11 -3.1594576e-05 -4.452948e-06
000030 ae ba b8 1e 4c 90 25 b6 dd 9e 8d b8 bc c5 e4 39
       1.9558967e-20 -2.4670908e-06 -6.7529945e-05 0.00043634872
000040 ea 88 74 1c ec e1 e7 b6 30 d5 c4 b6 67 38 86 38
       8.0909785e-22 -6.9106372e-06 -5.8660735e-06 6.400124e-05
000050 d0 85 18 39 23 6e f6 27 22 da ec b8 79 35 b5 23
       0.00014545699 6.8398126e-15 -0.00011293987 1.9646706e-17
000060 f7 8b de 2b 63 3d e2 20 ac fa c0 30 32 c9 06 32
       1.5812897e-12 3.8326512e-19 1.4041084e-09 7.845573e-09
000070 5a 19 a8 34 be 92 74 27 ad 91 27 27 9e 08 57 9b
       3.1310884e-07 3.3941351e-15 2.3254877e-15 -1.7787168e-22
000080 9b 11 2b aa e2 33 aa a7 9b 7e 04 2c 5f 0a 48 a9
       -1.5193959e-13 -4.724073e-15 1.8828608e-12 -4.4417916e-14
000090 7b de 6c 24 f0 78 a8 b9 92 5c 9f 27 14 d7 89 a9
       5.136279e-17 -0.00032133562 4.423173e-15 -6.121332e-14
0000a0 06 ea a2 28 fb 8b 10 35 5d bc 0d b8 83 5c 51 39
       1.8087104e-14 5.384788e-07 -3.3792447e-05 0.00019966257
0000b0 3f 02 32 1c f1 e3 60 b0 af c3 3c 21 0b 17 52 b4
       5.8898163e-22 -8.181465e-10 6.3955863e-19 -1.9566157e-07
0000c0 5f a2 de b8 74 a8 23 34 0a d0 d7 b8 3e bc 91 b5
       -0.00010616029 1.5241841e-07 -0.00010290749 -1.0858128e-06
0000d0 ed 29 49 a3 fd 76 fa ab 0e ae 42 38 32 c6 17 b3
       -1.090511e-17 -1.7796594e-12 4.6415305e-05 -3.5337685e-08
0000e0 d7 d4 a5 a1 ff 99 1c ba 22 da 3f 38 d8 d4 2d 9e
       -1.1237173e-18 -0.0005973875 4.57411e-05 -9.202559e-21
0000f0 e0 59 e3 b7 db 55 de 33 c8 1d 04 b7 bf 9b 27 3a
       -2.710236e-05 1.03532976e-07 -7.874747e-06 0.00063937524
000100 2e 8e 0e 30 60 5f 30 26 46 3a c8 1d ae 3a 03 1d
       5.186135e-10 6.1191524e-16 5.2999813e-21 1.7368042e-21
000110 f4 36 88 b9 75 01 e9 37 a3 88 ee b3 13 41 87 b7
       -0.00025980885 2.7776443e-05 -1.1107593e-07 -1.6123557e-05
000120 50 70 3b b5 0e 16 9b b8 23 1c 6d 27 b8 85 d5 a9
       -6.9826365e-07 -7.395084e-05 3.290561e-15 -9.482297e-14
000130 ae d6 f4 24 16 b9 81 a9 ee cf 4a a8 9b a9 52 38
       1.06181814e-16 -5.760858e-14 -1.125834e-14 5.022586e-05
000140 7d aa eb b6 fe b9 f0 b9 9e 1a 88 ac a1 7c 3e b9
       -7.023393e-06 -0.00045914942 -3.8683076e-12 -0.0001816624
000150 38 ee de 1c 90 bb 4f 27 c2 6f 05 2b 05 5a ba b6
       1.4752306e-21 2.8828699e-15 4.7406187e-13 -5.5537116e-06
000160 5f 84 90 1d 0b 5b 9c b8 47 c8 9b 9d 5f 9b d2 b8
       3.825335e-21 -7.455618e-05 -4.123524e-21 -0.000100425204
000170 f6 2b 7e b7 b8 4b c9 1d 82 e4 eb a4 9e 0f 0d 35
       -1.5149815e-05 5.328255e-21 -1.0230211e-16 5.254932e-07
000180 1c d3 d6 38 6f f8 f1 b3 c8 be 8e b9 55 22 e3 b4
       0.000102436374 -1.1267627e-07 -0.00027226494 -4.2307025e-07
000190 d8 6f 07 a6 ce a7 76 1f 48 e7 ea b2 c0 d6 24 39
       -4.698911e-16 5.223133e-20 -2.734636e-08 0.0001572026
0001a0 df 07 13 a2 4a 74 9a b5 cb e4 5f 39 2a c2 90 b6
       -1.9926382e-18 -1.1507739e-06 0.0002135217 -4.314138e-06
0001b0 ce ff 83 24 1f b0 6c 2c fd 81 d1 b7 ab b0 50 38
       5.7245544e-17 3.3635384e-12 -2.4975272e-05 4.97556e-05
0001c0 f4 b8 50 27 d4 7e 18 9b 5e ad dd 36 86 b6 8b 38
       2.8966062e-15 -1.2614126e-22 6.606496e-06 6.662034e-05
0001d0 62 5b ba b9 cb a8 19 37 94 90 b8 2d a5 a1 46 b1
       -0.0003554477 9.158811e-06 2.0982584e-11 -2.8904676e-09
0001e0 12 2e 01 1d 33 12 00 b8 52 a8 d7 b5 ef 82 9c 9d
       1.7096826e-21 -3.0534527e-05 -1.6067736e-06 -4.142824e-21
0001f0 66 88 2b 29 eb 17 7a 9d c6 07 db b6 0d 0d c8 39
       3.8087934e-14 -3.309959e-21 -6.5276136e-06 0.00038156696
000200 e8 a3 b1 39 f1 35 d3 39 26 03 f3 b3 62 32 ec b5
       0.0003388219 0.00040285246 -1.1316142e-07 -1.7598034e-06
000210 e9 5e 76 b9 6a b2 aa 23 65 6b 23 ae d5 fb a8 21
       -0.00023495745 1.8506998e-17 -3.7157295e-11 1.1450782e-18
000220 52 c3 6a b5 fc d4 83 b5 60 6e 6c b2 c8 a1 3f b8
       -8.745602e-07 -9.822247e-07 -1.3762104e-08 -4.568862e-05
000230 c8 06 76 20 b4 a6 82 a3 63 bc a8 ab af df a1 af
       2.0839254e-19 -1.416523e-17 -1.1989406e-12 -2.9444666e-10
000240 d0 a2 92 31 41 f9 09 38 d9 dc 11 b9 af 01 59 9c
       4.267669e-09 3.289548e-05 -0.0001391055 -7.1801453e-22
000250 45 ae 27 a1 42 f7 38 b1 d4 15 a2 39 5b 65 7d 9e
       -5.6812445e-19 -2.6916074e-09 0.0003091531 -1.3414668e-20
000260 33 ae 04 b7 db f7 d7 38 1f 16 56 1e 9d 94 13 9b
       -7.908372e-06 0.000102981656 1.133364e-20 -1.2207575e-22
000270 4c d1 45 b8 ef 19 37 9e 1b 50 80 b9 7c e1 d8 b3
       -4.7163383e-05 -9.693302e-21 -0.00024473746 -1.0099299e-07
000280 4f d4 75 b3 cc f4 1e 34 45 c2 3b 33 a3 44 56 34
       -5.72366e-08 1.4803953e-07 4.3716017e-08 1.9955273e-07
000290 aa c0 b8 9f dd 4c 06 b8 cb 34 66 b9 b1 3d 38 b9
       -7.824577e-20 -3.2019674e-05 -0.00021954176 -0.00017570589
0002a0 3d 84 d1 34 84 ac 3f 2c dc 9e 83 af 2b ba 27 a9
       3.90255e-07 2.7238498e-12 -2.3941638e-10 -3.7242924e-14
0002b0 95 a5 8d 2a 06 a7 0d 39 f2 fa a2 34 d0 a4 98 b5
       2.5161527e-13 0.00013509029 3.0357438e-07 -1.1372849e-06
0002c0 63 48 a8 b8 8e 2f 5b b9 37 bc 35 a7 3c 9f a3 9d
       -8.024347e-05 -0.00020903183 -2.5220827e-15 -4.3310385e-21
0002d0 bb c2 27 9f 73 95 ff 9f 67 a6 ae 2b b9 cd 57 ac
       -3.5524703e-20 -1.08243944e-19 1.240963e-12 -3.0667537e-12
0002e0 53 01 ab 1c a7 fe b8 b8 e1 2f 65 b4 3c 9b a2 b1
       1.1316173e-21 -8.8212364e-05 -2.1344705e-07 -4.7324686e-09
0002f0 6b 47 75 39 5a eb eb 22 6d ea 65 9f 07 ae 1d 2c
       0.00023391626 6.3946066e-18 -4.868655e-20 2.2407646e-12
000300 3d 8e 65 b9 e4 6a b0 b7 4d 67 8b b8 34 38 02 a3
       -0.0002189213 -2.103061e-05 -6.647278e-05 -7.059216e-18
000310 51 07 b5 37 6e 1d bd 9f 0a 5d 98 38 49 5f 02 39
       2.1580288e-05 -8.00933e-20 7.265255e-05 0.00012433263
000320 c6 69 07 b3 1b 26 16 b9 b1 89 bd 9a 9f 5f c1 37
       -3.1528337e-08 -0.0001431931 -7.839102e-23 2.305192e-05
000330 69 ef e9 30 7a 42 1e ac 11 92 81 36 00 76 2f 27
       1.7021026e-09 -2.2490052e-12 3.861504e-06 2.4350097e-15
000340 42 8a e9 30 1a dd 53 b9 1a 28 06 2c 6d ab b6 9e
       1.6992276e-09 -0.00020204895 1.9064806e-12 -1.93409e-20
000350 17 5d 97 1c af 2a da 35 44 2e 2b ae ab dd bb b0
       1.0016405e-21 1.6254688e-06 -3.892199e-11 -1.3669043e-09
000360 38 4d 4c b1 7b e5 15 b8 4f 6b dd 34 2e 6c 3f 21
       -2.97298e-09 -3.573809e-05 4.1242535e-07 6.485649e-19
000370 50 8e 8f 32 ee dc 00 b9 b5 f6 0a 36 d1 8c bf b3
       1.6712107e-08 -0.00012289334 2.0707205e-06 -8.919745e-08
000380 00 9a 72 b9 15 65 db 9b e4 7c fc b5 5f 48 1b 38
       -0.00023136288 -3.6295834e-22 -1.8811811e-06 3.702228e-05
000390 8f ba 57 a1 8c 84 1c 38 3c d7 af 2b 79 4a 89 37
       -7.309174e-19 3.7316742e-05 1.2494237e-12 1.6366352e-05
0003a0 1e e9 bc b8 b7 1b 08 3a b7 cc cf 36 a8 bf 36 1e
       -9.00796e-05 0.0005192118 6.1929127e-06 9.674633e-21
0003b0 04 ab ba a1 82 86 a4 a7 f7 c8 7b b9 20 db 39 b9
       -1.2649118e-18 -4.5664978e-15 -0.0002401209 -0.00017724605
0003c0 17 2d 83 28 f7 18 8a 29 d8 a1 71 37 fb ae a5 b5
       1.4563476e-14 6.132762e-14 1.4402402e-05 -1.2344384e-06
0003d0 ae 21 97 a1 4d 48 04 36 1c a5 5b b6 05 7e c5 b4
       -1.0241073e-18 1.9711617e-06 -3.272965e-06 -3.67858e-07
0003e0 b2 2c cb b8 97 e6 9b b9 63 f1 7e b4 70 fe ee 39
       -9.6881195e-05 -0.00029735707 -2.374341e-07 0.00045584468
0003f0 da f2 d3 23 ca 9f d4 2b 35 97 17 39 62 b5 80 39
       2.2979517e-17 1.5107856e-12 0.00014456811 0.00024549203

weight f4 [1, 128]
000000 72 63 2d 3e 50 7a f1 3d 48 7c 89 3d 7d 26 6d 3e
       0.16932467 0.117909074 0.06713158 0.23159213
000010 14 99 33 bd c1 e1 ab 3e 0b e9 36 3e 1c 6b 04 3e
       -0.04384716 0.33570674 0.17862336 0.12931484
000020 f7 f3 ed 3d 45 74 33 bd 6a da 83 3e d0 3f 70 3e
       0.11618798 -0.043812055 0.25752574 0.23461843
000030 3a d1 79 bd 7b ab 83 bd 0f 01 e3 3c ee 95 b0 3d
       -0.06099055 -0.06429192 0.027710466 0.08622347
000040 29 26 32 bd 8e 58 d3 3d 84 1f 60 3e 60 f6 33 3e
       -0.043493424 0.10319625 0.21887022 0.17574453
000050 d5 4a a9 3c b2 17 85 3c 53 6c 49 3e f9 41 c9 bc
       0.020665566 0.01624665 0.19670229 -0.024567591
000060 82 07 85 3e db 50 26 3d 30 8a f4 bc 06 cd e7 3c
       0.2598229 0.040604454 -0.02985105 0.028296005
000070 74 14 f5 3d b9 54 ae 3d a5 17 60 3d 24 5b 32 bd
       0.11966792 0.08512253 0.05471005 -0.04354395
000080 ff 58 4b 3e bb e5 25 3e 3e 35 cf 3d 74 7b 58 3e
       0.19858168 0.16200916 0.10117577 0.21140844
000090 9f 54 6f bd f6 ae 15 bb 47 11 a5 bd 48 2c 3a 3e
       -0.05843031 -0.002283988 -0.08059936 0.18180954
0000a0 11 26 a3 3b 49 5b cd 3d 36 96 b9 3c b6 28 47 3d
       0.004978903 0.10027177 0.022654634 0.04862281
0000b0 04 a8 67 3d 95 68 11 bd ca 46 fc 3b 67 7f d4 3c
       0.056556717 -0.035500128 0.0076988684 0.025939656
0000c0 23 ca 22 bc 15 0f af 3b 8b be 45 3b 9c b3 6e 3e
       -0.009935888 0.005342374 0.0030173387 0.23310703
0000d0 f1 b4 0d 3d 76 8c 86 3e 69 6b 3c bd 77 37 59 3e
       0.034596387 0.26279038 -0.04600087 0.21212564
0000e0 32 db 0e bd b7 46 80 3e 5f 7e 28 3d e0 2f 80 3d
       -0.03487701 0.2505395 0.041136142 0.062591314
0000f0 81 8a a0 3e 32 fb 83 bd 86 8c 1d bd 88 6c b1 3e
       0.3135567 -0.06444396 -0.03846409 0.34653115
000100 71 a7 95 bd f8 70 2f bc 55 02 dc bb 4a 26 23 3e
       -0.073073275 -0.010708086 -0.006714145 0.15932575
000110 83 40 6a 3c 43 70 d6 bd 30 a2 0a 3d 3a c7 a9 3e
       0.014297607 -0.10470631 0.03384608 0.3315981
000120 8a 5e 03 3d 37 5a 28 3e 12 ac ad 3d 83 c7 05 3e
       0.03207258 0.16440664 0.084800854 0.13064389
000130 8b 7e aa bc e1 67 3a 3e 0f 67 b6 bd 72 ad fc 3d
       -0.020812294 0.18203689 -0.089063756 0.123377696
000140 d4 5a 8f 3b 34 e4 a5 3e 02 5e 86 3d 51 04 99 b9
       0.004374841 0.32400668 0.06560899 -0.0002918565
000150 22 35 25 3e 07 f1 14 3d a1 47 7e 3e ea 01 91 3e
       0.1613355 0.036362674 0.24832012 0.28321773
000160 a0 ff c7 bd f5 e3 59 bd cd 29 19 3c 25 a0 e9 bd
       -0.097655535 -0.053195912 0.009348345 -0.11407498
000170 ee 66 92 3e 10 62 eb 3c 95 7d 6a bc 92 15 e5 bc
       0.28594154 0.028733283 -0.014312168 -0.027964387
000180 5c c3 aa 3d 91 3e a7 3b 27 d8 7d 3e 10 a6 92 3e
       0.08338043 0.005103894 0.24789487 0.2864232
000190 65 5d ea 3c ca 9e 1d 3b ac 03 8c 3d 75 05 2b 3e
       0.028608987 0.0024050944 0.06836638 0.167013
0001a0 68 3b 3a 3e f7 d9 63 3e 3b 99 04 3e a2 b7 2e bc
       0.18186724 0.22251116 0.12949078 -0.010663899
0001b0 5e 7b 34 bb d6 af 33 bd fe 86 14 bd a5 e3 94 3e
       -0.0027539353 -0.043868862 -0.03626155 0.2907993
0001c0 55 b7 14 3d 1d 40 26 bb f5 61 63 3e 99 bb 4c 3e
       0.03630765 -0.0025367804 0.22205336 0.19993438
0001d0 bd 70 93 bd 1f c3 fd 3c c1 04 7c 3e 30 cc 7c 3d
       -0.071992375 0.03097683 0.24611188 0.061718166
0001e0 f5 a8 19 3d ad 4e 05 3e 64 09 bd 3c c9 4e 53 bd
       0.037514646 0.13018294 0.023075767 -0.051588807
0001f0 f2 d6 e1 3b 0c 6c 4f 3d 51 f8 8b 3d f3 32 39 bd
       0.0068920786 0.05064015 0.06834472 -0.045214605

weight f4 [128, 256]
000000 58 4e 8c 3b bc 9c 84 bd 10 e7 95 bd 40 f1 ff 3c
       0.0042818002 -0.06475207 -0.07319462 0.031242967
000010 eb a9 b4 bb e1 08 ee 3c 81 88 91 3c ea 8f 1d bc
       -0.00551342 0.029056968 0.017765285 -0.009616831
000020 97 62 4b bd 28 92 91 bd bf ff c1 bc 0c 44 10 3d
       -0.04965457 -0.07107955 -0.02368152 0.035221145
000030 30 d2 fc bb 60 3f 45 3d 49 e3 bd bb 2e 6c f1 bd
       -0.007715486 0.048156142 -0.005794917 -0.11788212
000040 54 57 45 bc c1 ad 93 bd 9d 2c 98 bd 20 71 07 bd
       -0.012044746 -0.07210875 -0.07430384 -0.03306687
000050 e4 be c0 ba 98 e7 31 3b bf 4d 7c 3c 1f e8 60 bc
       -0.0014705327 0.0027146097 0.0153993955 -0.013727217
000060 88 4c b2 bc 66 3c 19 bc f8 7f 05 3d a5 b4 29 3d
       -0.021765009 -0.009352779 0.032592744 0.04143204
000070 9d 55 91 3c fc 10 5e bc 0e 53 2f 3d 84 1d 4c bd
       0.017741019 -0.013553854 0.042803816 -0.049832836
000080 00 2f 2c bd 8b d8 34 bd fc 41 8a 3d 30 7d 37 bc
       -0.04203701 -0.044151824 0.06750867 -0.011199281
000090 91 12 b2 3d 57 c1 71 ba bd 1f b7 bd cb 80 0e 3d
       0.086949475 -0.00092222303 -0.089416005 0.034790795
0000a0 94 19 20 bd 27 f7 77 bc 3c 50 d6 bd 85 39 49 3c
       -0.039086893 -0.015134609 -0.10464522 0.01228178
0000b0 17 fc aa 3c 4d a9 10 3d 5c 4c c8 3c 64 cc 9a bd
       0.020872159 0.035317708 0.024450473 -0.07558516
0000c0 5a a2 a5 ba 26 f5 56 3d 23 06 9d bb 29 f5 98 3a
       -0.0012636886 0.052479886 -0.0047919913 0.0011669743
0000d0 6e 1a c5 3b ff f3 0f 3d 26 a0 e8 3c 89 7d 87 bc
       0.0060151136 0.035144802 0.028396677 -0.016539352
0000e0 d9 f9 c6 bc 61 d8 e1 3c ef 1a 2f bd 00 88 91 bd
       -0.024289059 0.027568998 -0.042750295 -0.07106018
0000f0 19 4e e1 bb 75 35 e5 38 f6 31 5c 3c 52 2a dc 3c
       -0.006875765 0.00010929528 0.013439646 0.026875649
000100 c6 66 73 bd e2 42 be bd 7f 48 ab 3c e0 44 14 3c
       -0.059424184 -0.09290101 0.020908592 0.009049624
000110 b9 66 89 bd e5 f4 9d 3c f5 2b 7b 3b e6 89 f2 3c
       -0.06709046 0.019281814 0.003832576 0.02960677
000120 72 b9 a0 bd 4a b7 22 be 29 05 80 3d 4e c8 fb bc
       -0.07847871 -0.15890232 0.06250984 -0.030735161
000130 d7 be 69 bc 19 d4 be ba 06 c9 bb 3c 23 a1 d9 3c
       -0.014266691 -0.001455906 0.022923004 0.026566094
000140 0c a1 08 3c b6 8c 2c 3d c8 69 dc 3c ae 66 de 3a
       0.008339178 0.04212638 0.02690591 0.0016967857
000150 b4 da 4e 3d 1a cd 98 bb 94 cd bf 3b 23 52 3d bc
       0.05050154 -0.004663122 0.0058533642 -0.011555227
000160 60 56 42 3d 70 13 f2 bc ab d3 27 3d ac 64 5a 3c
       0.047445655 -0.029550284 0.040973347 0.013329666
000170 af b7 67 bd fc 1f 73 3d 27 32 8c bc ba 00 c4 3c
       -0.05657166 0.059356675 -0.017113758 0.023926128
000180 36 70 7d bd bd 7e 25 3b 68 d3 96 bc 34 e5 26 3c
       -0.06187459 0.0025252544 -0.018411353 0.010186482
000190 bc 98 a2 bb 8e 28 2e bd 66 56 9b bd cb e7 b6 3c
       -0.004962055 -0.042519145 -0.075848386 0.022327324
0001a0 97 f2 83 bb e7 fa 6f bc b1 a5 75 bd 6a 61 88 b8
       -0.0040267217 -0.014647222 -0.05997247 -6.50313e-05
0001b0 8b a1 b4 3d 6c dc 3f 3d c8 dc b6 bc 64 b0 57 bd
       0.088198744 0.04684107 -0.022322074 -0.052658454
0001c0 b5 3c 73 3c 20 91 22 b9 5d 16 3c bd c9 a3 b4 bc
       0.014846017 -0.00015503587 -0.045919765 -0.022050755
0001d0 04 7d b9 3c 12 a8 96 bd 9b b5 28 3d e3 18 8c 3d
       0.02264262 -0.073562756 0.041188817 0.06840684
0001e0 9a ce bd 3b 47 26 f0 bb 12 1b fb bd e1 af 67 bd
       0.005792451 -0.0073287818 -0.122610226 -0.056564216
0001f0 32 ba 3e 3d 01 1e 68 bc f1 30 49 bd 3b 15 23 bd
       0.04656429 -0.01416731 -0.04911894 -0.03981517
000200 15 cb c7 bc ff 66 a9 bd 24 77 d6 bd 3e 7a 98 3d
       -0.02438883 -0.08271598 -0.10471943 0.07445191
000210 56 4e db 3d da 39 3a 3b a3 25 78 3c 08 03 0c 3e
       0.10708301 0.002841583 0.015145692 0.13673031
000220 39 05 62 bd 09 f9 b6 bd 9b ed 81 bc 2b a2 eb 3c
       -0.055180762 -0.089342184 -0.01586037 0.028763851
000230 98 71 c1 3d 0b d5 9e 3d 49 40 24 3d 6a 67 a2 bd
       0.094454944 0.077554785 0.04010037 -0.07929881
000240 5e 56 ca bc fe 15 a1 bd c6 85 33 bd fe 26 6c bc
       -0.024699386 -0.07865523 -0.04382875 -0.014413593
000250 a5 8b c5 3d 08 37 1a 3e 40 9e d2 3c 59 64 04 3e
       0.09645776 0.15060055 0.025710225 0.12928905
000260 5c 07 0e bd 10 7a 70 bc 14 69 e2 3d 5f a0 3e 3e
       -0.034674987 -0.0146775395 0.11055198 0.18615864
000270 d7 8e be 3d 82 0c 02 3e b9 12 0e 3e dc 16 36 3d
       0.09304588 0.12700084 0.1387433 0.044455394
000280 e7 3f ac 3d 5f 70 30 3c 43 04 80 3d f4 89 63 3d
       0.08410626 0.010768979 0.06250813 0.055551484
000290 21 a6 84 3d 36 54 7f b9 84 4c 55 3d 50 f7 c7 3b
       0.06476999 -0.00024350066 0.052074924 0.00610248
0002a0 ca cf b0 3c 8b 5a 5e 3d 60 78 aa bd 03 df 4f 3d
       0.021583457 0.054285567 -0.08323741 0.05074979
0002b0 0b 4a 61 3d 1f 3a 01 3d 31 ce 6a 3c af 14 94 3b
       0.055002254 0.03154957 0.014331386 0.0045190672
0002c0 9e 26 5d ae 59 50 e2 3c 47 33 4e 3d 51 66 2b 3c
       -5.028388e-11 0.027626203 0.05034187 0.010461406
0002d0 35 d1 7f 3d c9 cc 8e 3c dc 33 fd 3d ec bb 63 3d
       0.062455375 0.017431634 0.12363407 0.05559914
0002e0 c9 13 c3 3d 69 7c e5 3c 5e 71 fb bc 9c 69 9c 3c
       0.09525258 0.028013425 -0.030693706 0.019093327
0002f0 26 28 ef 3c 69 fe e2 3d 49 91 3c 3d 2d 3d 91 3d
       0.029193949 0.11083681 0.046036992 0.070917465
000300 be 10 3d 3d c8 b8 91 bd 24 75 52 3d fb df 6b bc
       0.046158545 -0.07115322 0.051381245 -0.014396663
000310 fa 4b a0 3d fd 5b de 3d 83 b2 0f 3e 17 4a 2c bc
       0.078269914 0.10857389 0.1403294 -0.010515711
000320 28 90 ad bd 5f e4 49 3c a4 17 98 3d c4 6a 2a 3d
       -0.08474761 0.012322514 0.07426384 0.041605726
000330 21 41 93 3d 7c a6 51 3d ff b2 37 3e 86 71 80 3d
       0.07190157 0.051184162 0.17939375 0.06271653
000340 48 ae d1 3d 60 93 4b bb f0 c8 8b 3d 8f c1 e3 3a
       0.1023832 -0.0031063184 0.06825435 0.001737641
000350 0e d3 51 3d 1d ac 27 3e 6e 49 14 3c 07 3e 95 3d
       0.051226668 0.1637425 0.00905071 0.072872214
000360 b8 59 e3 3d 82 fb 1b bd 21 2c 94 3d 28 6e 0b 3e
       0.11101097 -0.038081653 0.072349794 0.1361624
000370 70 26 7c 3c b6 2c 94 3d fa 79 da bb 3a 72 0b 3e
       0.015390024 0.072350904 -0.006667373 0.13617793
000380 57 d6 f0 bc e0 d8 d5 3d 43 c9 14 3d 6a e9 e6 3b
       -0.02939908 0.10441756 0.03632475 0.007046868
000390 82 00 d1 3d 73 c3 3e 3c fa 74 0f bd bf 5f 7a bc
       0.10205175 0.011643278 -0.035023667 -0.015281617
0003a0 f4 6d 8f 3b c2 6a 7d bc 1e 30 41 3d 65 1f 9b 38
       0.004377121 -0.015467348 0.04716503 7.396824e-05
0003b0 2a 31 8c 3d 82 a8 e2 3b 1d 96 90 3c dd be a5 3c
       0.06845315 0.0069170604 0.017649705 0.020232612
0003c0 27 de 48 3e a4 6b fd 37 1b 58 17 bd 42 4e 11 bd
       0.19615994 3.0210074e-05 -0.03694926 -0.035475023
0003d0 aa da 04 3e 86 de c3 3d 38 71 89 3c 38 38 85 3d
       0.12974039 0.09563927 0.01677762 0.065048635
0003e0 c1 0f b3 3d 3b b3 b6 3c e2 32 cb bd 76 1b bb bc
       0.08743239 0.02230226 -0.099218145 -0.022840243
0003f0 ec 7f 87 3d fa d6 aa bc 96 db a1 bc 5a ad 8f bc
       0.06616196 -0.020854462 -0.019758027 -0.017538715

bias f4 [128]
000000 09 01 38 3c 3e 50 ac 3c cc 74 f9 b1 a4 91 d1 3c
       0.011230716 0.021034356 -7.260132e-09 0.025582142
000010 4b 50 91 3c 84 7b d5 b9 a4 a0 17 b5 7b f7 84 bb
       0.017738482 -0.00040718552 -5.6485646e-07 -0.0040578223
000020 c0 e7 27 3d 20 b4 6c bb 09 18 ff bb 36 52 37 3d
       0.0409925 -0.0036118105 -0.0077848476 0.044756137
000030 c6 84 e2 b6 8e 6d d6 b5 8b 8e c4 38 ce 8a 88 3c
       -6.7507817e-06 -1.5976127e-06 9.372559e-05 0.01666775
000040 1f ec 4b 3d 62 99 e5 3c 9e b8 36 b9 77 08 89 3b
       0.04978573 0.02802724 -0.00017425648 0.0041819173
000050 7f 22 6c 3d 1b 3b 80 bc f8 63 79 b4 d7 42 02 3d
       0.057650086 -0.015653184 -2.32263e-07 0.031802025
000060 a5 c1 0b 3d 62 03 1e bc 78 53 d6 ba 82 75 2d 3c
       0.03412022 -0.009644361 -0.001635178 0.010587098
000070 8a 00 17 3d 80 15 da 3b 23 8b 3b b7 8b 3d b2 3c
       0.03686575 0.006655395 -1.1178464e-05 0.021757862
000080 c9 fa 10 bb a3 04 31 bb e5 da fa 3c ab 5c c7 bb
       -0.0022122136 -0.002701082 0.030621955 -0.006084045
000090 c1 1c 2a b0 29 6e da 3c c8 a3 08 bb 74 35 8e b8
       -6.18865e-10 0.026663857 -0.0020849574 -6.781044e-05
0000a0 87 f0 83 3d 29 c4 ba b3 02 b6 6d b3 c5 19 d0 b4
       0.06442361 -8.696981e-08 -5.5346398e-08 -3.876177e-07
0000b0 9a 43 ec bb ef 2d 7b 3a ab e5 0f b6 11 97 dc 3b
       -0.007210207 0.0009581735 -2.1442345e-06 0.0067318757
0000c0 24 7f 25 3b 6b 3f 4d 3d 02 7f f7 b8 17 37 92 bb
       0.0025252784 0.05010931 -0.00011801535 -0.0044621336
0000d0 99 57 31 b8 84 e9 50 bc 8f 2f 94 3d c6 5a f6 b5
       -4.228167e-05 -0.012750987 0.072356336 -1.8354847e-06
0000e0 4f 0e e7 bb 5c 98 c6 bb 66 ec 92 3b e4 1a a3 ba
       -0.0070512663 -0.006060643 0.0044837473 -0.0012443927
0000f0 44 aa c8 b9 dd f4 26 3d 93 06 9b b8 93 67 98 b6
       -0.0003827383 0.040760864 -7.3922005e-05 -4.5420106e-06
000100 3e 94 1e 3d 68 b7 ae bc 54 f6 c0 3b fa ff 2d 3c
       0.038715594 -0.02132769 0.0058887396 0.010620112
000110 22 8b 04 b9 29 26 02 3d 01 99 44 3d a9 ac 0a bc
       -0.00012640332 0.031774674 0.04799748 -0.008464017
000120 72 a1 76 3d f5 32 e9 3a 7a a2 78 bc d2 34 ba bb
       0.06021256 0.0017791676 -0.015175456 -0.005682566
000130 f2 11 d2 b6 7f 6e 83 3d 99 9c a4 3c 3a 6a 8d bb
       -6.260577e-06 0.0641756 0.020094203 -0.0043156417
000140 bf da 5f b7 44 81 8f 3d 09 37 36 bc 5c 72 3d bb
       -1.3342767e-05 0.07007077 -0.01112152 -0.0028907275
000150 e6 c5 71 3d dd 2c fc 3c 05 44 83 b0 da 60 5d b9
       0.05902662 0.030783111 -9.550837e-10 -0.00021112282
000160 df 00 9e b9 c8 87 fd 3c ba f1 fc bb b0 d8 23 bb
       -0.00030136757 0.030948535 -0.0077192457 -0.0025000982
000170 05 15 20 3d 2b ca c9 b9 11 b7 36 bb 6f dd 88 b9
       0.039082546 -0.00038488334 -0.0027880112 -0.00026104922
000180 71 7f 02 ba 6a 8d 9d 3c d2 22 92 3c a4 c8 0a b7
       -0.00049780967 0.01923247 0.01783887 -8.272156e-06
000190 d7 fa 41 b8 3b 42 cf ba 93 45 d0 bb 43 82 15 bc
       -4.62484e-05 -0.0015812585 -0.00635595 -0.009125295
0001a0 bb 9f 27 3d ba 5b a3 bb 8b 28 3a 3d 33 ae 60 bb
       0.040923815 -0.0049853 0.04544882 -0.0034283518
0001b0 84 38 d5 3b e8 97 17 b9 b0 76 ba 3c 12 1b e2 af
       0.0065069813 -0.00014457072 0.022761673 -4.1128395e-10
0001c0 e5 1f 97 3c 35 3c ed 3c fb 94 86 bb 68 cb d7 3c
       0.018447826 0.028959373 -0.0041071153 0.026342109
0001d0 04 89 05 b3 37 ad 02 3d cd 6f 47 bb 7a c2 97 b3
       -3.109109e-08 0.03190347 -0.0030431629 -7.0668605e-08
0001e0 a5 de 90 3c d1 24 b0 3c 69 0d 2f b2 4b 5e 58 b2
       0.01768429 0.02150193 -1.018939e-08 -1.25942945e-08
0001f0 dc ed 98 b6 a5 3c 91 bb d6 ff 36 3b 3a da 62 3c
       -4.5576435e-06 -0.004432278 0.0027923486 0.013845975
