outputs/MUTAG_Hie/model.pth (torch, 320470 bytes, 13 tensors)

bias f4 [128]
0	0xba816b96	-0.0009873982
1	0x3a83005d	0.0009994615
2	0x39842ff3	0.00025212727
3	0xba59403b	-0.0008287464
4	0x00000000	0.0
5	0xba795893	-0.0009511795
6	0xba6a6ee3	-0.0008942915
7	0xba6d7247	-0.0009057861
8	0x3a7b0130	0.0009575067
9	0x3a82b28d	0.0009971425
10	0x00000000	0.0
11	0x3a68ba99	0.0008877903
12	0x3a81484b	0.0009863464
13	0xb9353344	-0.00017280603
14	0x3a80b1aa	0.0009818573
15	0xba7ab78d	-0.00095640944
16	0xba82da96	-0.0009983357
17	0xba79691d	-0.0009514259
18	0x3a6de0f4	0.0009074353
19	0xba8309fa	-0.000999748
20	0x3a830381	0.0009995551
21	0xb8ee9279	-0.00011376007
22	0x396cfb2b	0.00022600281
23	0xba059ace	-0.0005096615
24	0x3a8296ca	0.0009963152
25	0x3a75867e	0.0009366049
26	0xba8093f9	-0.0009809724
27	0x3a46d367	0.0007584602
28	0xba69e4eb	-0.0008922356
29	0x3a728cea	0.0009252565
30	0xba82d9cf	-0.0009983125
31	0xba63f142	-0.0008695313
32	0x3a73341e	0.00092774804
33	0x3a817f9c	0.000987995
34	0x3a019129	0.000494259
35	0x00000000	0.0
36	0xba599bc6	-0.0008301105
37	0x39d34852	0.0004029894
38	0x39438242	0.00018645174
39	0x3916390d	0.00014326368
40	0xba82a154	-0.0009966292
41	0xb931575a	-0.00016912576
42	0xba81e532	-0.0009910224
43	0xba6421f5	-0.000870257
44	0xba0dbfba	-0.00054072926
45	0xb942c5b1	-0.00018574928
46	0x39993c16	0.00029227202
47	0xb9919f6d	-0.00027775337
48	0xba8300a0	-0.0009994693
49	0x3a599265	0.00082997076
50	0xba175ddd	-0.00057741796
51	0xb9787dc9	-0.00023697982
52	0x3943e4c2	0.00018681868
53	0x3a319608	0.00067743706
54	0xba7e1a56	-0.00096932554
55	0xb961ea98	-0.00021545065
56	0x3a7591f5	0.00093677576
57	0xba8085a1	-0.000980545
58	0xba6df8f9	-0.00090779323
59	0xba75d22a	-0.0009377325
60	0xba8281f5	-0.0009956943
61	0xba59a89f	-0.00083030196
62	0x3a6f892c	0.00091375667
63	0xb99332cc	-0.00028075872
64	0x3a6f182f	0.000912073
65	0x39160650	0.00014307466
66	0xba2b6926	-0.00065388007
67	0x3a8302cb	0.0009995339
68	0x3968421f	0.00022149876
69	0x00000000	0.0
70	0xba820fd2	-0.0009922928
71	0x3a7db177	0.00096776284
72	0xba46b882	-0.00075805944
73	0x3a772edf	0.00094292866
74	0xb8fcb499	-0.00012049935
75	0x3921ef8b	0.00015443393
76	0xba7f2df9	-0.00097343285
77	0xba824e2c	-0.000994151
78	0x3a80a9f3	0.0009816274
79	0xba717d69	-0.0009212108
80	0xba82a3e2	-0.0009967054
81	0xba80fe89	-0.0009841482
82	0x394e3f24	0.00019669213
83	0x3a826d28	0.0009950744
84	0x3a832037	0.0010004108
85	0xb9d4a9ab	-0.00040562204
86	0xba4a49fe	-0.0007716714
87	0xba04ed6a	-0.0005070778
88	0xba538587	-0.00080689084
89	0x39aeb8c9	0.00033325542
90	0x38f3f3d3	0.00011632559
91	0xba7e2975	-0.00096955086
92	0x00000000	0.0
93	0x3a8128d0	0.0009854082
94	0xba5f373a	-0.00085150043
95	0xba7955ea	-0.00095113984
96	0xba10ac64	-0.0005518852
97	0xba696df7	-0.00089046307
98	0xba781923	-0.0009464195
99	0xba82f420	-0.0009990968
100	0xba5eb510	-0.00084956083
101	0xba811349	-0.0009847666
102	0x3a80c67d	0.0009824779
103	0x390c5aaa	0.00013385215
104	0x00000000	0.0
105	0xba82688d	-0.0009949371
106	0x3a830fd9	0.000999923
107	0x3a770663	0.0009423254
108	0xba7b8c4b	-0.00095957954
109	0xba82e896	-0.0009987529
110	0x3a69b460	0.00089151226
111	0x3a832666	0.001000595
112	0xba51e497	-0.000800678
113	0xba825cb5	-0.0009945842
114	0xba736225	-0.0009284339
115	0xba7e6c5f	-0.00097054796
116	0x3a6e265b	0.0009084695
117	0xba4c5b86	-0.00077956205
118	0xb94c7d0e	-0.00019501543
119	0xba601d88	-0.00085493224
120	0xba829dbe	-0.0009965224
121	0x3a72fa41	0.0009268858
122	0xba81e4e1	-0.000991013
123	0xba5a1f83	-0.00083207357
124	0x00000000	0.0
125	0x3a455b07	0.0007528518
126	0xba832534	-0.0010005594
127	0x00000000	0.0

weight f4 [128, 7]
0	0x3dd8fcd7	0.105951004
1	0xbe4f7fee	-0.20263645
2	0x3e2e6fef	0.17034887
3	0x3dc2c4c6	0.09510188
4	0x3e1dc4c2	0.15407088
5	0xbd9ef93a	-0.0776238
6	0x3e2ced4e	0.168874
7	0xbdf14bcd	-0.11782036
8	0x3e17d369	0.1482674
9	0x3cf63cb5	0.030058244
10	0xbcbed574	-0.023295142
11	0xbdc43d68	-0.09582025
12	0xbe3de662	-0.18544915
13	0xbdde76ec	-0.10862526
14	0x3e1dbd02	0.15404132
15	0x3cff49ef	0.031163184
16	0x3d1d88e7	0.03846064
17	0xbe3d30af	-0.18475603
18	0xbdce1a80	-0.10063648
19	0xbd8c169d	-0.06840251
20	0x3d63e32c	0.05563657
21	0xbdaf40e0	-0.08557296
22	0x3df3a6b9	0.11897034
23	0xbd38d3be	-0.045123808
24	0x3b9e19d3	0.004824856
25	0x3e2be976	0.16788277
26	0x3d4545c0	0.048162222
27	0xbe1621f2	-0.14661387
28	0xbdff8644	-0.12476781
29	0xbdbf7655	-0.09348742
30	0xbdc8d209	-0.09805686
31	0xbd27dd14	-0.04098232
32	0x3db75bca	0.08953054
33	0x3d3c93f3	0.046039533
34	0xbc21ef61	-0.009883733
35	0x3db1ed54	0.08687845
36	0xbd5c82e8	-0.05383578
37	0xbbe87c0a	-0.0070948647
38	0x3e28452f	0.16432641
39	0x3d6e8dd4	0.058240727
40	0xbe4f34be	-0.20234963
41	0x3cc798ca	0.024364848
42	0x3e4e78e2	0.201633
43	0x3dfb16a3	0.12260177
44	0xbdaa1940	-0.08305597
45	0x3e25cf35	0.16192324
46	0xbe0c5c6f	-0.13707136
47	0xbde8c84f	-0.11366331
48	0x3e26c93b	0.16287701
49	0xbcbb6bae	-0.022878494
50	0x3e49a0e1	0.19690277
51	0xbe408cdf	-0.18803738
52	0xbcc956ac	-0.024577461
53	0x3b10dad1	0.002210308
54	0xbd998d3d	-0.07497642
55	0x3d1f613b	0.038911086
56	0xbde7b260	-0.11313319
57	0xbdfc1f47	-0.12310653
58	0x3e087f26	0.13329753
59	0x3be7585b	0.0070600933
60	0x3d9ff2c6	0.07809977
61	0xbd071366	-0.032977484
62	0xbdbc550f	-0.09195911
63	0xbd6af54e	-0.057362847
64	0x3e4e79a6	0.20163593
65	0xbd674ebf	-0.056471583
66	0xbe2aeb28	-0.16691267
67	0x3e00505d	0.12530656
68	0xbd181216	-0.037126623
69	0x3d778e61	0.060438517
70	0xbda5cc1f	-0.08095574
71	0xbdb4f329	-0.088354416
72	0x3ca15c3c	0.019697301
73	0x3c1559dc	0.009115662
74	0xbdc27768	-0.09495431
75	0x3b99980d	0.0046873153
76	0xbd347b21	-0.044062737
77	0xbd125453	-0.03572495
78	0x3e42a9c7	0.19010077
79	0x3ddb6a82	0.10713674
80	0x3d928c56	0.07155673
81	0x3cf5ba39	0.029996024
82	0xbd3e90a4	-0.04652466
83	0x3d8c06d5	0.068372406
84	0xbd84d2c0	-0.0648551
85	0xbd3f3969	-0.04668561
86	0x3da3ff1f	0.08007645
87	0xba77bbb1	-0.00094502704
88	0xbdc01376	-0.09378712
89	0xbda9968d	-0.082806684
90	0xbd504046	-0.050842546
91	0xbd81a4a7	-0.06330233
92	0x3dc2d6a9	0.095135994
93	0xbd98a0fe	-0.07452582
94	0xbe20eb67	-0.15714799
95	0x377f5c18	1.5220627e-05
96	0xbbb5fe3e	-0.0055539897
97	0x3d7cfbd5	0.061763603
98	0xbca0e52f	-0.019640533
99	0xbe0dc4e8	-0.13844645
100	0x3e50841a	0.20362893
101	0xbbfca552	-0.0077101374
102	0xbe2d4fd8	-0.16924989
103	0x3e484dea	0.19560972
104	0xbe54a550	-0.20766187
105	0x3c7095d7	0.014684162
106	0xbc9870e0	-0.01860851
107	0xbe21f87e	-0.15817448
108	0xbdd096f7	-0.10185044
109	0x3e29c127	0.16577588
110	0xbceb7e3c	-0.028746717
111	0x3d78de68	0.060758978
112	0xbe27a012	-0.16369656
113	0x3e16873f	0.1470003
114	0x3d1ac02e	0.037780933
115	0x3d3b2a37	0.045694556
116	0x3e37acf6	0.17937073
117	0x3dfab62a	0.12241776
118	0x3de0561a	0.109539226
119	0xbd7425f1	-0.059606496
120	0xbe1496af	-0.14510606
121	0x3df2fafd	0.118642785
122	0xbd282714	-0.041052893
123	0xbdd91aad	-0.10600791
124	0x3e290865	0.16507109
125	0xbc102f76	-0.008800378
126	0x3d9a9c0b	0.07549294
127	0xbe3222b3	-0.17396049
128	0x3dc3826a	0.09546359
129	0x3d801e41	0.062557705
130	0xbd5cc71f	-0.053900834
131	0x3ac787e8	0.0015222998
132	0xbd06734b	-0.032824796
133	0xbd6be53a	-0.057591654
134	0x3e163f90	0.14672685
135	0xbd906b3a	-0.07051702
136	0xbd57e9eb	-0.052713316
137	0x3d76cd45	0.060254354
138	0x3c6a6f1a	0.014308715
139	0xbdef11c8	-0.116733134
140	0x3e0b5e82	0.1361027
141	0x3e289ca9	0.16466011
142	0x3c1d471c	0.009599473
143	0xbd6d77d0	-0.05797559
144	0xbc392ade	-0.011301724
145	0xbc80761c	-0.015681319
146	0x3e1950c1	0.14972211
147	0xbdc50973	-0.09620943
148	0x3d901fd2	0.07037319
149	0xbe1e9fb2	-0.15490606
150	0x3bee3788	0.0072698034
151	0x3e2d0fd8	0.16900575
152	0x3d6cbcb0	0.057797134
153	0xbcad9e97	-0.021193786
154	0x3c014a3c	0.007891234
155	0x3de9dd1f	0.114191286
156	0x3e4bacdc	0.1989016
157	0xbdc26ac2	-0.09493019
158	0xbe159d77	-0.1461085
159	0xbdf1559e	-0.11783908
160	0xbe03595c	-0.12827057
161	0x3e3df7ea	0.18551603
162	0x3ddc50dc	0.1075761
163	0x3e0aeeae	0.13567612
164	0xbd89a53c	-0.06720969
165	0xbdc10752	-0.09425224
166	0x3e0f2c97	0.13981853
167	0x3df8e4d2	0.12153019
168	0x3e304186	0.17212495
169	0xbe12d25d	-0.1433806
170	0xbd0ff134	-0.03514214
171	0xbda47423	-0.08029964
172	0x3e5036df	0.20333432
173	0xbe19bf56	-0.15014395
174	0xbdfd3f60	-0.123656034
175	0xbd8edb79	-0.06975455
176	0xbe1c9df7	-0.15294634
177	0xbda5c7e1	-0.080947645
178	0xbe26e243	-0.1629725
179	0x3e0cb626	0.13741359
180	0x3d9f4021	0.077759035
181	0xbe560884	-0.20901686
182	0x3e2520cf	0.16125797
183	0x3dea0620	0.114269495
184	0xbde62b6e	-0.11238752
185	0xbd886e0f	-0.06661617
186	0x3d4a129a	0.049334146
187	0xbdd52536	-0.10407488
188	0xbe259ca6	-0.16173038
189	0x3d3035b1	0.043019954
190	0xbd845488	-0.064614356
191	0x3d557232	0.05211086
192	0x3e4e8a2d	0.20169897
193	0x3e3db521	0.18526126
194	0x3dad635d	0.08466218
195	0x3e2fbdbf	0.17162226
196	0x3e010736	0.12600407
197	0x3d188801	0.03723908
198	0xbe078814	-0.13235503
199	0xbe224f0d	-0.15850468
200	0xbc81a6f4	-0.01582668
201	0x3d0214a1	0.031757955
202	0xbe24e483	-0.16102795
203	0x3dbadf84	0.091246635
204	0x3d73eab7	0.059550013
205	0x3e3c72ff	0.18403243
206	0xbb463372	-0.0030243066
207	0x3ccd3b43	0.025052672
208	0xbe248fb8	-0.1607045
209	0xbd8f3f57	-0.06994503
210	0x3c7f425d	0.015579787
211	0x3dd5bfea	0.10436995
212	0xbe3218c1	-0.17392255
213	0x3dbc997a	0.09208961
214	0xbe00a2ec	-0.1256215
215	0xbe071183	-0.13190274
216	0xbe27f54d	-0.16402169
217	0x3dd00af8	0.10158342
218	0x3da18975	0.07887546
219	0xbe0d1f2c	-0.13781422
220	0xbdeb7b38	-0.114981115
221	0xbda9a88b	-0.082841
222	0x3e30bceb	0.17259566
223	0xbd0e66b1	-0.034765903
224	0x3e03f8ad	0.12887831
225	0x3d664e23	0.05622686
226	0xbe0f2e8f	-0.13982604
227	0xbe045a25	-0.12925012
228	0xbca9acb0	-0.020712227
229	0x3ca78ecf	0.020453839
230	0xbce4c65e	-0.02792662
231	0xbe177277	-0.14789759
232	0x3dc9e861	0.09858776
233	0x3e2c1dd5	0.16808255
234	0x3e0a4854	0.13504153
235	0x3df14fb9	0.11782784
236	0xbd2e85d2	-0.04260809
237	0x3d87c5f2	0.06629552
238	0x3e1eeb6f	0.15519498
239	0xbc097888	-0.008390553
240	0xbe1c2e8e	-0.15252134
241	0x3decf36d	0.11569867
242	0x3ded31d7	0.11581772
243	0xbdcb656c	-0.09931454
244	0xbe0337be	-0.12814233
245	0xbe3852d9	-0.18000354
246	0xbe298ed7	-0.16558395
247	0x3dc9d0c0	0.09854269
248	0xbe252559	-0.16127528
249	0xbe417fdb	-0.18896429
250	0x3dd9aca2	0.1062863
251	0xbdb94a40	-0.09047365
252	0xbe3794b3	-0.17927818
253	0xbe46e5a2	-0.19423535
254	0xbcefd46d	-0.029276097
255	0x3e26ad35	0.1627701

bias f4 [128]
0	0xba820088	-0.0009918371
1	0xba7630f2	-0.00093914487
2	0xba7c11e1	-0.0009615701
3	0xba6fe2a2	-0.00091508974
4	0xb97a0521	-0.00023843769
5	0xba777229	-0.00094393134
6	0x3a7b7a9e	0.00095931615
7	0x3a8023c3	0.0009776283
8	0x39c43867	0.00037426056
9	0xba8130a3	-0.0009856414
10	0x3a82c3a5	0.000997652
11	0x3a8179d5	0.0009878228
12	0x3a80ca00	0.0009825826
13	0xb98eb45e	-0.00027218735
14	0x3a7afc09	0.00095742993
15	0xba7605b0	-0.0009385003
16	0x3a80d5dd	0.0009829361
17	0x3a826116	0.0009947147
18	0xb976dc9c	-0.00023542572
19	0x3a693423	0.00088960136
20	0x3a7d8e4d	0.00096723886
21	0x3a6e5d5f	0.0009092893
22	0x3a82385b	0.0009935008
23	0x39a07f9c	0.00030612655
24	0xb97c6b58	-0.00024072581
25	0xba363bcc	-0.00069516595
26	0x39d9df17	0.0004155568
27	0xba17c277	-0.00057891704
28	0xba7f0415	-0.00097280863
29	0xba7be724	-0.0009609333
30	0xba81e753	-0.0009910859
31	0xba24ca6d	-0.00062862673
32	0xba7b17c3	-0.0009578431
33	0xba7e188d	-0.00096929894
34	0x3a7e6cbb	0.0009705533
35	0xba23f195	-0.0006253955
36	0x3a74cbf3	0.0009338252
37	0x3a7d4333	0.00096611975
38	0x3a7d5a7d	0.0009664668
39	0xba825fd7	-0.0009946775
40	0x3a533c12	0.00080579624
41	0x3a8006ae	0.0009767616
42	0x3a6cc130	0.0009031473
43	0x39e5e1b7	0.00043846454
44	0x3a4799aa	0.0007614145
45	0xba35821a	-0.00069239887
46	0xba7663c8	-0.0009399024
47	0x3942b6d2	0.00018569388
48	0x3a6dd8e2	0.00090731506
49	0x3a7f68c1	0.00097430876
50	0xb9fe2f3b	-0.00048481845
51	0xba820859	-0.0009920701
52	0x3a7d46ff	0.00096617633
53	0x399e5ea9	0.00030206636
54	0x3982bdf6	0.00024937064
55	0x3a7692f3	0.00094060524
56	0xba81ec3f	-0.0009912326
57	0x39ccee1a	0.00039087312
58	0x3a5d4448	0.00084406557
59	0xba6cf386	-0.00090389734
60	0xba8217bb	-0.0009925285
61	0xb98ebed2	-0.00027226523
62	0xba81d1ef	-0.0009904484
63	0x392b68a6	0.00016346815
64	0xba734f69	-0.00092815474
65	0xba795597	-0.000951135
66	0xba805fec	-0.0009794212
67	0xb9b47a80	-0.00034423545
68	0xba732950	-0.00092758704
69	0xb9dc3fb6	-0.00042009138
70	0x3a71f4b5	0.00092298846
71	0x3a6cc0cc	0.00090314145
72	0x3a5471ad	0.0008104097
73	0x3a513698	0.00079808524
74	0xba712505	-0.0009198937
75	0x3a63ece8	0.00086946646
76	0x3a6ecaf9	0.0009109225
77	0x393ace31	0.00017815155
78	0x3a7d9ae1	0.0009674263
79	0xba48c289	-0.00076583825
80	0xba71d2f1	-0.0009224853
81	0x3a714c04	0.00092047476
82	0xba7511c3	-0.0009348655
83	0x3a7a9ae4	0.00095598237
84	0x3935b668	0.00017329457
85	0x3a0192e7	0.00049428496
86	0xba7fe8f9	-0.00097621937
87	0x3a71d6cc	0.00092254276
88	0xb9659a78	-0.00021896686
89	0xba810a55	-0.0009844998
90	0x3a7c6add	0.0009628961
91	0x3a81a965	0.0009892402
92	0x3a7f88a1	0.00097478373
93	0xb92d1a9b	-0.00016508477
94	0x39b6df2d	0.00034880024
95	0x399fe025	0.00030493844
96	0x3a661f1e	0.00087784405
97	0x38ac79f8	8.2243176e-05
98	0x3a41e953	0.0007397134
99	0x39157b51	0.00014255686
100	0x3a826ae9	0.0009950075
101	0x3a7394e0	0.00092918985
102	0xb92c3ff4	-0.00016427023
103	0x39a09580	0.00030628964
104	0x3a80e3d8	0.0009833528
105	0x3a5f60f2	0.0008521221
106	0xb96d28d4	-0.00022617291
107	0x3a76c014	0.0009412777
108	0xba805e9b	-0.000979382
109	0x3a78e64e	0.00094947673
110	0x3a826a8d	0.0009949967
111	0xba79f83f	-0.0009535588
112	0x3a6f14cf	0.0009120227
113	0xb9456911	-0.00018826524
114	0xba7d41c5	-0.00096609845
115	0xb984687d	-0.00025254852
116	0xba82a6b6	-0.0009967897
117	0x38b1a118	8.470024e-05
118	0xba721a23	-0.0009235462
119	0x39e026ad	0.00042753425
120	0x3a06d822	0.00051439006
121	0x3a82c151	0.0009975826
122	0xb90208a4	-0.00012400985
123	0x3a81f690	0.00099154
124	0xb8dd7e85	-0.00010561667
125	0x3983e5e0	0.00025157537
126	0x3a80d1c8	0.0009828145
127	0xba664d04	-0.000878528

weight f4 [128, 128]
0	0xbd517c41	-0.05114389
1	0xbd29eb01	-0.041483883
2	0xbd3a7c30	-0.04552859
3	0x3cc8148d	0.024423862
4	0x3ddb5ef9	0.10711474
5	0x3da014f8	0.078164995
6	0x3cda10dd	0.02661937
7	0x3df0c9ed	0.11757264
8	0xbca11424	-0.019662924
9	0xbd14d7af	-0.036338504
10	0x3d6c27ae	0.05765503
11	0x3db8de9d	0.09026835
12	0xbe0049f6	-0.12528214
13	0xbd3f7ba4	-0.046748772
14	0x3dfcd9bb	0.12346216
15	0xbd9e917c	-0.07742593
16	0xbe0534ee	-0.13008472
17	0xbd441b61	-0.047877673
18	0xbe1b17df	-0.15145825
19	0x3d3bf383	0.045886528
20	0x3d5f6ba0	0.054546
21	0x3e106e88	0.14104664
22	0xbd2a18e5	-0.041527648
23	0x3dda7ea1	0.10668684
24	0xbdb9b444	-0.09067586
25	0x3dd05f1b	0.1017439
26	0x3cc1a905	0.023640165
27	0x3dcb8ba1	0.099387415
28	0x3cdfa3c5	0.027299771
29	0x3e148cc0	0.14506817
30	0x3de9ebe1	0.114219435
31	0x3ccf3e12	0.025298152
32	0xbcd22007	-0.025650037
33	0x3d66f290	0.05638367
34	0x3d964507	0.07337385
35	0x3ce64eda	0.028113771
36	0x3dc1e06e	0.09466635
37	0xbdb0c7cc	-0.08631858
38	0x392cea2b	0.00016490433
39	0xbdbad632	-0.09122886
40	0xbdda82b4	-0.10669461
41	0x3b034379	0.002002923
42	0xbdd45952	-0.10368599
43	0x3e166c87	0.14689837
44	0xbd5c40b0	-0.05377263
45	0x3c5ab8b5	0.013349702
46	0x3d8e451c	0.06946775
47	0x3ba83496	0.005133222
48	0xbe119983	-0.14218716
49	0xbdf983a2	-0.1218331
50	0x3dc68b71	0.09694565
51	0xbdb5444f	-0.088509195
52	0x3c3aa1f2	0.01139115
53	0xbd31099e	-0.043222062
54	0x3e18bd2a	0.1491591
55	0xbe01dcc0	-0.12681866
56	0xbd6c3e76	-0.057676755
57	0xbe1ab797	-0.15109096
58	0x3d63abf3	0.055583905
59	0x3dc34502	0.095346466
60	0xbdb7f322	-0.08981921
61	0x3da4f574	0.08054629
62	0x3cef7293	0.029229438
63	0x3daa32f9	0.083105035
64	0x3ca48df1	0.020087214
65	0xbdbd27b7	-0.09236091
66	0x3dfea572	0.124339
67	0x3daa554a	0.08317049
68	0xbdb4e249	-0.08832223
69	0x3d6d1efc	0.057890877
70	0xbdb06eb7	-0.08614867
71	0x3b14ccef	0.0022705158
72	0x3dc59477	0.09647458
73	0xbe0c34f1	-0.1369207
74	0xbd236b2f	-0.03989714
75	0xbddaf0a1	-0.106904276
76	0x3e0a792c	0.13522786
77	0xbe19396c	-0.14963311
78	0xbc2ca8e9	-0.010538318
79	0xbbbc625d	-0.0057490305
80	0xbc1d7c02	-0.009612085
81	0x3e0fa67c	0.14028352
82	0xbd9333ff	-0.07187652
83	0x3d325adb	0.043543678
84	0xbe0a0ebd	-0.13482185
85	0xbde36262	-0.111027494
86	0xbce6c02d	-0.028167808
87	0xbd930133	-0.07177963
88	0x3c93dc95	0.018049518
89	0xbcd38aac	-0.02582296
90	0xbc0e3cfe	-0.008681534
91	0x3dafb2a6	0.08578996
92	0x3dfd1bab	0.12358793
93	0x3d9f836a	0.07788737
94	0xbdc90fcd	-0.09817467
95	0x3e0a007c	0.13476747
96	0xbdeb350c	-0.11484727
97	0xbd54167d	-0.05177926
98	0x3da72f39	0.08163304
99	0x3dc9265d	0.0982177
100	0xbd9059f0	-0.07048404
101	0xbe123167	-0.14276658
102	0x3e196016	0.1497806
103	0xbd9f16b8	-0.07768005
104	0x3dcafe5b	0.09911796
105	0x3da4e0cd	0.0805069
106	0xbd5c450a	-0.05377678
107	0x3df307dd	0.11866734
108	0xbde350dd	-0.11099408
109	0xbe110d83	-0.1416531
110	0xbd3f8d2b	-0.046765488
111	0x3d627569	0.055287752
112	0xbdd3441e	-0.10315727
113	0x3d89e751	0.06733573
114	0xbdf5c5ab	-0.12000593
115	0x3d94ef0a	0.072721556
116	0xbd14616b	-0.036225718
117	0x3e088104	0.13330466
118	0x3decf8cf	0.11570894
119	0x3dfd0f70	0.1235646
120	0xbd516d70	-0.05112976
121	0x3e0ec4e9	0.13942303
122	0xbcb28a4a	-0.021794457
123	0xbdef0b80	-0.11672115
124	0x3ddbf4b8	0.10740036
125	0xbb7b0326	-0.0038301437
126	0x3de39d04	0.11113933
127	0xbe078667	-0.13234864
128	0xbd36bcba	-0.044613577
129	0x3e146dba	0.14494982
130	0x3cfa5cf2	0.030561898
131	0xbd127766	-0.0357584
132	0x3cbfbf81	0.023406746
133	0xbe1b0b12	-0.15140942
134	0xbbd5b0c9	-0.0065213186
135	0x3e19e358	0.15028131
136	0xbd80ee88	-0.06295496
137	0xbd99c362	-0.075079694
138	0xbe0e54f0	-0.13899589
139	0x3d8990ab	0.06717046
140	0x3d96356d	0.07334409
141	0xbd80d1eb	-0.06290039
142	0xbd1725a0	-0.036901116
143	0xbe08bdb1	-0.13353612
144	0xbda9ec59	-0.08297033
145	0xbcb66ba3	-0.022268122
146	0xbbb650af	-0.0055638175
147	0x3d8a6e92	0.06759371
148	0x3c41d6c6	0.011830991
149	0xbe0c9eb7	-0.1373242
150	0x3d9f4244	0.07776311
151	0xbb72713c	-0.0036993762
152	0xbd775f3a	-0.06039355
153	0xbd37f482	-0.044910915
154	0xbde9b3d9	-0.11411256
155	0x3dc4e71a	0.096143916
156	0x3d05edef	0.032697614
157	0xbc782b26	-0.015147006
158	0xbde9bbad	-0.114127494
159	0xbd751561	-0.05983484
160	0xbdeeb0e3	-0.11654832
161	0x3de186f1	0.11012066
162	0x3c6418e3	0.013921949
163	0xbca96904	-0.020679958
164	0xbd9d3c58	-0.07677525
165	0x3cec0a11	0.028813394
166	0x3c90231e	0.01759487
167	0x3dc1f152	0.09469856
168	0x3cf69131	0.03009853
169	0x3d764793	0.060126852
170	0x3e01b482	0.12666515
171	0x3d137a7b	0.03600548
172	0x3da84752	0.08216728
173	0x3d4ab36d	0.04948752
174	0x3d8d6705	0.06904415
175	0x3da3b766	0.07993965
176	0xbe0ba49c	-0.13637012
177	0x3d66af2b	0.056319397
178	0x3df0c3c0	0.11756086
179	0xbd933a09	-0.07188804
180	0x3d8bbf2b	0.06823572
181	0x3d752ff0	0.05986017
182	0xbde4acdf	-0.11165785
183	0xbd63cabd	-0.05561327
184	0xbdc23d1a	-0.094843104
185	0xbc8a625b	-0.016892603
186	0xbd94a1e1	-0.072574385
187	0xbdd710fa	-0.10501285
188	0xbe0abc62	-0.13548425
189	0x3e0762fa	0.1322135
190	0xbd4e53ae	-0.050372772
191	0x387a8f12	5.973789e-05
192	0xbe0645ad	-0.13112517
193	0xbdb1800c	-0.08667001
194	0x3d5a95e2	0.053365596
195	0x3cbc21bc	0.022965305
196	0xbc16f756	-0.009214243
197	0xbd820845	-0.063492335
198	0xbc54d997	-0.012991331
199	0xbc7c3ca5	-0.015395318
200	0x3d065b22	0.032801755
201	0x3de6ab3d	0.1126313
202	0xbe036e15	-0.12834962
203	0x3bb0229c	0.0053752195
204	0xbe079040	-0.13238621
205	0x3cb011fd	0.021492952
206	0x3e18a8f0	0.14908195
207	0xbdf22140	-0.11822748
208	0x3e0eca68	0.139444
209	0xbda61740	-0.08109903
210	0x3bfcc6d5	0.0077141323
211	0xb975c46d	-0.00023438195
212	0x3cf934ac	0.030420624
213	0xbceeea05	-0.029164324
214	0xbdcfce56	-0.10146777
215	0xbd8274b5	-0.06369916
216	0x3e1b666a	0.15175787
217	0x3ddda897	0.108231716
218	0xbd38a77f	-0.04508161
219	0x3e0d797e	0.13815877
220	0x3c655809	0.01399804
221	0xbb639fc0	-0.003473267
222	0xbdee3488	-0.11631113
223	0xbdbe71d7	-0.09299057
224	0x3ddb58a1	0.10710264
225	0x3ddcaf3c	0.10775611
226	0xbe07047f	-0.13185309
227	0x3d18b30d	0.03728013
228	0xbd991ce7	-0.07476216
229	0xbe06a9dd	-0.13150735
230	0xbd76ce95	-0.060255606
231	0x3d88b8d0	0.06675875
232	0x3de9be2c	0.114132255
233	0xbd0f69d0	-0.03501302
234	0x3df70ef2	0.120633975
235	0xbd1fb80c	-0.03899388
236	0x3c89a790	0.016803533
237	0x3dbf3fb3	0.093383215
238	0x3b0b199a	0.0021224977
239	0xbd2cbb37	-0.04217073
240	0xbd9cce31	-0.076565154
241	0x3dae2d0e	0.08504687
242	0x3e147714	0.1449855
243	0x3cd552fc	0.026040547
244	0xbd86bb6b	-0.06578716
245	0x3ceacfb9	0.028663503
246	0x3e0895b2	0.13338354
247	0xbd532a93	-0.051554274
248	0x3aabdc9d	0.0013112013
249	0xbdc1bfa7	-0.09460383
250	0x3e024bf0	0.1272428
251	0x3dc905b4	0.09815541
252	0xbe152c20	-0.14567614
253	0x3dacbf98	0.08434981
254	0x3d05ef7f	0.032699104
255	0x3e00646f	0.12538312

bias f4 [128]
0	0x37e1599a	2.6863814e-05
1	0xb99bc638	-0.00029711588
2	0x3700a19d	7.667023e-06
3	0x37dae172	2.6092606e-05
4	0x37e55369	2.7337768e-05
5	0xb99a88a0	-0.00029474963
6	0x37d56305	2.5437688e-05
7	0xb9908de7	-0.00027571546
8	0x373e19e2	1.1330909e-05
9	0x37d7ec01	2.5739895e-05
10	0x37be25b3	2.266732e-05
11	0x399492ff	0.0002833828
12	0x36c0c5fd	5.7450948e-06
13	0x39c3de95	0.00037359135
14	0x37df16f8	2.6594367e-05
15	0x39ec51de	0.00045074424
16	0x37b8a90d	2.201323e-05
17	0x399ee205	0.00030304506
18	0x39bc153c	0.00035873975
19	0x39d61142	0.0004083012
20	0x37be42bd	2.2680842e-05
21	0x377e929d	1.5173716e-05
22	0x39e0210b	0.00042749228
23	0x37e3b0ec	2.7142894e-05
24	0x39d47b87	0.00040527826
25	0x39be1991	0.00036258672
26	0x37db2d72	2.6127997e-05
27	0x399c2c7e	0.00029787788
28	0x37e6b270	2.7501228e-05
29	0x3735c285	1.0833731e-05
30	0x37269e9e	9.931302e-06
31	0x37d8424a	2.5780075e-05
32	0x3784ce1a	1.58316e-05
33	0xb9b1d51c	-0.0003391885
34	0x39e5b9b4	0.00043816643
35	0x36d5c77d	6.371118e-06
36	0xb9a6a3a1	-0.000317839
37	0x39bad93e	0.00035638543
38	0x39c9c889	0.00038487118
39	0xb9336d58	-0.00017111504
40	0x370d01ee	8.404704e-06
41	0x383825ac	4.3904103e-05
42	0x39bea4b3	0.00036362335
43	0x38ceda74	9.8635355e-05
44	0x37e60ef9	2.7425109e-05
45	0xb9130371	-0.00014020294
46	0x39c0772f	0.00036709892
47	0x37cc8855	2.438218e-05
48	0x37aba72b	2.0462632e-05
49	0x39d943e5	0.0004144005
50	0x39c648e8	0.00037819822
51	0x37c2abbd	2.3206574e-05
52	0x39c0dc15	0.00036785068
53	0xb95ede78	-0.00021254446
54	0xb9658e8c	-0.00021892245
55	0x39c1a3cf	0.00036933876
56	0xb9b99619	-0.0003539778
57	0x37929763	1.7475051e-05
58	0x39bc6e77	0.00035940457
59	0x39c0aa5a	0.00036748016
60	0xb993d80c	-0.00028198992
61	0x374de0cf	1.22712945e-05
62	0x37c69373	2.36721e-05
63	0x37e6003b	2.7418244e-05
64	0xb990e998	-0.0002763986
65	0x3722576f	9.67631e-06
66	0x3783d3c3	1.5715026e-05
67	0x39d7a8ad	0.0004113367
68	0xb988f495	-0.0002612217
69	0x37b7c1df	2.1905578e-05
70	0x39def2b9	0.00042523982
71	0x39c37f19	0.00037287993
72	0x3785ce0e	1.5950787e-05
73	0x37821a6e	1.5509515e-05
74	0xb9b80067	-0.00035095515
75	0x39cb40c8	0.00038767443
76	0x39d3340e	0.0004028384
77	0x39b832c5	0.0003513304
78	0x368f5ed0	4.2727697e-06
79	0x39c37197	0.0003727793
80	0x36f6f967	7.3604056e-06
81	0x39c8e8ad	0.0003832033
82	0x39aa4c4c	0.00032481772
83	0xb98b9d64	-0.0002662941
84	0xb9a4e6ae	-0.00031452387
85	0xb9a688ea	-0.00031763996
86	0x3782a092	1.5571979e-05
87	0x378100d9	1.5378393e-05
88	0xb9a550da	-0.00031531492
89	0xb9643959	-0.00021765138
90	0x39eed06c	0.00045550184
91	0x39d64371	0.00040867509
92	0x37d514ac	2.5401205e-05
93	0x37e74bd2	2.7572652e-05
94	0x37e730e5	2.7560114e-05
95	0x39d437b8	0.00040477305
96	0x3759ecab	1.29893115e-05
97	0x39daff2a	0.00041770312
98	0x37bbb71e	2.2377408e-05
99	0xb951972a	-0.00019988106
100	0x37cd2a1e	2.4457517e-05
101	0xb9b7d409	-0.00035062458
102	0x37895a5d	1.6373751e-05
103	0x39de4f60	0.0004240228
104	0x36ef187e	7.1256063e-06
105	0x378eafd9	1.7009605e-05
106	0x37e74856	2.757103e-05
107	0xb99d5466	-0.00030008255
108	0x3744a931	1.1721903e-05
109	0x39cb9208	0.0003882798
110	0x37e1452e	2.6854304e-05
111	0xb9952675	-0.00028448147
112	0x37b62ffb	2.1718433e-05
113	0x3752979b	1.2552274e-05
114	0xb9a1a824	-0.00030833588
115	0x39d3b96d	0.0004038321
116	0x39ef115c	0.00045598566
117	0x3794f806	1.775847e-05
118	0x37da4c14	2.6023052e-05
119	0x395fb232	0.0002133332
120	0xb991f494	-0.0002783878
121	0x372370c0	9.741809e-06
122	0xb9acfa6e	-0.0003299298
123	0x37d3ef66	2.5264639e-05
124	0x39b91a13	0.00035305377
125	0x39df7dfe	0.00042627746
126	0x39c44402	0.00037434703
127	0x36d45e41	6.329065e-06

weight f4 [128, 128]
0	0x3d8e7f95	0.06957928
1	0x3dfbf9bb	0.12303492
2	0x3d9e969b	0.077435695
3	0xbdd8a086	-0.105774924
4	0x3def8556	0.11695354
5	0xbdb86f0a	-0.09005554
6	0xbd923efe	-0.07140921
7	0x3e050997	0.1299194
8	0x3d39d05b	0.04536472
9	0xbe00b559	-0.12569179
10	0xbde2bc40	-0.11071062
11	0x3b4c8f96	0.0031213514
12	0xbda6a746	-0.081373736
13	0xbdb60cfd	-0.08889196
14	0xbc502faa	-0.0127066765
15	0xbd8c04e1	-0.06836868
16	0x3bb1b532	0.0054232115
17	0x3dcee2cd	0.101018526
18	0x3d7d2d2d	0.06181066
19	0xbd166520	-0.036717534
20	0xbe008eff	-0.12554549
21	0xbd84f1ae	-0.06491409
22	0x3dedfaa2	0.1162007
23	0x3d9f1d00	0.07769203
24	0x3dc50f97	0.09622114
25	0xbc3d7dc5	-0.01156563
26	0x3d8b4ed8	0.068021476
27	0xbe0347c5	-0.12820347
28	0xbe07efcd	-0.1327507
29	0x3d4ea25f	0.050447818
30	0x3dde7913	0.10862937
31	0xbc06e94f	-0.008234336
32	0xbc20ab4f	-0.009806468
33	0xbdbadaf8	-0.09123796
34	0xbdde12e1	-0.108434446
35	0xbded15d7	-0.11576431
36	0x3d2221fc	0.03958319
37	0xbdd19b4e	-0.102347
38	0xbd0c3870	-0.03423351
39	0x3d70727d	0.058702935
40	0x3e1a56c0	0.15072155
41	0xbdcc218d	-0.09967337
42	0xbdc53183	-0.09628584
43	0xbc8287e6	-0.015933942
44	0x3a91b835	0.001111752
45	0x3d83fdb4	0.064448744
46	0xbdbe2958	-0.092852294
47	0xbd9ef257	-0.077610664
48	0x3d59887f	0.05310869
49	0x3d16270c	0.03665833
50	0xbd95c624	-0.07313183
51	0xbdb83880	-0.089951515
52	0xbbe1fba4	-0.006896453
53	0xba138928	-0.0005628043
54	0x3e1954a8	0.149737
55	0xbbe215b8	-0.0068995617
56	0x3e0a4ee9	0.13506664
57	0x3d1609e0	0.03663051
58	0xbded0e15	-0.115749516
59	0x3e15edc8	0.14641488
60	0xbdb43056	-0.08798282
61	0x3d3e3f6e	0.04644721
62	0x3da944b9	0.08265061
63	0xbe052ace	-0.1300461
64	0xbdad6242	-0.08466007
65	0xbdd8cb79	-0.10585684
66	0xbda5b8fc	-0.080919236
67	0x3e0a8098	0.13525617
68	0xbddbf292	-0.10739626
69	0x3d9cf34a	0.07663591
70	0x3d845bd2	0.06462826
71	0xbcfe2b98	-0.031026646
72	0x3e07d954	0.13266498
73	0xbd8b95e6	-0.068157
74	0x3d5fddf4	0.05465503
75	0x3e081598	0.13289487
76	0xbe01f360	-0.12690496
77	0x3d89a0a4	0.06720093
78	0xbdad531c	-0.084631175
79	0xbb5184ae	-0.0031969952
80	0xbdb678f3	-0.08909788
81	0xbdf54dff	-0.11977767
82	0xbd8a3193	-0.06747737
83	0x3cee961f	0.029124318
84	0x3d4a8e4d	0.049452115
85	0x3d89f23a	0.06735654
86	0xbd884332	-0.066534415
87	0x3b075cf7	0.0020654777
88	0x3d7417f1	0.059593145
89	0xbdd11ddf	-0.102107756
90	0xbd90e02e	-0.07074009
91	0x3de4f7d4	0.11180082
92	0x3dac3d15	0.08410088
93	0xbd1d25a6	-0.038365982
94	0xbdcd6fa7	-0.100310616
95	0x3dfb95b4	0.12284413
96	0xbdc50bd3	-0.09621396
97	0xbda3b275	-0.07993022
98	0x3e04c341	0.12965108
99	0x3e0833ec	0.13301057
100	0xbe1a1e1c	-0.15050548
101	0xbd94ca91	-0.07265199
102	0xbdfaad98	-0.12240142
103	0x3cf0520a	0.029335994
104	0x3b3eac3c	0.002909436
105	0x3dd51649	0.10404641
106	0x3d810964	0.06300619
107	0x3e09ac2d	0.13444586
108	0xbd1ad96e	-0.037805013
109	0x3be6e0cf	0.0070458422
110	0xbcbd1901	-0.023083212
111	0xbd9ab297	-0.075535946
112	0xbcbe66d1	-0.023242386
113	0x3daa38b5	0.08311597
114	0xbda1c08a	-0.07898052
115	0x3dde2313	0.108465336
116	0xbd2ce8d1	-0.04221422
117	0xbb04af1e	-0.002024598
118	0xbdbf3954	-0.09337106
119	0xbda09784	-0.07841399
120	0xbc512c94	-0.012766976
121	0xbdb0fad0	-0.08641589
122	0xbddcb87e	-0.107773766
123	0x3e1b3805	0.15158089
124	0x3c7cbd63	0.015426013
125	0xbd66ffd1	-0.05639631
126	0xbde3fd46	-0.111322924
127	0xbcb1102e	-0.02161416
128	0x3b53bfe3	0.0032310418
129	0x3d69a8c3	0.05704571
130	0x3e10a562	0.14125589
131	0xbca911ca	-0.020638365
132	0x3e0d0fca	0.13775554
133	0x3dbc2486	0.09186654
134	0xbc9bb1cd	-0.01900568
135	0xbde77cc4	-0.11303094
136	0x3cdae8ee	0.026722398
137	0xbd691dd6	-0.05691322
138	0xbd6762f3	-0.05649085
139	0x3dceb7d1	0.10093654
140	0x3d85472e	0.06507717
141	0x3cef06ab	0.029177984
142	0x3ddc49b0	0.10756242
143	0x3b11f049	0.0022268465
144	0x3db58580	0.08863354
145	0x3d893fff	0.067016594
146	0x3e03dd8b	0.1287748
147	0x3cf40ce5	0.029791305
148	0x3cab5a70	0.020917147
149	0xbc82c780	-0.01596427
150	0x3d9b9a34	0.07597771
151	0x3ddaf879	0.10691924
152	0x3de57622	0.11204173
153	0xbde8f64b	-0.11375102
154	0x3c040fe7	0.008060432
155	0x3d923043	0.071381114
156	0xbdf073fa	-0.11740871
157	0x3dc5c64f	0.09656965
158	0xbd254aaf	-0.040354427
159	0xbe139cbd	-0.1441526
160	0xbce0dd64	-0.027449317
161	0x3d6ff2ba	0.05858109
162	0xbde2a986	-0.1106749
163	0x3d76da75	0.06026693
164	0xbcb953d8	-0.022622988
165	0x3cfddc9f	0.03098899
166	0x3d7c0a67	0.061533358
167	0x3e019542	0.12654594
168	0x3d1b558e	0.03792339
169	0xbda8254d	-0.082102396
170	0x3dfd13bb	0.12357279
171	0x3e05e622	0.1307607
172	0x3c102828	0.0087986365
173	0x3cf88d1c	0.030340724
174	0xbe0471d2	-0.12934044
175	0x3bac42c1	0.005256981
176	0x3ddc7fb0	0.10766542
177	0x3e1a25f4	0.1505354
178	0x3da8a8b7	0.08235305
179	0x3d8b569c	0.06803629
180	0x3d4e094f	0.050301846
181	0x3e17b7d8	0.14816225
182	0x3da951db	0.08267566
183	0xbd6f8431	-0.058475677
184	0xbd9d73be	-0.07688092
185	0x3b0d6705	0.0021576297
186	0x3d3740b8	0.044739455
187	0xbd042547	-0.032262113
188	0x3e06fbaa	0.1318194
189	0x3d88a9ae	0.06672989
190	0xbd88b7c0	-0.066756725
191	0x3c412c81	0.011790396
192	0xbda8c9ba	-0.08241601
193	0xbcd5fc5c	-0.02612131
194	0xbdb34a52	-0.0875441
195	0xbd4b902d	-0.049698044
196	0x3cbc2335	0.022966007
197	0xbda6c7e8	-0.08143598
198	0x3ccabe1d	0.024748856
199	0xbdfaf688	-0.12254053
200	0xbb62c3ba	-0.0034601525
201	0xbd8ce8d1	-0.06880344
202	0xbcdf70f9	-0.02727555
203	0x3e0e0682	0.1386967
204	0xbd21919e	-0.039445512
205	0xbc942e31	-0.018088432
206	0x3ddd6370	0.10809982
207	0xbdc4d25f	-0.096104376
208	0x3d356496	0.04428538
209	0xbda23daf	-0.079219215
210	0x3da3c22f	0.07996022
211	0xbe1a7b67	-0.15086137
212	0xbd8c7d6b	-0.06859859
213	0x3cf4c000	0.029876709
214	0xbdb4bafc	-0.08824727
215	0xbdee4d4c	-0.11635837
216	0x3c9ecbff	0.019384382
217	0xbc1dc2d6	-0.009628972
218	0xbd450439	-0.04809973
219	0xbc929888	-0.017894998
220	0x3d899156	0.06717174
221	0x3dc16f34	0.094450384
222	0x3e0bc0e8	0.13647807
223	0x3db5223e	0.08844422
224	0xbdad0349	-0.08447892
225	0x3c802f29	0.015647488
226	0x3a9c63f5	0.0011931645
227	0xbdb6bb63	-0.0892246
228	0x3dc09f07	0.09405332
229	0x3d900c53	0.07033601
230	0xbd6d3d28	-0.05791965
231	0x3c3942ba	0.011307413
232	0x3cccf08f	0.025017051
233	0x3d65fe47	0.0561507
234	0x3bec87bd	0.0072183297
235	0x3d0c8536	0.034306727
236	0xbd84aed1	-0.06478656
237	0x3dc489b4	0.09596577
238	0xbd871df9	-0.06597514
239	0xbd6ffdcc	-0.05859165
240	0xbdd80117	-0.10547083
241	0x3d93e152	0.07220711
242	0xbd12da8f	-0.035852965
243	0xbe04806e	-0.12939617
244	0xbc4993ad	-0.012303275
245	0xbae4d050	-0.0017457101
246	0x3d9db70c	0.07700929
247	0x3cbfef27	0.023429466
248	0x3e130a7e	0.14359471
249	0xbd71ac7b	-0.05900238
250	0x3d5c91d8	0.053850025
251	0xbe0ceada	-0.13761464
252	0x3cc02814	0.02345661
253	0xbc2d9e65	-0.010596846
254	0xbc90e1cb	-0.017685791
255	0xbd0ff486	-0.035145305

weight f4 [1, 128]
0	0x3cfe3cbf	0.031034825
1	0xbdd05762	-0.10172917
2	0xbe44d3b4	-0.19221383
3	0x3e34d953	0.17661028
4	0x3e122caf	0.14274858
5	0x3da20b6f	0.07912337
6	0xbe0c95b2	-0.13728979
7	0xbc8fbfbb	-0.017547479
8	0x3e05553a	0.13020793
9	0x3dd6494a	0.104631975
10	0x3e55d54f	0.20882152
11	0xbb95ad3f	-0.0045677717
12	0x3bc18f4a	0.005906974
13	0xbd622c13	-0.055217814
14	0x3d8c3088	0.06845194
15	0xbe52c334	-0.20582277
16	0x3bae22b2	0.0053141946
17	0xbe1d3f37	-0.15356146
18	0xbdd677ed	-0.10472093
19	0xbdd2eba9	-0.10298855
20	0x3e0c2091	0.13684298
21	0x3d8823b7	0.06647437
22	0xbe0648be	-0.13113686
23	0x3e297b0b	0.16550843
24	0xbdca3b7a	-0.098746255
25	0xbd89e8d7	-0.06733864
26	0x3d9d4899	0.076798625
27	0xbd95d35f	-0.073157065
28	0x3e3a04e0	0.18165922
29	0x3e19278c	0.14956492
30	0xbcd3dc24	-0.025861807
31	0x3e284130	0.16431117
32	0x3d0d468b	0.034491103
33	0x3dd68499	0.1047451
34	0xbe4b206c	-0.19836587
35	0xbbad02c3	-0.0052798702
36	0x3dd30d41	0.10305262
37	0xbe5055d9	-0.20345248
38	0xbd8bdafc	-0.06828877
39	0xbe4fc160	-0.2028861
40	0xbd29b7cd	-0.04143505
41	0x3e56877e	0.20950124
42	0xbd722f53	-0.059127163
43	0x3c5e05f0	0.01355122
44	0x3de2a46d	0.11066518
45	0xbcd66cfc	-0.026175015
46	0xbe057b69	-0.13035358
47	0x3e21d521	0.15803958
48	0xbda13ac1	-0.078725345
49	0xbe052a03	-0.13004307
50	0x3b399600	0.0028318167
51	0x3da6f3db	0.081519805
52	0xbd99c259	-0.07507772
53	0xbe197b5f	-0.14988469
54	0xbe034c13	-0.12821989
55	0x3b2a8988	0.0026021916
56	0xbd6eaed5	-0.0582722
57	0xbdd7c93f	-0.105364315
58	0xbdb3faa5	-0.08788041
59	0xbdcf8baa	-0.10134061
60	0xbe0b4748	-0.1360141
61	0x3e1586a3	0.14602141
62	0x3e3242ee	0.17408344
63	0x3e1c39b7	0.15256391
64	0xbc86dd90	-0.016463071
65	0x3bc6d2e2	0.0060676197
66	0x3bc08f22	0.0058764378
67	0x3b215328	0.0024616215
68	0xbe13dd4e	-0.1443989
69	0xbd8c600e	-0.068542585
70	0xbe4154a9	-0.18879952
71	0xbdf02b0e	-0.11726962
72	0x3d957a45	0.07298712
73	0x3e563eb0	0.20922351
74	0x3e10001e	0.14062545
75	0xbe4d6de0	-0.20061445
76	0xbe13cc5f	-0.1443343
77	0xbe21b4db	-0.15791647
78	0x3d954763	0.072890066
79	0xbe56b456	-0.2096723
80	0x3c7c6ecc	0.015407275
81	0xbd5da0fa	-0.054108597
82	0xbe3feedb	-0.1874346
83	0x3c9d6900	0.019215107
84	0x3d9cccef	0.076562755
85	0x3bc8828a	0.006119077
86	0x3de853fd	0.113441445
87	0xbdd01948	-0.10161072
88	0x3d37c667	0.044866946
89	0xbdb400b2	-0.08789195
90	0xbe0decd6	-0.13859877
91	0xbe391115	-0.18072923
92	0x3e32389b	0.17404406
93	0xbe3319a0	-0.17490244
94	0x3e3fbb9d	0.18723913
95	0xbe2a31c6	-0.1662055
96	0x3dc5cc8f	0.09658157
97	0xbe07447b	-0.13209717
98	0xbd1e7b5d	-0.038691867
99	0x3e0150e3	0.12628512
100	0x3d9181d9	0.071048446
101	0x3e4db460	0.20088339
102	0x3e21d50e	0.1580393
103	0xbdf303e8	-0.118659794
104	0xbd02ec51	-0.03196365
105	0xbdc1a9fd	-0.09456251
106	0x3e2e8e9d	0.1704659
107	0x3e3c4284	0.18384749
108	0xbdc7f7cd	-0.09764061
109	0xbdd6a90c	-0.10481462
110	0x3e15f6f7	0.14644991
111	0x3d29f111	0.041489664
112	0x3c3df085	0.011592989
113	0x3ddc3ad8	0.10753411
114	0xbdadc64c	-0.08485088
115	0xbe350332	-0.17677
116	0xbe122a48	-0.14273942
117	0x3d40db40	0.047084093
118	0x3e416664	0.18886715
119	0xbdae9cb7	-0.08525985
120	0x3d293512	0.041310377
121	0x3e477473	0.19478016
122	0xbe22ef8f	-0.15911697
123	0x3e54dd85	0.20787628
124	0xbd33aa83	-0.043863785
125	0xbe4fb2b4	-0.20283014
126	0xbd988bd6	-0.074485466
127	0xbccd21b2	-0.025040481

weight f4 [128, 256]
0	0x3d4e2491	0.05032784
1	0xbd72450b	-0.059147876
2	0xbc3583c7	-0.011078781
3	0x3d1d8eb1	0.03846616
4	0x3d0ff35e	0.035144202
5	0xbcffb3cb	-0.031213662
6	0x3d657125	0.056016106
7	0x3d20f10c	0.03929238
8	0xbd2c7443	-0.042103063
9	0xbcd945f9	-0.026522623
10	0x3cc0e07c	0.023544542
11	0x3d1f30b5	0.03886481
12	0x3d06dbca	0.03292445
13	0xbd462922	-0.04837907
14	0x3d190781	0.037360672
15	0xbce366f6	-0.027759057
16	0x3d08098c	0.03321223
17	0xbd43af19	-0.047774408
18	0x3d695cf3	0.05697341
19	0x3d1221b8	0.035676688
20	0xbcd44faf	-0.025916902
21	0xbb3aa368	-0.0028478745
22	0xbd6d1e66	-0.05789032
23	0x3d0d8cbb	0.03455804
24	0xbcb1bc3c	-0.021696202
25	0xbcc737a4	-0.024318524
26	0xbca71225	-0.020394394
27	0x3b609845	0.0034270447
28	0x3d6d6411	0.05795676
29	0x3d070740	0.0329659
30	0x3d5394a4	0.051655427
31	0xbc918782	-0.01776481
32	0xbbd5c32a	-0.0065235095
33	0xbbf06cbd	-0.0073371814
34	0x3d05657f	0.032567497
35	0xbd62b707	-0.05535033
36	0xbca9fa58	-0.020749256
37	0xbd3e2a76	-0.046427213
38	0x3d2cdfdf	0.042205688
39	0x3c9c0423	0.019044941
40	0xbcf84c56	-0.030309837
41	0x3cff2b3b	0.031148544
42	0x3d75c227	0.05999961
43	0x3d2d21e4	0.04226865
44	0x3cc4ee4e	0.024039414
45	0x3d0b6411	0.034030978
46	0xbb6dafa7	-0.0036268027
47	0xbbe8f815	-0.007109652
48	0x3d469e8a	0.04849104
49	0xbd433c93	-0.04766519
50	0x3d0bffa8	0.03417936
51	0xbcfcd6d9	-0.030864166
52	0x3c9456d6	0.018107813
53	0x3cded945	0.027203212
54	0xbbad0621	-0.0052802716
55	0x3d41f8e4	0.0473565
56	0x3c8f987d	0.017528767
57	0xbc398a04	-0.011324409
58	0xbc62e1f7	-0.0138478195
59	0x3cc2a997	0.023762507
60	0x3bf01073	0.0073261796
61	0xbd62cf79	-0.055373643
62	0x3d7823c8	0.060581
63	0xbcb394c0	-0.021921515
64	0x3cabad77	0.020956738
65	0xbd1f7c06	-0.038936637
66	0xbcb830ff	-0.0224843
67	0xbd17ca45	-0.037058134
68	0x3b993526	0.0046755252
69	0xbd54236a	-0.051791586
70	0x3c53229b	0.012886669
71	0x3cab11dc	0.02088254
72	0xbd6d6451	-0.057956997
73	0xbcd285ad	-0.025698507
74	0xbcae389a	-0.021267224
75	0x3c24f94b	0.010069202
76	0xbafdc1d9	-0.0019360139
77	0x3d59d834	0.053184703
78	0x3d29c113	0.041443896
79	0x3d66381e	0.05620586
80	0xbc2f52aa	-0.010700861
81	0xbd3b9c61	-0.04580343
82	0x3cf6afba	0.03011309
83	0xbd551ce8	-0.05202952
84	0x3cb8637c	0.022508375
85	0x3ccc2d7a	0.024924029
86	0x3ca543e1	0.020173969
87	0x3b5d1c4b	0.0033738788
88	0xbd290a82	-0.041269787
89	0xbd685191	-0.056718413
90	0xbcf21fcf	-0.029556183
91	0x3cc32962	0.023823444
92	0x3d6be700	0.057593346
93	0xbd739ec1	-0.05947757
94	0x3d76b247	0.060228612
95	0xbc2d82bb	-0.010590251
96	0xbce4ba4b	-0.027920863
97	0xbd40fa9d	-0.047114003
98	0xbc67319e	-0.014110951
99	0xbaf957e6	-0.0019023388
100	0x3c5877a9	0.013212123
101	0x3ca4d060	0.020118892
102	0xbd6b3852	-0.057426758
103	0x3bfe2d6e	0.0077568805
104	0x3cdf7734	0.02727852
105	0xbba1282c	-0.004918119
106	0xbbc3d95c	-0.005976839
107	0x3d2108a6	0.03931489
108	0xbd06db4a	-0.032923974
109	0xbd50ed3a	-0.051007487
110	0x3d3b4dcb	0.045728486
111	0x3ad72e70	0.0016417038
112	0x3cd6a461	0.026201429
113	0xbcbaf470	-0.022821635
114	0xbd2620e3	-0.040558707
115	0xbcbed654	-0.023295559
116	0xbc96ce5f	-0.018408952
117	0x3c67337d	0.014111397
118	0x3ccbc46e	0.024873938
119	0x3cdfd591	0.027323516
120	0x3d1336c1	0.03594089
121	0x3c9929fb	0.018696776
122	0xbd389414	-0.045063093
123	0x3c33d29b	0.010975505
124	0xbd75fcfa	-0.06005571
125	0x3d48f4fa	0.049061753
126	0xbd1f8bf9	-0.038951848
127	0xbabd5730	-0.001444554
128	0xbd193bdb	-0.0374106
129	0xba6cfb63	-0.0009040145
130	0x3ce852c1	0.028359773
131	0xbc51d2dc	-0.01280662
132	0x3ccd9f3f	0.025100349
133	0x3c939635	0.01801596
134	0x3ba42da2	0.0050103227
135	0x3c0860f3	0.008323896
136	0xbd3f08b5	-0.046639163
137	0xbc182153	-0.009285289
138	0x3cafed3e	0.02147543
139	0x3ca84af9	0.020543562
140	0xbbf569db	-0.0074894256
141	0x3cec4bd4	0.028844751
142	0x3d3269d1	0.043557946
143	0x3caac6f4	0.020846821
144	0xbcb7135e	-0.022348102
145	0xbd11bf2a	-0.0355827
146	0xbd752168	-0.05984631
147	0xbd174df6	-0.036939584
148	0xbd69da68	-0.057093054
149	0x3810b978	3.4505007e-05
150	0xbca8a6c8	-0.02058734
151	0xbd5ba064	-0.053619757
152	0x3d004026	0.031311177
153	0xbd42f101	-0.04759312
154	0xbc8077ef	-0.015682189
155	0x3c368e6c	0.011142354
156	0xbd41aa5b	-0.047281604
157	0xbd3f955e	-0.046773307
158	0x3d6e8ef2	0.058241792
159	0x3d0f5567	0.034993555
160	0xba42107f	-0.0007402971
161	0xbc8058f5	-0.015667418
162	0xbca5ee1e	-0.020255145
163	0xbca13dc5	-0.019682774
164	0xbd797230	-0.060899913
165	0xbd297d36	-0.041379176
166	0x3ccf2467	0.025285913
167	0x3ca7488d	0.020420337
168	0x3c70873d	0.014680681
169	0xbd05372e	-0.032523327
170	0xbcb4480e	-0.022007015
171	0xbd302c2b	-0.04301087
172	0xbcd4a9c1	-0.025959851
173	0xbd15b6aa	-0.036551155
174	0xbbcbbfd6	-0.006217937
175	0x3cbed098	0.023292825
176	0x3d03e8c6	0.032204412
177	0x3d0d9905	0.03456976
178	0x3d2442d9	0.040102813
179	0xbbe3c7f2	-0.0069513256
180	0xbd4cf04d	-0.050033856
181	0xbb891572	-0.0041834647
182	0x3d44cd6f	0.04804748
183	0x3d2cd419	0.04219446
184	0xbd0e937f	-0.034808632
185	0x3d214a94	0.039377764
186	0xbd6d34ac	-0.05791156
187	0xbbcae9cd	-0.006192422
188	0x3c2a8267	0.010407067
189	0x3cd8824c	0.026429318
190	0x3cd795e4	0.02631659
191	0xbd5b8a00	-0.053598404
192	0xbd676b4f	-0.05649882
193	0xbd37867d	-0.044805992
194	0xbc39c971	-0.011339531
195	0xbd784398	-0.060611337
196	0x3d57295d	0.05252968
197	0xbcea8aaf	-0.028630583
198	0x3d5d8d3b	0.054089766
199	0x39677ddd	0.00022076764
200	0x3d63ae77	0.055586305
201	0xb906ce98	-0.00012856198
202	0x3c21e753	0.009881812
203	0xbccc0224	-0.024903364
204	0x3ca1a234	0.019730665
205	0xbc5d818a	-0.013519654
206	0xbc28470c	-0.010270845
207	0x3d3897b0	0.045066535
208	0x37d06a94	2.4845162e-05
209	0x3cbbf5bf	0.02294433
210	0xbd5e9b96	-0.054347597
211	0xbd04ca65	-0.03241958
212	0x3d2ccbe7	0.042186644
213	0xbd0cfaee	-0.034418993
214	0xbc97f6d9	-0.018550323
215	0xbd5fba7e	-0.054621212
216	0x3c6b48d0	0.014360622
217	0x3d12227c	0.035677418
218	0x3cc6db24	0.024274416
219	0x3d3531f7	0.044237103
220	0x3d6b69d3	0.05747397
221	0xbd323dc9	-0.043515954
222	0x3cd46ccb	0.025930783
223	0x3d1a5883	0.037682068
224	0xbd0b4054	-0.033996895
225	0x3c218a39	0.009859615
226	0xbcec3c85	-0.028837452
227	0xbd5ef8b6	-0.054436408
228	0x3d4bb500	0.049733162
229	0x3d6e6897	0.058205213
230	0xb9c88f91	-0.00038253938
231	0xbd2eca2e	-0.042673282
232	0xbc9475a7	-0.018122507
233	0xbb28d0e3	-0.0025759272
234	0xbd3d9d8a	-0.04629282
235	0xbd6d4c38	-0.057934016
236	0x3c10faaa	0.0088488255
237	0xbd4b9a7a	-0.049707867
238	0x3b500a98	0.0031744596
239	0xbbcfd67f	-0.0063427086
240	0x3d421724	0.04738535
241	0x3d1e938f	0.03871494
242	0xbd531f10	-0.051543295
243	0x3b9e6a8d	0.004834479
244	0xbcde9ac0	-0.0271734
245	0x3d43ece1	0.047833327
246	0x3d10e400	0.035373688
247	0xbc700124	-0.014648709
248	0x3c314b44	0.010821167
249	0x3d4d9d7f	0.050199028
250	0x3d2aa221	0.041658524
251	0x3cd10de0	0.025519311
252	0xbd32865d	-0.04358517
253	0x3d3cb222	0.04606832
254	0x3c8d62b8	0.017258987
255	0x3c13e156	0.009025892

bias f4 [128]
0	0xbd212e9c	-0.03935109
1	0x3d29c525	0.041447777
2	0x3cdf0a49	0.027226584
3	0xbd1960cd	-0.037445832
4	0xbcb5f138	-0.022209749
5	0x3c6a31bd	0.014294085
6	0x3c854c4a	0.016271729
7	0x3cf0349d	0.029321963
8	0xbd71e47a	-0.059055783
9	0xbd118bdb	-0.035533767
10	0x3c982e7c	0.018576853
11	0xbd749e2d	-0.05972116
12	0xbcbeb886	-0.023281347
13	0xb8935e09	-7.027022e-05
14	0x3d43cd41	0.047803167
15	0xbc5a1fe6	-0.013313269
16	0x3d3d92c2	0.046282537
17	0xbc496764	-0.012292717
18	0xbc292b49	-0.010325261
19	0xbd783990	-0.06060177
20	0xbd3ac185	-0.04559471
21	0x3d682cfb	0.05668352
22	0x3c4ae01a	0.012382532
23	0x3bfd1685	0.007723632
24	0xbd4b63cd	-0.049655724
25	0x3c690f69	0.0142248655
26	0xbd042e97	-0.032270994
27	0xbd773184	-0.060349956
28	0x3d1e59b7	0.038659777
29	0xbd0c8eb8	-0.034315795
30	0x3c8d6854	0.017261662
31	0xbcafafe9	-0.021446185
32	0xbd3b94e9	-0.04579631
33	0xbcfcd94d	-0.030865336
34	0x378d387e	1.6834816e-05
35	0x3ce22c99	0.027609156
36	0x3d2f536c	0.042804167
37	0x3c2d46f7	0.010576001
38	0x3d6adb00	0.05733776
39	0xbd4b34f5	-0.04961105
40	0x3d053748	0.032523423
41	0x3bd49fe7	0.0064887884
42	0xbd5b5f2e	-0.053557567
43	0xbd38bd79	-0.04510257
44	0xbca50a60	-0.020146549
45	0xba7285c1	-0.0009251498
46	0x3cd885a3	0.02643091
47	0x3d3f9ec8	0.046782285
48	0x3c1e089e	0.009645609
49	0x3c7393e7	0.014866806
50	0x3d35555d	0.044270862
51	0xbd574922	-0.05255998
52	0x3d57933c	0.052630648
53	0x3d56471c	0.05231391
54	0x39822ebc	0.00024830352
55	0xbc9c91aa	-0.019112427
56	0x3d31d701	0.043417934
57	0xbd5ce1e5	-0.053926367
58	0xbcda12c1	-0.02662027
59	0xbd58b605	-0.052907962
60	0x3d57a192	0.05264432
61	0x3d645d93	0.0557533
62	0xbb739f0d	-0.003717366
63	0xbd68f846	-0.056877397
64	0xbd75efba	-0.060043074
65	0xbd6751b7	-0.056474414
66	0x3d0c0ee6	0.034193896
67	0xbbcc3725	-0.0062321597
68	0xbc563582	-0.013074281
69	0x3d0edd2a	0.034878887
70	0xbcb2e641	-0.02183831
71	0x3d4a871b	0.049445253
72	0xbb8ad051	-0.004236259
73	0x3c08bde2	0.008346053
74	0xbc3a68c4	-0.011377517
75	0x3d59cb8e	0.05317264
76	0xbb2da0c9	-0.002649354
77	0xbd6b3038	-0.05741903
78	0x3ca3df98	0.020004079
79	0x3bf4113d	0.007448344
80	0x3d234648	0.039861947
81	0xbcc7d03d	-0.024391288
82	0x3ce2ee4b	0.027701518
83	0x3d7b910b	0.06141762
84	0xbbc02716	-0.0058640344
85	0x3d480c44	0.048839822
86	0xbd1140e8	-0.03546229
87	0xb99c208e	-0.00029778894
88	0x3d0baf5c	0.034102783
89	0x3d6b7547	0.05748489
90	0x3d521126	0.051285885
91	0x3d4732c9	0.048632417
92	0xbd02329b	-0.031786542
93	0xbbe3b62a	-0.006949206
94	0xbd51f350	-0.05125743
95	0xbd0cbbed	-0.034358907
96	0xbd13da33	-0.036096763
97	0xbc88a719	-0.01668124
98	0x3cc8543b	0.024454227
99	0xbc065181	-0.008198143
100	0x3a87330e	0.0010314898
101	0xbccb5d2b	-0.0248247
102	0xbd76cd17	-0.060254183
103	0xbd533a06	-0.051569007
104	0xbd51a46e	-0.051182203
105	0xbd3f243c	-0.046665415
106	0x3d361f6d	0.044463564
107	0x3d48a88b	0.04898886
108	0xbd7896e3	-0.06069077
109	0xba95f283	-0.0011440072
110	0x3d0aae9a	0.03385792
111	0x3bd8db5f	0.006617948
112	0xbc9217cb	-0.017833611
113	0xbc0f3309	-0.008740195
114	0xbbf24a0a	-0.00739408
115	0xbcf30fa8	-0.029670551
116	0xbd0ab029	-0.033859406
117	0x3b13cd9a	0.0022552968
118	0x3d5727c3	0.052528154
119	0xbd084f15	-0.033278544
120	0x3c9922b5	0.018693307
121	0xbd33e129	-0.0439159
122	0xbc97a357	-0.018510504
123	0xbcb2a480	-0.021806955
124	0x3b8bfc8c	0.0042720493
125	0xbc8e1202	-0.017342571
126	0x3d5add38	0.053433627
127	0xbcf7299a	-0.030171204
