outputs/NCI109_Glo/model.pth (torch, 599510 bytes, 13 tensors)

bias f4 [128]
000000 6a a7 2c 3b 9f 6b 47 3d 91 29 0b 3d f0 4b 24 3d
       0.0026344904 0.04868662 0.033975188 0.040111482
000010 db 36 81 3c 9c 6c 72 3d fb e8 8e bb 3a 17 61 3d
       0.015773227 0.05918561 -0.0043612695 0.05495379
000020 af 9e df 3c 60 d8 00 3c 30 89 c3 3c 16 7e bb 3c
       0.027297346 0.007864088 0.023869127 0.02288727
000030 0a a3 f1 3c 6a 34 65 3d 5a 3a 8f bc 17 64 e1 3c
       0.029496688 0.05595819 -0.017483879 0.027513547
000040 24 3f ce 3c 32 f6 06 bc 9f 59 2a 3c 1d 3f 45 3d
       0.025176592 -0.0082374085 0.010397344 0.048155893
000050 bd 1a b5 3c e5 62 0b 3d 3c 4e 1f 3d 83 cd c5 3c
       0.022107476 0.03402986 0.03889297 0.024145847
000060 35 17 c0 3b 38 bd 3b bb 38 4c ca 3b 26 7e d9 3c
       0.0058621415 -0.0028646719 0.0061736368 0.02654941
000070 85 19 30 bb 59 45 81 3d c9 ff 13 3d 19 c1 a9 bb
       -0.002687068 0.06312055 0.036132608 -0.0051804897
000080 4b 88 f6 3c 90 10 f7 3c 6f e3 42 3d d3 c1 2d 3d
       0.030094286 0.030159265 0.04758018 0.042421173
000090 d5 1f 57 3d 13 81 17 3d 3c a3 b8 3a 78 a1 1d 3d
       0.05252059 0.03698833 0.0014086734 0.038484067
0000a0 e4 69 6f 3d 1f f2 a8 bc cb ab 35 bc 91 65 a5 bc
       0.058450595 -0.020623265 -0.011088322 -0.020190032
0000b0 29 35 71 3d d0 3d b9 bc 96 d5 b3 3c fd 8b 2d bd
       0.058888588 -0.022612482 0.021952432 -0.04236983
0000c0 dd cf 5c 3c 23 82 fa bb cd 56 20 3b 87 0a f1 bb
       0.013477293 -0.007644908 0.00244658 -0.0073559913
0000d0 2c f3 25 3d e3 e2 8f 3b ad 6a fb 3b 42 f5 c3 3a
       0.04051511 0.0043910607 0.007672629 0.0014950412
0000e0 03 64 44 3a de 9b 1d 3c ab f2 aa 3b e7 c4 9f 3d
       0.00074917095 0.009619681 0.0052169166 0.07801228
0000f0 25 66 1f 3d e5 34 80 3d 40 41 76 bc c8 bb 18 3c
       0.038915772 0.06260089 -0.015030205 0.009322114
000100 9d 1d 80 3c 29 cd 62 3d 39 f2 f7 3c 4f 75 8c bc
       0.01563912 0.055371437 0.030266868 -0.01714578
000110 48 12 9f 3a d4 cf 25 3c 09 60 9e 3c 53 61 60 3d
       0.0012136186 0.010120351 0.019332903 0.054780316
000120 ee fe 4a 3d 8b 57 07 3d 85 71 77 bb bc 6e e6 3c
       0.049559526 0.03304247 -0.0037756872 0.028128974
000130 69 9a 32 3d 6f 54 86 3d 3a 03 7e bc db 0b 94 39
       0.04360429 0.06559073 -0.015503699 0.00028237593
000140 81 ff 10 3c 14 6f 75 bc 5d 5c 3e 3d 06 e5 c8 bb
       0.008849979 -0.014980096 0.046474803 -0.0061308173
000150 44 46 dd 3c 12 8d e0 bc fd 62 69 3c 5f 5d 4e 3c
       0.027011044 -0.027411018 0.014244792 0.012595504
000160 38 73 7f bc c6 46 c4 3b 9d 72 19 3b 8d 08 20 3d
       -0.015591435 0.005989882 0.0023414262 0.039070655
000170 95 69 e0 3b a5 ea 37 3d 95 5b af bc 74 a9 2c 3b
       0.006848524 0.04490151 -0.021405974 0.002634612
000180 10 20 b1 3d 99 c8 11 bd 8a 1c cb 3c d0 ca b6 3c
       0.086486936 -0.035591695 0.024793882 0.022313505
000190 fb 53 3d 3d 26 ac e5 3c bf e4 ce 3c f2 5f 1a 3d
       0.04622267 0.028036188 0.025255559 0.037689157
0001a0 24 f0 1b 3c 0a bc 8f 3c 24 04 40 3c da aa cb bc
       0.009517703 0.017545719 0.011719737 -0.024861742
0001b0 ef 74 35 bc 61 59 00 3d 42 a6 10 3d 17 8b 79 3d
       -0.011075242 0.03133524 0.035314806 0.060923662
0001c0 ae 9e 14 3d 2b 99 9a 3c 25 ee b6 bc 40 61 f1 3c
       0.03628414 0.018871864 -0.022330353 0.029465318
0001d0 86 10 6f 3c 98 a3 29 3c 85 d1 0a 3c 9d 5c 3b bc
       0.014591342 0.010353945 0.008472805 -0.011435655
0001e0 d4 8c a6 bc f1 37 82 3c c7 60 55 3d 2c 62 48 bd
       -0.020330824 0.015895816 0.052094247 -0.04892175
0001f0 c4 83 a0 3d 23 a1 1d 3c ad c1 11 bd be 4b 94 3c
       0.07837632 0.0096209375 -0.035585094 0.018102523

weight f4 [128, 38]
000000 74 2c 69 3e 84 ac b5 3d 85 f5 d8 3d 00 42 32 bc
       0.22770864 0.08870795 0.10593704 -0.010879993
000010 74 e8 8a bd 4c 38 1c be 7f 78 5d bd 36 2a 28 3d
       -0.06782618 -0.1525585 -0.054069992 0.04105588
000020 c7 f1 fc 3c a3 e5 b4 3d b8 70 01 bc a8 49 91 bb
       0.030877007 0.08832862 -0.007900409 -0.0044338293
000030 b1 bb cc 3b b7 73 c2 3b 0b 4c 52 3d e2 2c 6b 3e
       0.0062479605 0.0059342044 0.05134205 0.2296634
000040 90 8f 18 3d ff 56 20 3b ba 6c 84 3d 5f a4 7a 3c
       0.037246287 0.0024465916 0.064660504 0.015297978
000050 11 08 26 3e 7e 3d fc bd 85 f3 9c bb b9 93 96 ba
       0.16214015 -0.12316416 -0.004789772 -0.0011488117
000060 c4 92 18 ba 0b 0a 93 3d 82 d4 00 00 c8 36 20 be
       -0.00058202096 0.0717965 7.6233e-41 -0.15645897
000070 9f 2c e4 3d bb 0d 7c 3c d7 ce 81 bb 00 75 48 bc
       0.11141323 0.015384133 -0.003961425 -0.012234926
000080 3f 2b 01 80 a5 7c 3d bd 74 be 6a 3c d3 66 c4 bb
       -1.07349e-40 -0.04626145 0.014327634 -0.005993703
000090 39 d6 e7 3b 16 4a 2e 3a 44 40 2f 3e 5b 88 b1 bc
       0.007075098 0.0006648613 0.17114359 -0.021671465
0000a0 87 88 e6 bd e9 5b 6f bc 6d ad f6 3d 0b 83 4b 3c
       -0.11256509 -0.014609315 0.12044797 0.01242138
0000b0 65 6a 06 be d3 90 0c be ed 20 4c bd a0 37 b8 3d
       -0.13126524 -0.13727121 -0.049836088 0.089949846
0000c0 a1 f1 32 be 36 a0 78 bc 41 f6 85 3d e6 93 fa 39
       -0.17474987 -0.015174916 0.0654111 0.0004779391
0000d0 74 38 89 3b ce 92 3b 3d bf 8f a4 bc e1 73 e3 bb
       0.004187638 0.0457943 -0.020088075 -0.006941304
0000e0 77 b8 f4 3c f8 bb 49 bd 62 31 4f 3e 61 3b 36 3e
       0.029873116 -0.049251527 0.20233682 0.17796089
0000f0 6b 84 f7 3c c8 5b c8 bb 98 bd 83 bb 94 2c 95 3c
       0.030214509 -0.006114457 -0.004020404 0.018209733
000100 38 e4 00 00 d3 f5 55 be 49 20 71 bd 34 b3 c3 3b
       8.187e-41 -0.20894556 -0.05886868 0.0059722904
000110 64 64 bd bb 8c 0a bf bb 60 54 00 80 04 ff e6 3c
       -0.0057797898 -0.0058301147 -3.0268e-41 0.028197773
000120 59 d1 17 3d 0e 3f 32 3c 6c 87 22 3d cc 03 51 3d
       0.037064884 0.010879291 0.03967993 0.05102901
000130 d2 c6 21 3e 88 55 a1 bb f0 f8 c5 bd 93 bb a4 bc
       0.157985 -0.004923526 -0.09666622 -0.020108974
000140 d5 36 8a bc f7 bd 4d bd 82 8e de 3d 83 ce 2b 3e
       -0.01687185 -0.050229993 0.10867025 0.16777997
000150 7b cb bd bb fd 06 bf bc 9f cc 18 bd de c3 06 bd
       -0.005792079 -0.023318762 -0.037304517 -0.032901637
000160 a4 0e 56 3d d1 8f a8 3b 73 f7 b1 3c eb 54 8f 3c
       0.052260056 0.0051440974 0.021724438 0.017496547
000170 77 b9 ac bc 3b a6 49 bb 50 d8 57 3b 6d 44 dc bc
       -0.02108453 -0.0030769247 0.0032935329 -0.026888097
000180 40 56 f2 3b 17 cf 92 3d 36 da 0c bc fd d0 a5 bb
       0.0073955357 0.071684055 -0.008596947 -0.0050603137
000190 34 c8 80 bb 50 0f b2 bc 7e 7c 00 00 af 3a ce bc
       -0.003930116 -0.021735817 4.466e-41 -0.025174467
0001a0 44 8c 14 3d 85 1d 06 3d 25 af 1f bc fc f4 9a ba
       0.03626658 0.032742996 -0.009746348 -0.0011822279
0001b0 2f 3d 00 80 dd 2f a3 3c 07 82 35 3d 96 d2 33 ba
       -2.1949e-41 0.019920284 0.044313457 -0.0006859688
0001c0 df 07 7c 3d 1c 07 95 3d ea 44 3f 3e f2 0b d5 bc
       0.061530944 0.07276747 0.18678632 -0.026006673
0001d0 e9 ce 80 bd f2 83 d9 3d fa 56 52 bd f1 37 82 3e
       -0.06289465 0.1062087 -0.05135248 0.25433305
0001e0 d8 2b 35 3d 84 78 8b 3d ad 8a 43 3b 94 d2 fc 3d
       0.044231266 0.06810096 0.0029837296 0.12344852
0001f0 87 0a 02 bd 51 57 1f bd fc 8c 8f 3d 32 cf 19 bc
       -0.03174832 -0.03890163 0.070093125 -0.009387778
000200 c7 ee d5 bc 6a 2c 19 3c cf 5b 2d bd 9e 8e 78 bb
       -0.026114834 0.009348968 -0.042323884 -0.0037926803
000210 f0 93 77 3b 57 9c 37 bd 84 7a be 3c af ed d2 38
       0.0037777387 -0.04482683 0.02325178 0.00010057852
000220 df 5c 06 bd 90 a0 35 bc d7 a9 0e bc e7 e2 f3 bc
       -0.032803413 -0.011085644 -0.008707485 -0.029771281
000230 c4 e4 00 00 9d 10 0d bd 16 3d 5d bb 0b ff e4 3d
       8.2066e-41 -0.03443967 -0.0033758334 0.11181458
000240 e7 c3 75 bc f8 80 0d 3c 08 32 01 80 f1 c5 14 bb
       -0.01500032 0.008636706 -1.09783e-40 -0.002270099
000250 e3 65 ad bc 51 1d 1e bc af ec 7b bb a8 8c 6e ba
       -0.021166747 -0.009650544 -0.0038440635 -0.0009099939
000260 77 ee 37 bd 2d 3c 03 be 12 30 0c 3e ab c2 50 3b
       -0.044905152 -0.12815924 0.13690212 0.0031854312
000270 e6 fb 06 bc b8 c2 85 bc b4 e7 bc bd 68 21 0a bd
       -0.008238768 -0.0163282 -0.09223881 -0.033723265
000280 2e cf a3 bc cf c0 93 3d c0 fd a0 bc 6a 20 82 bc
       -0.019996252 0.0721451 -0.019652247 -0.015884597
000290 87 18 a9 3d df eb 86 bc bc ce 8e 3d 15 ab 90 3d
       0.08256631 -0.016469894 0.06973025 0.07063881
0002a0 84 2e d0 bc 92 d5 6d bc 6d 08 45 3d 04 4a f0 3c
       -0.025412805 -0.014516251 0.04810374 0.029332168
0002b0 a5 67 71 3d 76 84 ce 3d c5 1b 3c 3d c9 65 1c bc
       0.058936734 0.10083859 0.04592492 -0.009545752
0002c0 37 ed 05 bc 24 da 6e 3d a5 16 00 00 4d 0c 7f bd
       -0.008174232 0.058313504 8.123e-42 -0.06226759
0002d0 10 0b d0 bc da ef 45 3d 17 ab 12 bc 2b 56 82 bb
       -0.0253959 0.048324443 -0.008951924 -0.003977557
0002e0 71 24 00 00 ee 32 01 00 9e 61 ed 3c a4 10 00 80
       1.3073e-41 1.10106e-40 0.028977212 -5.97e-42
0002f0 d0 6e 0e 3d e9 e1 74 3d 3f 70 5b 3d 65 da a0 3d
       0.034773648 0.059785757 0.053573843 0.078541555
000300 6f 66 a1 be 26 5e a1 bd 2a d1 60 3d 40 4a 01 be
       -0.31523463 -0.078792855 0.054886974 -0.1262598
000310 60 49 7d 3a b0 46 16 be c4 7a 00 3b 62 de 48 3c
       0.0009662118 -0.14675403 0.0019604424 0.012260051
000320 a8 44 8f bd 90 ca 8e bc 6d 95 d5 bc 05 75 34 bd
       -0.06995517 -0.017430574 -0.026072228 -0.04405691
000330 5e a7 2f bd e8 0d 29 bd 77 bb a9 bd fb 0c 56 bd
       -0.042884223 -0.041273028 -0.08287709 -0.052258473
000340 ad e2 25 3e 24 85 18 a9 cb 21 23 3e 53 0a 00 80
       0.16199751 -3.386626e-14 0.1593086 -3.704e-42
000350 b1 85 3a 3d d5 6f 91 bc 15 8d 8a bc da 5b 2a bd
       0.045537654 -0.017753521 -0.016912976 -0.041591503
000360 75 08 00 80 8e ed 77 be 1e 9c 55 be 5e 5e f6 3d
       -3.034e-42 -0.24211714 -0.20860335 0.12029718
000370 13 a9 72 bc a7 26 1c bd 28 4c 00 80 88 1f 34 3e
       -0.014810818 -0.0381228 -2.732e-41 0.17590153
000380 c4 03 17 3e da 2d 83 3d 01 6b 38 3e f6 36 39 3e
       0.1474753 0.0640523 0.18009569 0.18087372
000390 b0 8b b8 bd 69 7b a0 bd 2a 9e fc 3d 5b 96 35 bc
       -0.09011018 -0.078360386 0.12334855 -0.011083211
0003a0 e2 bc 0b 3e 79 47 5f 3e f6 b3 30 3e 16 3e ae 3d
       0.13646272 0.21804608 0.1725615 0.08507936
0003b0 47 e0 c2 3d c1 4a 6f bc 6b a1 c4 bc b2 f0 14 af
       0.09515434 -0.014605225 -0.024002751 -1.3546034e-10
0003c0 1a 76 11 ae ed 4d ea 05 c8 8d 27 3d 6c a6 cd b8
       -3.3074078e-11 2.203388e-35 0.040906698 -9.80616e-05
0003d0 41 45 1a bd be fe 24 31 cc 43 37 3d cb 9c e0 bc
       -0.037663702 2.4009945e-09 0.04474239 -0.027418515
0003e0 7c 22 18 bd 95 a8 92 3d da 39 63 3d 76 31 f7 a5
       -0.037142262 0.07161061 0.055475093 -4.2881186e-16
0003f0 b1 5f 00 80 7d 67 b4 3c ae 74 00 80 eb 45 a2 3b
       -3.4328e-41 0.022022003 -4.1857e-41 0.0049521825

bias f4 [128]
000000 a5 50 3a 3d 20 41 6a 3d 4e e2 20 ba 85 63 05 3c
       0.045487065 0.057191014 -0.00061372377 0.008141403
000010 82 11 69 3b 70 62 87 3a ec 6e 84 3b 80 6a aa 3c
       0.0035563414 0.0010329019 0.004041543 0.020802736
000020 8c 03 be 3c 46 02 0b 3d e5 23 af bb 26 e5 9c 3c
       0.02319505 0.033937715 -0.005344855 0.019152235
000030 aa 69 1e 3d c9 46 da 3b b9 46 ff 3c 85 65 29 3d
       0.038674988 0.0066612703 0.031161653 0.041356582
000040 5e c6 52 3c 66 a8 c2 3c 5d 60 23 3d aa 30 92 3c
       0.012864677 0.02376194 0.03988682 0.01784547
000050 f5 9f d1 3c 40 f6 80 3b ab ca d0 3c 24 be 21 3d
       0.025588969 0.0039356053 0.025487265 0.039487973
000060 b6 f5 cf ba cb 2c e5 3c a9 01 c2 3c 31 2c e0 3a
       -0.0015866074 0.02797546 0.023682432 0.0017103014
000070 ba 7a 1f bd 50 04 8a 3c d4 c9 50 3b fe 71 ae 3c
       -0.0389354 0.01684776 0.003185858 0.02129459
000080 1d 7d 00 3d d0 75 15 ba 91 39 0f bc 5f 07 1d 3a
       0.031369317 -0.00057014544 -0.008741752 0.0005990173
000090 c4 eb 41 3c 5c 99 8e 3b 65 7f e7 ba c9 7f 40 bc
       0.011835996 0.004351778 -0.0017661868 -0.011749216
0000a0 4e 75 8e bb bf 75 18 bc 23 fa 33 3c 1c 43 c0 bb
       -0.00434748 -0.009305417 0.01098493 -0.005867375
0000b0 07 d6 19 3d c5 ab b6 3c 04 90 dc 3b bf 3d 23 bb
       0.037557628 0.022298703 0.006731035 -0.002490863
0000c0 ef 5b 27 3d e4 39 df 3c 0c 97 9f 3c b0 a0 dc 3c
       0.04085916 0.027249284 0.019481204 0.02693209
0000d0 6a 92 10 3b e0 23 4f bd fa 42 01 bd 3b dd de 3a
       0.0022059926 -0.050571322 -0.031558014 0.0017003188
0000e0 81 7e 18 bd 64 f8 84 3c 16 06 ef bc d0 ae a5 3c
       -0.03723002 0.016231723 -0.029177707 0.020224959
0000f0 5f 8b e7 3b 1d 0c 21 93 c7 48 fa 3c bf da 20 bc
       0.007066175 -2.032703e-27 0.030552281 -0.009817778
000100 c2 32 c1 a3 77 e3 99 b1 d9 32 fc 3b 7b 8f b3 bc
       -2.0946599e-17 -4.478746e-09 0.007696491 -0.021919003
000110 73 00 01 bc 5a 05 48 3c af 21 5f 3d 28 32 12 3d
       -0.007873642 0.012208307 0.054475483 0.035692364
000120 de 62 65 bb 71 d8 30 bb e7 42 e6 aa 3d 98 8a 3c
       -0.0035001556 -0.0026984478 -4.090263e-13 0.016918296
000130 a9 d3 f4 3c f8 98 0d 3d 38 15 f8 bb 4e 68 cc 3c
       0.029886084 0.03456971 -0.007570889 0.02495208
000140 04 4d 8d 3b 9c 7c e4 bb 8f 01 2c bc 5a 33 c4 ba
       0.0043121595 -0.0069728624 -0.0104984185 -0.0014968917
000150 a1 fc d4 3c 26 78 0f 38 b9 52 96 b1 c1 e4 87 bc
       0.02599937 3.4205754e-05 -4.374979e-09 -0.01658857
000160 4e 45 ba bb 5e e8 95 bb c9 58 6b 3d d1 6d 5b 3c
       -0.0056845313 -0.0045748195 0.05745772 0.0133928815
000170 cd 6c 15 bb 64 14 60 bc 80 4d 22 bc 52 c8 3e 3d
       -0.0022800446 -0.0136767365 -0.009906173 0.04657776
000180 ef 3f 36 3c 6a 9d c8 3c 7a 79 cd bb b2 3f c2 3c
       0.011123641 0.024489123 -0.0062705847 0.023712013
000190 4d 37 1d 3d 6c a0 4b 3c ae 19 05 a4 af 72 c6 3c
       0.038382817 0.012428384 -2.886153e-17 0.024224607
0001a0 30 54 10 3d ff 36 7e 3a 24 c6 a5 bc 14 95 4f bc
       0.035236537 0.0009697526 -0.020236082 -0.01266982
0001b0 42 00 77 bc 28 1f e9 bb e0 e3 f7 bb f7 c3 2e bb
       -0.015075745 -0.00711431 -0.0075650066 -0.0026667097
0001c0 50 c5 9c 3c 22 19 11 3d 3d 30 0e 3d 4d 5b 84 3c
       0.019137055 0.03542436 0.034713972 0.016156817
0001d0 b6 1d e9 38 a5 ea ca 3b 6d 6a 04 3c ad b2 7d bc
       0.0001111584 0.0061925226 0.0080820145 -0.015484494
0001e0 2a 46 ce bc 6f 3c 47 3b da 8a fd bb 0f d5 3c b9
       -0.025179941 0.0030401011 -0.0077374997 -0.00018008448
0001f0 4e 13 5d 3b 8f 63 3e bd ed 91 bd 3c 77 70 c7 3c
       0.003373343 -0.046481665 0.023140872 0.02434562

weight f4 [128, 128]
000000 3f 3a e0 3d d2 ca 7f 3c 15 af 3c 3d 53 de d2 bc
       0.109486096 0.015612321 0.04606541 -0.025740778
000010 5f 77 88 bd 5d 76 5d bd ea 82 05 3a b4 00 ad 3d
       -0.06663393 -0.05406796 0.0005093055 0.084474
000020 7c 13 cf 3c a2 10 fa 3c 01 2e f5 3c 68 2f b1 3d
       0.025277846 0.03052551 0.029929163 0.0865162
000030 e0 94 fc bb 28 32 da 3d 71 36 33 bd ce 5b a7 bc
       -0.007708177 0.10654098 -0.04375309 -0.020429518
000040 2a 30 8f 3c 9f 34 21 3d 84 1c ea 3b d9 6d 7e 3c
       0.017479021 0.039356824 0.0071445126 0.015529119
000050 d8 17 0e 3d b7 02 c6 3b 1d f9 05 bd ef ec e8 bc
       0.034690708 0.006042804 -0.032708276 -0.028433291
000060 7b 09 07 bd cb 28 7c 3c 5f 84 8b 3d 68 13 b2 bc
       -0.032968026 0.015390585 0.06812357 -0.02173777
000070 bc 7b d6 bc 9e b4 75 bd 47 de e5 bc dd 24 a4 bb
       -0.026182048 -0.059986703 -0.028060092 -0.0050092773
000080 7b fb bd bc 24 11 73 3d 0f 93 ad 3d aa 00 e6 3c
       -0.023191204 0.05934252 0.08475315 0.028076489
000090 41 3a fe 3d d1 4b 1f bd 89 a0 0f bd d3 ab 9d bc
       0.12413455 -0.038890664 -0.035065208 -0.019246971
0000a0 0d 71 9d 3c 0a 97 c0 bc 01 12 65 bd 4f 2e a5 bd
       0.019218946 -0.023509521 -0.055925373 -0.08065473
0000b0 1d bb 1d 3e e3 cc 0e 3d e2 54 a9 3d 00 93 fd 39
       0.1540341 0.034863364 0.08268143 0.00048365444
0000c0 f6 ca 98 3b 12 d0 8e bd 10 6c 52 bd fb 10 1a bd
       0.0046628667 -0.0697328 -0.051372588 -0.03761385
0000d0 5b 7a a4 bd ad 7e 1d 3d 51 5b 92 3b 69 af 9c bd
       -0.0803115 0.038450886 0.004466452 -0.07650644
0000e0 b4 82 e9 3b 74 1f 88 bc 9d d5 12 bd 39 16 98 3d
       0.0071261767 -0.01661656 -0.03584825 0.07426114
0000f0 3d 6f 12 be f9 58 9b 3d ec 5b 82 bd 15 bc 55 3d
       -0.14300247 0.075853296 -0.06365189 0.052181322
000100 96 f3 af bc c6 1d 9e bd 5d e4 69 bd 35 2c 8b 3d
       -0.021478456 -0.077205226 -0.05710255 0.06795541
000110 56 78 f0 3c ae 02 8e 3c 3d 0a a8 3d 74 84 ce 3d
       0.029354256 0.017335262 0.08205078 0.10083857
000120 2e b2 83 bc e5 82 9a 3d 99 b0 db 3d 21 a0 11 bd
       -0.016076174 0.075444974 0.10727043 -0.0355531
000130 bb e0 84 bc 3b cc 96 bd 9f 36 a9 bc bd 9e c8 bd
       -0.016220441 -0.073631726 -0.020655928 -0.09795902
000140 9d a4 08 bd 97 dd 70 3d 96 16 90 3d af f2 3d 3d
       -0.033360112 0.058805075 0.07035558 0.04637402
000150 9a c7 e3 3c 84 22 4c 3b a7 d6 09 3e a2 83 0b be
       0.027805138 0.0031148503 0.1346079 -0.13624433
000160 4b 3c f7 3c ef 97 8d 3d d0 d3 ba bc fa 15 b3 3c
       0.030180117 0.06913745 -0.022806078 0.021861065
000170 28 c7 76 3d 14 7d ab 3d 01 1a 16 3d 82 85 3b bd
       0.060248524 0.08373466 0.036645893 -0.04578162
000180 36 be 71 bd c7 a9 d2 3d 8b ff 01 3e b6 fc d9 bc
       -0.05901929 0.10286289 0.12695138 -0.02660976
000190 91 a6 d8 bd 61 6e 03 3e d5 41 79 3d b3 f1 d0 3d
       -0.10578645 0.12835075 0.060853798 0.102023505
0001a0 b2 e3 b2 bc ac 78 f8 3d 7e 71 af 3c 64 bf 01 bd
       -0.02183709 0.12132391 0.021416422 -0.031676665
0001b0 0c 11 9b 3d ed de 2a bd 78 cb f1 3d a2 2e 11 3e
       0.07571611 -0.041716505 0.11806387 0.14177945
0001c0 b4 50 1f bd 69 1f bf 3d 03 74 90 3c d3 ea fe 3d
       -0.038895324 0.09332163 0.017633444 0.12447133
0001d0 5a b3 5f 3d e9 43 e5 3c 1c 90 e9 3c ab 92 75 3d
       0.054614402 0.027986484 0.0285111 0.059954327
0001e0 49 93 5c bc 42 e2 d1 3d 3f d7 13 3d 09 55 f4 bc
       -0.01346285 0.102482334 0.036093947 -0.029825704
0001f0 99 cf c7 3d 3b 7c ee bd e6 86 2d bd 0e 4d fc bc
       0.09756393 -0.11644789 -0.042364977 -0.030798461
000200 b7 cd 5b bd 46 d6 41 bd 3b f0 66 bd 18 1b fb bd
       -0.05366298 -0.047323488 -0.056381445 -0.12261027
000210 d0 2f 62 be 1b fc 12 bd 09 a7 08 be 29 00 fd 3c
       -0.22088552 -0.035884958 -0.13344969 0.030883865
000220 9f c4 4a 3c d0 06 bc 3d f2 b2 68 bd 97 02 6e be
       0.01237598 0.09180987 -0.05681128 -0.23243175
000230 0c d8 f1 3c 1d 7a 9f 3d 71 48 d9 bd 80 c6 a5 3c
       0.029521964 0.07786963 -0.1060952 0.020236254
000240 ae 4f 17 be 3e a3 76 be ce 54 4a 3d cc 78 9b 3d
       -0.14776489 -0.2408571 0.049397282 0.075913996
000250 17 16 f5 3b bf bd 87 bd 69 37 d8 3c 31 b8 45 bc
       0.00747944 -0.06627988 0.02639361 -0.01206784
000260 47 be 91 3b 2c 65 83 3d c7 e3 db b8 81 fe 64 3d
       0.0044477317 0.064157814 -0.000104851606 0.055906776
000270 d1 bc 29 3d 23 68 53 3d d3 e8 3e 3d 5a d1 b5 bc
       0.041439835 0.051612984 0.046608757 -0.022194553
000280 0f 4a 43 3c be 1e 4c bc 88 4d e9 bc 7c e9 82 3d
       0.011919512 -0.012458501 -0.028479353 0.0639219
000290 a3 eb 0a 3c ff 4f 9b bc 4c ad a6 bc b6 69 ca bd
       0.008479032 -0.018959044 -0.020346306 -0.09883444
0002a0 69 ab d6 bc 49 c8 63 3d b2 6e 9c be 1f bb 62 bd
       -0.026204782 0.05561093 -0.30553204 -0.055354234
0002b0 4b d1 9c 3d 2a 81 2b 3d 79 4d 36 3d ae 58 91 bc
       0.07657107 0.041871227 0.044507477 -0.017742481
0002c0 db bc da bd f1 ad 29 be aa d4 11 bd 22 3f 35 be
       -0.106805526 -0.1657026 -0.035603203 -0.17699865
0002d0 91 62 65 be 38 2e 3e bd 88 1a c8 bd c8 45 6f 3d
       -0.22400881 -0.046430796 -0.097706854 0.058416158
0002e0 27 46 ab be fa 1a 1b bc f1 1a 16 3c e9 d1 f0 bd
       -0.3345196 -0.009466881 0.009161697 -0.11758787
0002f0 83 4a 43 bd 65 78 1a 3c ea e9 74 be 14 26 3b bd
       -0.04767848 0.009428118 -0.23917356 -0.04569061
000300 53 40 06 bd e9 96 4b 3d c7 71 45 3d 23 a8 7b 3b
       -0.032776188 0.049704466 0.04820421 0.0038399778
000310 28 16 bd 3c 85 5d 9d be 4e 9c 38 bd 2f 60 f8 3d
       0.023081854 -0.30735412 -0.04507094 0.121277206
000320 9d 40 7d 3d a0 7d 2a 3c 83 13 14 be 4e 33 9c bd
       0.0618292 0.010405928 -0.14460568 -0.07626973
000330 61 97 4c bd 4e b3 d6 3b d5 0c 2c 3d 42 96 b5 bd
       -0.049949054 0.0065521365 0.042004425 -0.0886655
000340 9b 32 13 3e 09 18 31 be 81 48 bb bc 7e f5 05 be
       0.14374773 -0.17294325 -0.022861721 -0.13081929
000350 aa 40 62 bd 55 89 72 3d 15 f1 a5 b8 9e 97 fb bd
       -0.05523745 0.059213 -7.912718e-05 -0.12284778
000360 95 98 54 be 5e 7b 90 3d be 6e 52 3d 67 a6 0d 3d
       -0.2076133 0.070547804 0.051375143 0.03458252
000370 5c 09 bd bd 2e 2c 13 3e 19 dd e1 3c f6 30 61 bd
       -0.09230301 0.14372322 0.027571248 -0.054978333
000380 fd 8a 47 bd 46 57 fd bd 55 70 59 3c fd 94 6b bd
       -0.048716534 -0.12370162 0.013271411 -0.057515133
000390 e0 15 e6 bd 83 98 b5 bd 34 d9 0f 3d 09 d3 f0 bb
       -0.11234641 -0.0886698 0.03511925 -0.007349376
0003a0 ae c7 bf bd 4b 87 1d be 75 34 55 be 3c 15 37 bc
       -0.09364258 -0.15383641 -0.20820792 -0.011174496
0003b0 3a da b6 bd e2 1c ff 38 7a 82 ff 3d 0e dd 16 3a
       -0.08928342 0.000121647274 0.12476058 0.00057549856
0003c0 e6 e8 e6 bd de 8f 43 bd e3 b6 b0 bb 13 09 c4 3d
       -0.112748906 -0.047744624 -0.0053928955 0.09572043
0003d0 1b d3 ee 3c df 47 ff bd 2a b4 07 3e 81 54 90 be
       0.029153397 -0.1246488 0.13252321 -0.2818947
0003e0 c2 92 dc 3c a4 30 28 bd 2b 0a 85 bd 8b 3e 21 bd
       0.026925448 -0.041062012 -0.0649608 -0.039366286
0003f0 5d 37 92 3e c0 75 fb bd 96 6b 6e 3c ff 2f 2a bd
       0.28557864 -0.122783184 0.014552018 -0.04154968

bias f4 [128]
000000 6c 70 ff bb c1 dc 97 3c 5a cb 2e b5 2e a6 2d bd
       -0.007795384 0.01853788 -6.5115967e-07 -0.04239481
000010 b5 a4 f0 bb eb 8f 86 b8 c5 53 1a 3b 82 be 09 3d
       -0.0073438534 -6.416425e-05 0.0023548466 0.033628948
000020 8e 08 62 3d f4 c5 66 bd 87 83 e8 b9 02 26 1e a8
       0.05518394 -0.056341127 -0.00044348484 -8.7790035e-15
000030 f7 71 ba 3d cf fa 6f 3c f7 6c bf ba dc 3f a7 bb
       0.09103768 0.0146472 -0.0014604618 -0.005104048
000040 2e 70 04 b3 c8 d6 86 bc 47 76 1b bc 29 3e 17 bc
       -3.0835672e-08 -0.016459838 -0.009488649 -0.009231129
000050 2e 71 fb b3 46 59 66 a4 de 22 c4 3c 15 fd f7 bb
       -1.17086856e-07 -4.9948917e-17 0.023942407 -0.0075680115
000060 72 8f 96 3d 10 d4 df b0 ec e9 b2 ba 98 b6 3a 3c
       0.07351579 -1.6285657e-09 -0.0013650036 0.011396073
000070 06 74 18 b2 be e2 1a 3d 6a 15 cf bb 3f 93 52 3c
       -8.873945e-09 0.037813894 -0.0063196914 0.012852489
000080 0e 37 1e 9c 2d 9a 66 b4 bf fa 7f 3a df 7b ce bc
       -5.234897e-22 -2.1476508e-07 0.0009764842 -0.02520555
000090 b5 f1 90 a2 d6 84 7e 3b 86 41 1a bd 6b cb b8 3c
       -3.9287195e-18 0.00388365 -0.037660144 0.022557935
0000a0 f5 2b fb 3c da d1 49 3d 0e 6e e9 bb e2 03 9a bb
       0.030660609 0.049272396 -0.0071237152 -0.00470017
0000b0 a8 79 94 a6 2d 21 54 bb a3 45 4c bc d1 9e b2 bc
       -1.0302538e-15 -0.0032368407 -0.012467775 -0.021804245
0000c0 f9 ca 88 3c b7 f5 af 93 3b df bb bc 3f 74 0f ba
       0.016698347 -4.4418504e-27 -0.022933593 -0.0005472339
0000d0 a0 0e b2 3c 65 df cd bc 20 f3 e6 b8 8e db 8a 3d
       0.02173549 -0.025130937 -0.0001101254 0.06780158
0000e0 cd b5 77 3c 99 85 03 3d 3b 0a 9a 3b 13 39 91 ba
       0.015119028 0.03210983 0.0047009266 -0.0011079632
0000f0 e1 a8 d2 3c 71 4b 2f bc 82 79 45 3d 9c 3b 3f 3d
       0.025715293 -0.010699139 0.048211582 0.046687707
000100 99 56 df 3c 6f e6 af bc fd fd 4b 3b b2 b8 00 a6
       0.027262973 -0.021472184 0.003112673 -4.465923e-16
000110 cf e4 b1 b5 7f 4f a9 9a 8e e3 88 3a cf 01 a9 bc
       -1.325412e-06 -7.0025195e-23 0.0010443793 -0.020630745
000120 bd bc d3 ba 6f 7b 66 3d c7 3c e4 3c 96 31 1d bc
       -0.0016154271 0.05627006 0.027861012 -0.009594342
000130 9c e1 c6 a6 61 8d 06 3d 97 dd 90 3c a6 f9 37 3d
       -1.3800161e-15 0.032849673 0.017683787 0.044915818
000140 9e 75 72 bc 80 55 8b 3c a3 85 5d bc 6e 0c d7 3c
       -0.01479855 0.017008543 -0.013520631 0.026251044
000150 2d 9f 8a bd a9 3f 3d 3c 98 e7 56 9f 9e dd 79 3d
       -0.067686416 0.011550822 -4.5507833e-20 0.061002366
000160 c3 8e 1f 3d e5 34 23 bc f3 b4 30 3d 8a 18 40 bc
       0.038954508 -0.0099613415 0.043141317 -0.011724601
000170 1f ba 1a 3d 01 af bc bc 79 f6 22 ba 11 27 11 3d
       0.037775155 -0.023032667 -0.0006216537 0.035437647
000180 9d ff a7 b8 2a 04 8a bc 61 61 07 ab f8 94 42 3d
       -8.010792e-05 -0.016847689 -4.8096775e-13 0.04750535
000190 bf db db bc a1 ff d5 3c c5 ad 8c ac da da 62 3c
       -0.026838182 0.02612287 -3.9983316e-12 0.013846124
0001a0 5e 87 d8 3c de 9c 44 ba 72 66 21 b6 90 20 af 3c
       0.026431736 -0.00075001817 -2.40505e-06 0.021377832
0001b0 36 d5 b3 bc 26 81 c5 b1 4b cc 90 b1 b1 e1 be a2
       -0.021952253 -5.748137e-09 -4.214177e-09 -5.1738563e-18
0001c0 a7 19 cd ba 0a 9d 06 bc d3 15 ee bb 46 c8 12 bc
       -0.0015647904 -0.008216152 -0.0072657852 -0.008958882
0001d0 3b 58 a2 bb 97 28 8d bb 30 2d ff bb 30 a4 2a bb
       -0.0049543655 -0.004307817 -0.007787369 -0.0026037805
0001e0 c7 c7 28 3d 1a d1 18 3d e1 10 91 bd f9 06 11 3d
       0.041206148 0.03730879 -0.070832975 0.03540704
0001f0 59 17 0b bb cd 2f c6 bc e9 28 5e 3d 59 a0 a4 a2
       -0.0021223633 -0.024192715 0.054238234 -4.4622064e-18

weight f4 [128, 128]
000000 48 57 da bc 9e e3 7a 3d 3b 66 15 bd 63 19 f1 bc
       -0.026652947 0.06125223 -0.036474448 -0.02943105
000010 1c 30 a2 3d 00 27 90 3c 7e 58 62 3b bd ff 85 3d
       0.079193324 0.017596722 0.0034537609 0.06542919
000020 4c 21 0a 3d c4 ca 4c 3c 79 56 41 bd c4 db 59 bd
       0.03372316 0.012499515 -0.047201607 -0.0531881
000030 be 1d ab bd e7 12 e9 3c 84 04 4f 3c ed be b4 ba
       -0.08355282 0.028451396 0.012635354 -0.001378981
000040 d9 f5 b4 3c 8b c4 ae bc 84 30 5e bd ad d4 fe bd
       0.022089886 -0.021333953 -0.054245487 -0.124429084
000050 8c 85 35 3d 09 a7 c6 3d eb 7f 78 3d ae f8 03 3d
       0.044316813 0.09699828 0.060668867 0.03221958
000060 36 83 f2 a4 ac f8 ef 3d 0a 6b ac 3c 7c a3 8a bd
       -1.0517305e-16 0.11717352 0.021047134 -0.067694634
000070 43 3b 96 3c 12 e9 01 3d 08 e7 49 bd 48 99 07 3e
       0.018338805 0.031716414 -0.049292594 0.13242066
000080 f2 d4 03 bd 94 10 22 bd c9 26 65 3c cf 5e 61 bc
       -0.032185502 -0.03956659 0.013986298 -0.013755514
000090 cb 4e c5 3c fb e9 27 3d 75 d3 00 00 62 34 23 3c
       0.024085423 0.040994626 7.5856e-41 0.0099612195
0000a0 b7 7c 02 3d 77 94 33 bd 40 b9 79 3d 91 ae 4b b0
       0.03185722 -0.04384276 0.060967684 -7.4099044e-10
0000b0 26 59 07 3d b2 1d 91 bd 8a 20 35 bd 20 e8 df 3c
       0.033044003 -0.07085742 -0.044220485 0.027332366
0000c0 f3 7c cd bc a4 a3 56 bd 3c 96 35 3c ac 54 5b 3d
       -0.025083994 -0.052402154 0.011083182 0.053547546
0000d0 dc 64 83 3d 54 a9 a7 3d 14 fe 43 bc da 1d 39 3d
       0.06415722 0.08186594 -0.011962432 0.045194484
0000e0 5f 19 62 3d 48 d2 03 3d c3 84 07 3d 66 85 8d 3c
       0.055199977 0.03218296 0.033085596 0.017275523
0000f0 a9 58 63 3d 76 ec 01 80 ac 39 a2 bd 60 e2 02 3e
       0.055504475 -1.76662e-40 -0.07921156 0.12781668
000100 f9 10 01 80 ed 15 01 80 b3 32 d4 3d 78 7a 04 3d
       -9.7924e-41 -9.9701e-41 0.103612326 0.032343358
000110 42 45 40 3c d4 6c 27 3d 1b a2 66 bd e2 25 20 bd
       0.011735262 0.04087527 -0.05630694 -0.039098628
000120 3a 4e cd 3d 13 fe e9 3c 6f 0a 80 a7 d3 73 19 3d
       0.10024686 0.028563535 -3.553845e-15 0.037463974
000130 ae 5d 19 bd 45 71 85 bd 0c ae 9e bc e9 a4 c1 3c
       -0.037442856 -0.06515745 -0.019370101 0.023638206
000140 cc b0 b4 3d f7 53 29 3d c2 a0 b7 bd 69 dc 00 3c
       0.08822784 0.04133984 -0.08966209 0.00786505
000150 42 55 88 3d 77 a9 07 3d bd 21 01 80 26 70 4d 3c
       0.06656887 0.0331206 -1.03939e-40 0.012538945
000160 00 66 af 3d 08 5b 96 3c 9f 29 32 bd 2e 3b c2 3c
       0.08564377 0.018353954 -0.043496724 0.02370986
000170 04 7c 81 bd 72 ac 2e 3c 22 1c 33 3d df b5 c0 3d
       -0.06322482 0.010661231 0.043728 0.09409689
000180 1c 1f b0 3b 9b 9f 41 be ed 62 c9 3d 5c 06 3a 3b
       0.0053748023 -0.18908541 0.09833322 0.0028385138
000190 92 2f 21 3d da 28 ce 3c 19 52 00 00 a2 2b 51 bc
       0.039352007 0.025165964 2.9451e-41 -0.0127667505
0001a0 7a de 80 bc 99 af 30 3d a6 26 20 bd 73 35 45 bd
       -0.015731085 0.043136213 -0.039099358 -0.048146676
0001b0 35 27 8a bb f9 e0 29 3c 4b 00 83 bd a7 e8 9c 3d
       -0.0042160996 0.010368579 -0.0639654 0.076615624
0001c0 f5 57 62 3d 41 28 8a bb 90 76 fa bc 0e 95 19 bb
       0.055259664 -0.0042162244 -0.030574113 -0.002343479
0001d0 08 db 8a 3d b2 07 09 3d 86 c6 5e 3d 73 d6 be 3d
       0.06780058 0.033454604 0.054388545 0.09318247
0001e0 95 ea 70 3d 08 87 32 3d 5f 2c 1e bb 6a 85 00 00
       0.058817465 0.043585807 -0.0024135334 4.786e-41
0001f0 ec e2 df bc 8f 52 e1 ba 23 1e ae bc e1 b2 b0 bd
       -0.027329884 -0.0017190742 -0.021254605 -0.086278684
000200 0e ef 4e 3d d9 a7 68 bd 8a e6 d4 3b db 5c 82 3d
       0.05052095 -0.056800697 0.006497209 0.06365367
000210 f5 d2 9c 3a c4 6b e4 3c fb 08 b1 3d ed f7 4b 3d
       0.0011964726 0.027883418 0.08644291 0.049796987
000220 97 10 ce 3c 0d 8b 2d bd 81 a1 70 bd ac c8 b3 bd
       0.025154395 -0.042368937 -0.058747772 -0.087785095
000230 2a 0d 96 3c dc 67 bc 3d eb e3 99 bd 84 91 15 bd
       0.018316824 0.09199497 -0.07514175 -0.036515728
000240 e3 df fd bd be f3 25 3c 1a 3f 47 bd 29 bd 9f bd
       -0.12396219 0.010128913 -0.048644163 -0.07799751
000250 36 ef 9b 3c 10 6f 87 3d a6 1c b3 3d 39 f7 af bd
       0.019034963 0.0661298 0.08745699 -0.08592076
000260 0f d1 e7 80 ed 37 e3 3d 4c 65 52 3d 89 46 b7 bd
       -2.1288996e-38 0.11094651 0.051366135 -0.089490004
000270 7a b2 c7 bc e2 5f 25 3d c5 86 f7 3b 8e 38 cb 3d
       -0.024377096 0.040374644 0.0075539076 0.09922896
000280 6f c7 1d 3b 56 d9 63 bd b2 d7 5b bd e3 7c 21 3b
       0.002407517 -0.05562719 -0.0536725 0.0024641089
000290 6e 0d e1 bd f3 46 79 bd 57 09 00 80 55 c2 e0 bc
       -0.1098889 -0.060858678 -3.35e-42 -0.027436415
0002a0 35 7a ab 3c 65 33 98 3c 8e 7c 75 3d 8a 79 27 b0
       0.020932296 0.018579194 0.059933238 -6.0926963e-10
0002b0 8e 9e 37 3d a7 41 00 be 17 7b 0e bd 49 4f eb bb
       0.044828944 -0.12525044 -0.034785356 -0.0071810824
0002c0 43 fe 1f 3d 77 8d 10 3c 8b 77 a0 3c 43 f8 f0 3c
       0.039060842 0.00882279 0.019588253 0.029415255
0002d0 19 ba 9f bb 80 f1 06 bd 09 cc a3 bd 9f b5 12 3c
       -0.0048744795 -0.032945156 -0.07997901 0.008954435
0002e0 2a 31 b5 bc cb a4 ba 3d 7d 5c 8e 3c ac fa 5a 3d
       -0.02211817 0.09113463 0.017378086 0.053461716
0002f0 f6 d9 a3 3d 5c 29 00 80 f0 d1 31 bd 6a e9 34 bd
       0.08000557 -1.4837e-41 -0.043413103 -0.044167913
000300 5a fe 00 00 32 94 00 80 6b 31 58 3c 96 1a 6b 3d
       9.1244e-41 -5.3162e-41 0.013195376 0.0573984
000310 cb 8b 88 3d 4b b9 a6 bd 12 c6 e5 3c b0 97 a1 bd
       0.066672884 -0.081408106 0.028048549 -0.0789026
000320 b9 ef 75 3c 83 51 3c ba 41 d2 d0 26 e9 58 6f 3d
       0.015010768 -0.0007183777 1.4489889e-15 0.0584344
000330 dd d0 a2 bd 2c be dd bd dc 49 f5 bc bb 57 f1 bd
       -0.07949994 -0.10827288 -0.029942445 -0.117843114
000340 ec 1a d3 3c f7 3c 82 3d b0 0f e3 bd 9e f2 30 3d
       0.025769673 0.06359284 -0.110869765 0.043200128
000350 b0 7e 03 3c 76 45 c8 3b 17 75 00 00 6f 57 17 bc
       0.00802581 0.006111796 4.2004e-41 -0.009237154
000360 21 3a af 3d 1e cd 6b 3d 6f db 16 3d 13 d5 71 3b
       0.08556009 0.057568662 0.036830362 0.0036900684
000370 67 f2 76 bd 3f f2 af 3c bc 11 8b 3d 1d b5 d7 3d
       -0.060289767 0.021477817 0.06790492 0.105325915
000380 9f a1 a5 bd 3a 31 60 be 69 6a ad 3d 4c 2c f1 bd
       -0.080874674 -0.21893778 0.08467562 -0.11776027
000390 26 b5 a4 3d 5f 28 24 bd a2 d9 00 00 04 0d 41 3c
       0.08042364 -0.040077563 7.8072e-41 0.011782888
0003a0 9b d6 e1 3d 94 8f 40 3d 71 89 1b bd 8d 0c 1d 3d
       0.11027261 0.047011927 -0.03797287 0.038342047
0003b0 02 4b 07 3e 47 8c 1d 3d d8 6e 9b bd 20 28 1a 3d
       0.13212207 0.038463857 -0.07589501 0.037635922
0003c0 e4 01 02 bd 52 2c f1 bd 77 fe e9 bd 97 67 b3 3c
       -0.031740084 -0.117760316 -0.114254884 0.021899981
0003d0 c4 7d 46 bd d9 34 d0 3d e4 b2 5c 3d b5 fd af bd
       -0.048459783 0.1016633 0.05388154 -0.08593313
0003e0 db 2c a5 3c 58 d0 8e 3d 2c 2f 40 ba 34 f3 00 80
       0.02016299 0.06973332 -0.0007331248 -8.7245e-41
0003f0 60 fb c1 3d ad 9d 8c bd 96 1d d2 3c 5a 4f 65 bd
       0.09471774 -0.06866012 0.025648873 -0.05598388

weight f4 [1, 384]
000000 c6 3c 6a bc 39 03 fd 3d 3a df 71 bd 3b f3 9f 3d
       -0.014296716 0.1235413 -0.059050776 0.078100644
000010 44 bf 26 bd 54 29 75 3d 6f 08 ac 3d d3 86 0f 3e
       -0.04070975 0.059853867 0.08400046 0.14016275
000020 39 d9 5f be dc c2 bd 3d f3 1e 6e bd c3 6b d6 bd
       -0.21860208 0.09265682 -0.058134984 -0.10469773
000030 53 59 eb 3d 58 52 a7 3d b6 18 ba bd 2c f7 09 3e
       0.114916466 0.08170003 -0.090867445 0.13473195
000040 11 43 f8 bd 11 69 28 3d 1b 90 d3 3d 80 a4 8a 3e
       -0.12122167 0.041115824 0.1033022 0.2707863
000050 89 40 43 3d ef 8f 44 bd 99 c4 87 3d eb a9 fb 3d
       0.047668967 -0.04798883 0.06629295 0.12288269
000060 94 66 0d bb 76 84 53 3e 7b a4 c5 bd 2c a7 98 bc
       -0.0021576034 0.20655999 -0.09650513 -0.018634401
000070 fb a3 f4 3d ef 3c f7 3d af 0f 43 3e 7e c7 e9 bd
       0.11945339 0.12072169 0.19048952 -0.11415003
000080 eb cc be 3d d4 5f af 3d bd 9a ae 3e 6e c0 42 3e
       0.09316429 0.085632 0.3410243 0.19018719
000090 42 81 09 bd 54 76 79 3d 6a 38 97 bd e9 06 8d 3d
       -0.033570535 0.060903862 -0.07383807 0.06886084
0000a0 4b 29 e6 bc cf 6a 23 3e 1c 6e 78 3c a3 f1 c0 3d
       -0.028095862 0.15958713 0.015162971 0.094210885
0000b0 75 5a 05 3c e9 90 2a bc 08 72 de bd bd 9c 8e bd
       0.008139242 -0.010410526 -0.108615935 -0.06963489
0000c0 f9 30 c5 3d 0e 92 09 3e 8f 94 8e bd 18 ee be bd
       0.096284814 0.13434622 -0.06961929 -0.093227565
0000d0 25 35 c5 3b cc 4d 18 3c 9a 94 53 bd ce bd 1e 3e
       0.006018298 0.009295892 -0.05165539 0.15502092
0000e0 e9 61 34 b8 da a5 af 3d 50 c3 38 3e b6 86 af 3d
       -4.300653e-05 0.085765556 0.18043256 0.08570616
0000f0 c2 81 f6 3d 32 a5 46 3d 7e 6e 48 bd 8c 96 41 3d
       0.12036468 0.048497386 -0.0489335 0.047262713
000100 9f 32 1d 3d d8 ea 86 3e 75 b1 11 3d 74 13 83 bd
       0.038378354 0.26351047 0.035569627 -0.06400195
000110 df d6 88 3d 5e 50 df bd 8a 0b c7 3d 1a e2 f8 3d
       0.066816084 -0.10904001 0.09718998 0.121525005
000120 a9 6b 2f 3e d3 ab 33 3e d4 cf 7b bd aa 97 bd 3d
       0.17130913 0.17546014 -0.061477497 0.09257443
000130 14 47 76 3d 89 b9 c9 3d d4 72 08 3e ee b8 db 3d
       0.06012638 0.09849841 0.13325053 0.10728632
000140 60 2d cb 3d 9b 70 6a 3d cc e9 3b bc 10 79 9d bd
       0.09920764 0.057236295 -0.011469316 -0.076891065
000150 23 37 0b bd 3a 71 0d 3d 14 dd 08 be 5e c5 12 3e
       -0.03398813 0.03453181 -0.13365585 0.14333102
000160 53 e0 ec bd ea af 2c 3e 5d 91 4a bb b1 09 e2 3c
       -0.11566224 0.16863981 -0.0030909397 0.027592512
000170 11 11 b4 bc 94 0b 5c 3e eb 1f 9a bd fc be c6 3d
       -0.021980794 0.21488792 -0.07525619 0.09704396
000180 6b 2a 79 bd b8 43 68 bd 5b b2 f3 3c 5c be 0c be
       -0.06083147 -0.056705207 0.029748132 -0.13744491
000190 70 5c 61 3d 70 fb 1a 3d 7a fc 4e 3c 28 43 85 bd
       0.055019796 0.037837446 0.012633437 -0.0650695
0001a0 c2 a0 9c bd dd dd 07 be d3 8b eb 3c 83 0b 01 bd
       -0.076478496 -0.13268228 0.028753197 -0.03150512
0001b0 eb ef e3 bd 9a 0c 1d 3d f7 c1 e0 3c ba 21 65 bd
       -0.11129745 0.038342096 0.02743624 -0.055940367
0001c0 0d 47 f8 3d f9 52 5e bd 51 ad e3 3c 7b 4a 47 bd
       0.12122927 -0.054278348 0.027792605 -0.048655014
0001d0 2f 0a 0e 3e e4 fe 96 3d 04 fa 4f 3e c0 96 20 3b
       0.13871072 0.07372835 0.20310217 0.0024503917
0001e0 c3 53 04 be c4 b8 9d ba ce a5 85 3e 33 63 92 bd
       -0.12922578 -0.0012033214 0.2610306 -0.07147827
0001f0 5c 96 0f 3e fa 80 a7 bd cb f6 51 3d 60 90 f8 bd
       0.14022201 -0.08178897 0.05126075 -0.12136912
000200 da ea 25 bc 77 55 4a bd e5 35 41 3d f7 39 de 3d
       -0.010126794 -0.049397912 0.04717054 0.108509
000210 e8 16 2c bd 8c 7f 49 3e 2d 87 38 3e 85 97 6f 3e
       -0.042014033 0.19677562 0.18020315 0.23397644
000220 50 8a 64 3e 94 cb eb bd 76 51 ef 3d e5 29 35 3e
       0.22318387 -0.11513439 0.11685459 0.17691763
000230 ee 52 1b bc fb fb fc 3d da a9 8f bd d2 74 b1 bd
       -0.009480221 0.12352749 -0.070148185 -0.0866486
000240 16 c4 9a bd 16 c9 86 3e 06 7c 12 bd f4 b5 39 bd
       -0.07556932 0.2632529 -0.03576281 -0.04533954
000250 8f 53 98 3d 44 eb 46 3e 6a 0f e5 3d 98 4b 7e bd
       0.074378125 0.19425684 0.111845806 -0.06208381
000260 14 e3 ec 3a 1e a8 9a 3d dc e2 88 bb 42 99 4b bd
       0.0018073046 0.07551597 -0.0041774344 -0.049706705
000270 72 41 67 3d 97 fc 38 3e ef 7d ef 3c af 34 ee 3d
       0.056458898 0.18065105 0.029234855 0.11631142
000280 d2 ee 96 bd 6f 93 3c 3b 4f bf ef 3d f8 a0 2f 3e
       -0.0736977 0.00287744 0.11706411 0.17151248
000290 a8 3f dd bd aa 11 90 bd e7 18 13 22 86 9c 30 3e
       -0.10803157 -0.07034619 1.9935398e-18 0.17247209
0002a0 95 c5 05 3e 4d 81 bb 3d 39 41 f1 3d 77 45 18 b2
       0.13063653 0.091555215 0.11780018 -8.863359e-09
0002b0 4d fd cc bd 51 a5 ab bd 9b 2e 00 3e c3 38 03 3e
       -0.10009251 -0.08381141 0.12517779 0.12814622
0002c0 96 96 90 bc d0 c1 22 bd a1 f9 cc 3c d0 73 46 bb
       -0.01764993 -0.039735615 0.025021376 -0.0030281432
0002d0 a6 19 4b bc 93 b6 03 bd 73 f0 39 bd e2 ab 18 3e
       -0.012396252 -0.03215654 -0.045395326 0.14909318
0002e0 36 e6 97 3d 0f 6c 7f 3d 06 eb 11 3e 52 a8 25 3e
       0.07416956 0.062358912 0.1424981 0.1617749
0002f0 03 5c c5 3d 29 49 00 00 1f 00 5a bd fe 5a 37 3e
       0.096366905 2.6245e-41 -0.05322277 0.17905805
000300 07 ec 00 00 b5 b6 00 00 57 f7 79 3c 51 e5 86 3d
       8.467e-41 6.5543e-41 0.015256724 0.065867074
000310 ea 2b 1d 3e c1 ad 0e bd 1b 7b 63 bd 64 03 0d be
       0.15348783 -0.034833673 -0.055537324 -0.13770825
000320 16 fa 1d 3e 6e df fc 3d e7 4d 14 a9 fd b6 12 3e
       0.15427431 0.12347303 -3.293017e-14 0.14327617
000330 bb 11 cd bd 94 2f b8 bd cc 4e 97 3d bc 26 f9 bd
       -0.100131474 -0.0899345 0.07388076 -0.12165591
000340 c0 e8 d3 3d 35 b9 44 3e 1e f7 c1 bd 0d fc e8 3d
       0.10347128 0.19211276 -0.09470962 0.113762
000350 c9 d0 ed 3d cb e7 0c 3d 7e 73 e8 80 2a 29 10 3d
       0.11612088 0.034400743 -2.1347266e-38 0.035195507
000360 13 3e ae 3d aa 1c 96 3d 75 6a 81 3e e9 4b 98 bd
       0.085079335 0.07329686 0.25276533 -0.07436354
000370 be 89 74 bd 23 73 af bc 7c 83 07 3e 7f fa 8f 3d
       -0.059701674 -0.021417206 0.13233751 0.070302
000380 12 75 db 3c 11 02 1a be 2b ae 10 3e c6 2c ac bd
       0.026789222 -0.15039851 0.1412894 -0.08406977
000390 2a f6 26 3e ae 8c 51 3d 9d 9b b1 86 b2 d7 10 3d
       0.16304842 0.051159553 -6.6808653e-35 0.035361953
0003a0 14 52 f2 bd 40 26 18 3e 38 1a 99 3c 46 01 dd 3d
       -0.118320614 0.14858341 0.01868926 0.107912585
0003b0 6f 97 26 3e 3a 2c 39 3e d1 9d d1 bd b4 d3 9b 3c
       0.16268705 0.18083277 -0.10235179 0.019021846
0003c0 29 2b 5a 3d ea 09 a6 bc f6 00 07 be 70 f3 05 be
       0.053263817 -0.0202684 -0.1318396 -0.13081145
0003d0 75 89 5a 3d ed 67 3b 3e 91 29 db 3d db 44 be 3d
       0.053353745 0.18301363 0.107012875 0.09290477
0003e0 a1 19 da 3d 3d 12 8f bd ee 1d a7 bb 65 40 00 00
       0.106494196 -0.069859006 -0.0051000034 2.31e-41
0003f0 9e b2 2d 3d 89 0f 45 3c fa 3d 47 3e 51 57 cc bd
       0.04240667 0.01202763 0.19457236 -0.09977592

weight f4 [128, 768]
000000 77 24 d6 bc 17 1b b3 3c 57 19 c9 3c 4a 0d 63 bc
       -0.026140435 0.021863503 0.024548216 -0.013858149
000010 36 5a 72 3c 9c f0 82 3d 7c 71 b6 3c 7b 0d a8 3d
       0.014792016 0.06393549 0.02227091 0.08205696
000020 b1 e0 0c bd 0c 1c 23 3d 85 39 c8 3c d1 d0 a8 bc
       -0.03439397 0.03982167 0.02444149 -0.020607384
000030 df 63 84 3d bc 5d 99 3d 11 1e be bd 99 0c 30 3c
       0.064643614 0.074885815 -0.092830785 0.010745191
000040 c3 d8 11 3b a5 9b a4 3b 66 11 13 3c 6a 96 fa 3c
       0.0022254444 0.005023437 0.008976316 0.030589301
000050 75 aa 52 3c 6a 38 12 3d 3c 78 a1 3c aa 75 cb 3d
       0.012858023 0.035698332 0.019710653 0.09934552
000060 31 25 04 3c 44 22 a7 3d 12 e8 b4 3d 99 07 21 3e
       0.008065508 0.081608325 0.088333264 0.15725555
000070 4a 0d 88 3d 9f 91 25 3c 44 71 8f 3d 61 9c bd bc
       0.0664316 0.01010552 0.070040256 -0.023145856
000080 73 ec dd 3d a2 18 69 3c c6 02 28 3e a6 07 69 3d
       0.10836115 0.014227064 0.16407308 0.05689206
000090 30 a3 fe 3a b0 27 9b 3d e1 d6 83 bd 63 e8 11 bc
       0.0019427296 0.07575929 -0.06437469 -0.008905503
0000a0 5d 07 d2 3b d4 d8 19 3d 95 06 13 bd b1 1a c2 39
       0.006409569 0.0375603 -0.03589495 0.0003702245
0000b0 af 18 af 3d a1 60 68 bd 49 31 c6 3d b3 d5 ae bc
       0.0854963 -0.056732778 0.09677369 -0.021342134
0000c0 c2 1b a5 bc e6 7b 51 bd c9 a8 82 3d 85 67 5d bc
       -0.020154838 -0.05114355 0.063798495 -0.0135134505
0000d0 7f 5c e9 3d 28 90 d1 bc e2 f5 37 3d 5a 79 2a 3d
       0.11394595 -0.025581434 0.044912226 0.041619636
0000e0 ba 43 9b bd 93 e5 b2 3d 16 77 d0 bc a2 0b 29 3d
       -0.07581277 0.08735194 -0.02544741 0.04127086
0000f0 51 68 a2 3d 4e a6 d7 3d 12 ad 28 3d 4f 28 8f bd
       0.07930053 0.10529767 0.041180678 -0.0699011
000100 ef 80 91 bd 0e d2 15 3d b1 fb 9d 3d 31 56 2b 3d
       -0.0710467 0.036577277 0.07714022 0.041830245
000110 ce bc 2d 3d 38 89 10 3d ed ec 68 bd 12 b7 97 3d
       0.042416386 0.035287112 -0.056866575 0.07407965
000120 c7 27 35 3d 24 e8 32 bd 5f 78 a0 bc fc 7f 5a 3d
       0.044227388 -0.043678418 -0.019588647 0.05334471
000130 f2 f2 3d 3d a3 aa a5 3d 7d 08 32 3d 20 27 ae 3d
       0.04637427 0.08089187 0.043465126 0.08503556
000140 24 e9 6e 3d b1 86 1d 3b fe e5 aa 3d b5 5c 2b bb
       0.05832781 0.002403658 0.08344649 -0.0026147787
000150 db 06 80 3c fb 96 17 3d 06 89 01 3d fb d2 6e 3d
       0.015628269 0.03700922 0.031624816 0.058306675
000160 b7 1d 2f 3d f1 64 f4 3d 8a 0f 2e bd 0e 2a 4c 3d
       0.042752948 0.119333155 -0.042495288 0.049844794
000170 d8 72 84 bd a1 26 7b 3d 43 fa 9c 3d 10 d3 37 3d
       -0.06467217 0.061316136 0.07664921 0.04487902
000180 7a 12 ee 3d 35 28 2d bd ea 84 5c 3d 1b 2c 5c bd
       0.11624618 -0.042274673 0.053837694 -0.053753
000190 a9 43 62 3c 47 59 d7 3b 10 b4 93 3d c7 d2 32 3e
       0.013810077 0.006571922 0.072120786 0.17463218
0001a0 38 27 e2 bc 12 fc 5b bd f9 b7 0b 3e e1 4d 5e 3a
       -0.027606592 -0.05370719 0.13644399 0.0008480233
0001b0 8f 5f 44 bd de 85 b0 bc 7a f3 8d bd e0 90 03 3b
       -0.047942694 -0.021548208 -0.06931205 0.0020075366
0001c0 75 be df 3b f0 12 de 3c 49 c5 90 bc fb c4 21 3d
       0.006828124 0.02710864 -0.017672198 0.039494496
0001d0 3c 89 84 3d 39 b8 fd 3c 3e 69 b2 3d fd 3a df bd
       0.06471488 0.030971633 0.087114796 -0.10899923
0001e0 09 f7 a6 bc ec a3 02 bd ec 23 32 3e 32 8d 71 bd
       -0.020381467 -0.03189461 0.17396516 -0.058972545
0001f0 6f 74 9f 3d 25 b1 1a 3d 43 34 83 bd 35 16 57 bd
       0.0778588 0.037766594 -0.064064525 -0.052511413
000200 b7 87 1b 3c 8d ce b8 bd 99 54 ae 3d 8e 24 4f bc
       0.009492806 -0.090237714 0.085122295 -0.012642993
000210 fb 88 a3 3d 01 d7 a6 3d bf d2 78 bd 63 e4 18 3d
       0.07985111 0.081464775 -0.060747858 0.03732718
000220 45 ad d8 3b d0 8a 51 bc 0f 9a 75 3d 6a 24 7e 3c
       0.006612452 -0.012789443 0.059961375 0.0155116115
000230 06 4b 53 3b a2 60 b0 3c 13 3c 30 3d fd 65 f8 3c
       0.0032240762 0.021530453 0.04302604 0.03032207
000240 8c b6 88 bd 19 21 70 3d 9a bb 57 3d 68 39 02 3d
       -0.06675443 0.058625314 0.052669145 0.031793028
000250 c6 44 83 3d 7f e1 b9 bd ee e7 df 3c 87 49 47 bd
       0.06409602 -0.09076213 0.027332272 -0.048654106
000260 13 98 00 80 74 42 c9 3c 81 7b a8 3c d9 a0 19 bd
       -5.4554e-41 0.02456782 0.020566704 -0.037506912
000270 a0 44 e5 bc d5 ec 2e bb 0c 91 71 3d 6a 06 22 bc
       -0.027986825 -0.0026691456 0.058976218 -0.009889225
000280 95 6c 46 bb d6 03 1c 3d a6 11 65 3d 6c 4e 6b 3d
       -0.0030277122 0.038089596 0.055925034 0.057447836
000290 65 de 82 bd 42 25 1e bc fa b3 00 80 7e ef 0d 3e
       -0.06390075 -0.009652438 -6.4563e-41 0.1386089
0002a0 3d 1d b0 bd a5 c0 89 3c 0b bc e5 3c 96 31 84 b0
       -0.08599327 0.016815493 0.028043767 -9.618357e-10
0002b0 d7 d8 18 3d 5d 8c 11 3c 2e e7 30 3d 4d 55 38 3c
       0.03731617 0.008883563 0.04318922 0.011250806
0002c0 d3 50 d5 bd e0 60 48 bb 19 fb aa bb 63 bb 12 3e
       -0.104158066 -0.003057532 -0.0052179215 0.14329295
0002d0 11 d1 1d bc 00 27 0b bd 85 9c 15 bd 9a 13 9e 3d
       -0.009632365 -0.03397274 -0.03652622 0.077185825
0002e0 b7 cd f1 bb 8d 88 55 bd 16 0e 0d 3e 77 f1 da 3d
       -0.0073792594 -0.052132178 0.13774905 0.10690587
0002f0 76 50 4a 3d ff 43 02 80 77 21 a6 bb a3 52 ce bc
       0.04939314 -2.08063e-40 -0.0050699073 -0.025185889
000300 24 36 01 80 f2 d2 00 80 b4 a1 26 3d 80 e6 58 bd
       -1.11257e-40 -7.5673e-41 0.040681556 -0.052954197
000310 2c 8e da 3d 4f 2c 0f 3d b7 fe 2a 3d b4 08 51 3c
       0.106716484 0.034954365 0.04174682 0.012758423
000320 66 da 86 3d a1 ae bd 3d 2e 76 bd 29 06 bb 4d bc
       0.06584625 0.092618234 8.413787e-14 -0.012556797
000330 91 ab 81 3c a0 e4 98 3c f9 23 08 3e 6b 38 ad 3c
       0.01582888 0.018663704 0.13294972 0.021145066
000340 0e c2 03 3c 6b 70 90 bd e9 86 10 bd cc ca 47 bc
       0.008041872 -0.07052692 -0.03528491 -0.012194347
000350 45 01 03 3d 0c aa 0a 3d 66 30 01 00 f9 86 cb 3c
       0.031983633 0.033853576 1.09198e-40 0.024844633
000360 01 8b 62 3d 78 9b 9e 3d 21 38 05 3d 79 7d 80 bc
       0.055308346 0.07744497 0.03252423 -0.01568483
000370 96 0e e9 bb 7c b7 3b bd fe 9a cd bc 38 43 2d bd
       -0.0071123345 -0.04582928 -0.02509832 -0.042300433
000380 21 bb 3b 3d 57 65 0b bd 8d 28 ba bc 63 d6 82 3c
       0.045832757 -0.034032192 -0.022724414 0.015971368
000390 62 2d a6 3c 7f 89 7c ba 55 40 00 00 40 2c 37 3d
       0.020285312 -0.00096335256 2.3078e-41 0.044719934
0003a0 28 39 c7 bc e5 bd a4 bc d8 bb 2c 3e 8f f3 a2 bd
       -0.024319246 -0.02011008 0.16868532 -0.07956611
0003b0 bb 9a 89 ba 2f 8b fb bc 26 43 27 3b a3 2e 21 3d
       -0.0010498384 -0.030706016 0.0025522201 0.039351117
0003c0 f0 11 8c 3b c7 db 37 3c e7 76 f5 3c e0 02 eb bb
       0.0042745993 0.011221833 0.029963924 -0.0071719736
0003d0 d6 cf bb 3d 88 32 00 ba e5 21 9a 3c 61 31 c4 3c
       0.09170501 -0.0004890342 0.01881499 0.023949327
0003e0 82 38 f4 b9 22 f2 ad bc 66 c7 57 38 dc 9d 00 80
       -0.00046581408 -0.021233622 5.14457e-05 -5.6629e-41
0003f0 c7 e0 56 3d 89 10 55 bc 53 1d 50 3d 2e 3d 5b bc
       0.052460458 -0.013004431 0.050809216 -0.013381286

bias f4 [128]
000000 53 b7 16 3a c4 ae 96 bc f8 7d c8 bc cd 71 86 3c
       0.00057493633 -0.018393882 -0.02447413 0.016411686
000010 bd 11 ff 3c 6a ef 8a bc 17 d9 60 9e 48 0e ee 3c
       0.031136388 -0.016959865 -1.1903354e-20 0.029059544
000020 a8 0d 67 bd 14 19 06 bd a0 27 4e 91 70 1c 29 3c
       -0.056409508 -0.03273876 -1.6262745e-28 0.010321721
000030 12 cb c5 bc 2d f4 b7 ae 7d dc bb bc 36 4e 6e bc
       -0.024144683 -8.365251e-11 -0.022932285 -0.014545014
000040 5d f5 8f bb 38 be 3b ab 58 45 f2 98 e7 6f ed aa
       -0.0043932633 -6.669973e-13 -6.2625553e-24 -4.2177305e-13
000050 83 0a 55 bd e1 a3 81 bc e6 99 ff bc 01 71 9d 3c
       -0.052011978 -0.015825214 -0.031201314 0.019218924
000060 c1 1d 53 bd 58 5b 80 bc 38 65 e3 9f 75 2a 10 b0
       -0.051542047 -0.015668556 -9.630569e-20 -5.244723e-10
000070 90 7f b5 b6 fc 6f 5d 3c d4 60 7c ba f7 d7 c3 bc
       -5.4090706e-06 0.013515469 -0.00096274656 -0.023906691
000080 b2 58 63 3c c9 f5 56 bc e6 ff 81 b6 51 d7 b5 3c
       0.013876127 -0.013120123 -3.87429e-06 0.022197397
000090 e3 5c 41 bd d5 5b 1a bc 21 5e 7c bc 1b eb 51 91
       -0.047207724 -0.0094213085 -0.015403301 -1.655964e-28
0000a0 eb 8b df bb d7 7d 0d 3d 28 20 22 bb af e6 73 bd
       -0.0068220994 0.03454384 -0.0024738405 -0.05954617
0000b0 de b6 79 bd ba 56 f2 b0 b0 80 3a bc 6a d0 4b bc
       -0.06096541 -1.7632467e-09 -0.011383221 -0.0124398265
0000c0 b8 31 99 a9 28 d4 8d 3c ce 29 d4 bc 00 74 40 bd
       -6.80319e-14 0.017313078 -0.02589884 -0.046985626
0000d0 11 eb 1d 3b 7c 0f 5c bd 72 b7 32 3d 64 3f 67 39
       0.002409641 -0.053725705 0.04363198 0.00022053492
0000e0 93 eb 93 3b 47 79 ac bc 69 35 9c 9d 47 1a 5f ad
       0.0045141666 -0.021053923 -4.134808e-21 -1.2681917e-11
0000f0 b4 f1 73 ba 1a 55 9d 3b 74 ae d0 ba b1 d3 9d 3c
       -0.0009305731 0.0048014047 -0.0015921132 0.019265981
000100 06 f1 40 8f 25 5f ba bb c2 89 d2 a7 9f 0b 17 bd
       -9.51275e-30 -0.0056876116 -5.8436066e-15 -0.036876317
000110 d8 d2 1d bb 46 47 24 bd ac 7b 68 ba 4a fd 4b b0
       -0.0024081971 -0.040107034 -0.0008868526 -7.4210915e-10
000120 64 66 5f bc 64 fd 2a bc c4 15 36 b8 6f b3 19 ac
       -0.013635252 -0.01043639 -4.3412452e-05 -2.1842213e-12
000130 03 fb db bc f5 c8 70 bc 7f bd de 3b f2 fd 7d b5
       -0.02685309 -0.014696349 0.006797492 -9.4619384e-07
000140 ac 89 18 3c 74 e2 77 ba 6b c0 19 bd 3a 60 1f bd
       0.009310167 -0.00094560464 -0.03753702 -0.03891013
000150 1c 72 ad bc 22 6a 2e bd c2 67 54 bd 1e 21 46 3c
       -0.021172576 -0.042581685 -0.051856764 0.012092857
000160 a6 ac e3 a6 2e 14 86 bc 6e ea 31 9b 17 f0 8b 3c
       -1.5798086e-15 -0.016367044 -1.4716845e-22 0.017082257
000170 f6 c4 c6 3b c1 fd e0 bc 38 99 b2 3d 95 a1 88 ac
       0.00606596 -0.02746475 0.087206304 -3.8832917e-12
000180 ef 26 05 af 55 f4 cc bc 9f 28 19 bd 4e b9 26 bd
       -1.2110112e-10 -0.02501885 -0.037392255 -0.040704064
000190 4b 0e 59 bd fa 27 fa bc 5e d7 a2 b8 f6 4e 4c 3d
       -0.052992146 -0.03053664 -7.764877e-05 0.04987999
0001a0 0b 11 79 ab ef 43 38 bb 18 c6 5c 3c 27 05 ea 3c
       -8.848622e-13 -0.0028116663 0.013474964 0.02856691
0001b0 ad 73 39 bc 9f c6 00 3c b1 85 14 3c f1 10 c5 3c
       -0.011319083 0.007859855 0.009065078 0.02405593
0001c0 51 bb 8d 3d df 39 10 3c 1f 83 3f bd 5e a2 27 bd
       0.069204934 0.00880286 -0.046755906 -0.04092633
0001d0 e0 b0 b7 bb 41 e7 fe bc cf 15 87 bc 53 9e 01 3d
       -0.005605802 -0.03111613 -0.016489891 0.03164513
0001e0 86 54 5c bc 2c ca b9 3c 86 10 63 bc 6a 02 e1 ad
       -0.013447886 0.02267941 -0.01385892 -2.558061e-11
0001f0 a5 cf 32 9a 57 06 67 bc ed d7 2a 3c 2b 58 61 9a
       -3.697727e-23 -0.014100633 0.010427457 -4.660013e-23
