outputs/PROTEINS_Hie/model.pth (torch, 318422 bytes, 13 tensors)

bias f4 [128]
00000000: 8644 603c 1844 97bc 4503 15bd 693f e43c
00000010: 5d6e 29bc 4e0e a33b 0248 6fbd 7e12 063d
00000020: 7ded 6c3c d93d 933c 5188 9bbb b531 1a3d
00000030: 261e c23c 3468 4bbb e557 9fbc 0327 013d
00000040: 732e b23b 549b b83c 687b 273d d3a7 c5bc
00000050: 0000 0000 0673 9bbb c9ef 043d 436c 71bb
00000060: daad 3e3c 3560 7b3d f112 a13c 06a0 4cbc
00000070: ed71 df3c 2990 56bb f88e 843c ca5b 7f3c
00000080: 59cc 15bc feef 083c 303a a7bb 6c7a 1c3d
00000090: 032c 553d e7e4 0a3d e9a2 943c 0000 0000
000000a0: e069 66bc e9df 663c b4fc 563c 0c58 a4bb
000000b0: e675 92bc 4807 643c f79c ec3c a6d1 9f3d
000000c0: 06a5 56bd 23d3 8fbc 2d2f b73c 8978 5e3d
000000d0: 0d48 acbc 783f 1b3d 4747 9c3d 33c8 b93c
000000e0: 23d8 06bc ebea 873c ad6b e9bb 833c 863c
000000f0: 4200 0a3d fd17 ee3c 6279 1b3d cef7 3a3d
00000100: 5517 093d 0000 0000 2fb1 b13c c596 28bc
00000110: fe6e 703c 4391 2e3d 68a2 b73c 3d03 bfbc
00000120: 4c9a 703b 0000 0000 9300 5a3d 6764 20bd
00000130: 33a7 2f3d 46b1 4db9 ac21 14bd f275 86bc
00000140: a46b abbb 2659 9a3b 8ca1 993d c081 243d
00000150: c67d 903d d200 8fbb d393 1bbc 84e1 b83c
00000160: e009 53bb dbdf 053d 697a 183d 97ac 943c
00000170: 78f0 583c d1f7 493b 9ae8 1a3d 3107 963d
00000180: a609 0d3d 24d5 783c 8be7 52bd e07e 7bbb
00000190: 6fb7 8b3d 5b08 1fbc 0000 0000 80a7 f33c
000001a0: 97c7 98bc a5e0 41bb e2b2 b23c 7d63 743c
000001b0: 722c 763c 7776 823c d573 623d a248 b23c
000001c0: 2327 43bd 6ca3 8c3c 445d fdbb c34c 583d
000001d0: 7111 ac3c 2477 543d c954 9f3a 2a3e 223d
000001e0: 33a9 f03c 0000 0000 f30c 143d ee99 67bd
000001f0: 1527 173c 11a6 693c 336a 0cbb ed7e 073d
0.013688212 -0.018465087 -0.03638007 0.027862268 -0.010341254 0.0049760705 -0.05841828 0.03273248
0.0144609185 0.017973827 -0.004746475 0.03764506 0.023696017 -0.0031037452 -0.019451091 0.031531345
0.005437666 0.022535004 0.040889174 -0.024127876 0.0 -0.0047439365 0.03245524 -0.003683821
0.011638129 0.061371047 0.019662352 -0.012489324 0.027276004 -0.0032739735 0.016181454 0.015585849
-0.009142959 0.008358 -0.005103372 0.038202688 0.052043926 0.033909705 0.018144088 0.0
-0.0140633285 0.01409147 0.013121773 -0.005015379 -0.017878484 0.013917752 0.02888344 0.07803659
-0.052403472 -0.017556733 0.022361362 0.05431417 -0.02103045 0.037902325 0.076307826 0.02267847
-0.008230242 0.01659151 -0.0071234317 0.016386276 0.033691652 0.029064173 0.037957557 0.04564648
0.033469517 0.0 0.021690933 -0.0102898525 0.0146749 0.042619 0.022416309 -0.023316974
0.0036713062 0.0 0.053223204 -0.03915825 0.042884063 -0.00019616363 -0.036164925 -0.016413663
-0.0052313376 0.0047103344 0.07501516 0.0401628 0.070552394 -0.0043641115 -0.009495693 0.022568472
-0.003220193 0.03268419 0.037226114 0.018148704 0.013240926 0.0030817876 0.037819482 0.073255904
0.03443303 0.015187535 -0.051490348 -0.0038375184 0.068220966 -0.009706582 0.0 0.029742956
-0.01864986 -0.0029583361 0.021813814 0.014916298 0.015025245 0.015925629 0.055286247 0.02176315
-0.047644746 0.01716777 -0.0077320654 0.05280758 0.02100441 0.051871434 0.0012156005 0.039610066
0.029377555 0.0 0.03614516 -0.056543283 0.0092256265 0.014260785 -0.0021425604 0.03308003

weight f4 [128, 3]
00000000: 2a9e 0f3e 71e5 5a3b 9763 803d 9985 a23b
00000010: 1a81 643e 1a38 393d ee44 523d b960 72bd
00000020: 20d6 2a3e 0835 1e3e c528 abbd 66df 8dbd
00000030: 9413 0cb8 f594 1b3b c76d 8f30 ef5b e3bd
00000040: 167e 24be aaba dd3c 3009 ff3d f1cf 34be
00000050: c1e3 1f3e aa5b 81bd 4661 003e dbad dd3d
00000060: 31a0 243e 4782 9a3d 707f 8d3d 536e 543e
00000070: 8a47 fa3d dcc6 c53d 9ed5 253e 85b1 6d3e
00000080: b66b d4bd 9604 8fbd 9da9 6a3e f513 0bbd
00000090: 142f 01be a748 4b3e 3a16 b93d 5058 b13d
000000a0: 4333 3e3e 2e72 823d 6389 f2bd afe0 18be
000000b0: 0551 9f3d 71af 5e3e 537a 2cbe e40d d2bd
000000c0: 2fcb bbbd 300b 35be 02af 473e 24d5 c23d
000000d0: bd9e 51be 34c2 fb3c 1679 b13d 9e69 1ebe
000000e0: 72be 463e 48bd d23d 05d7 94be 1928 1e3d
000000f0: 3df6 49bd fc02 81b9 cfa8 3eba c615 20be
00000100: 9b01 513b 078c 033e b85c 1e3e 15d7 efbd
00000110: d71b dd3d 3650 b7bb 1270 7bbd 3624 7dbb
00000120: a744 4c3c 0c8f 32bc f4f6 b03d ded2 72bd
00000130: f65a 423e 7338 b2bd e5a4 8abd efdb 8e3e
00000140: cdce 023d 275f 223e 73e4 3d3e 2f0c ec3d
00000150: de16 763e dfae dfbd 2d65 11be acc1 e03d
00000160: a3eb 11bc 5862 4f3b 889c 3e3e 2062 e93d
00000170: 05fb 36bc 4db8 d7bd ab47 1bbd c6be f33d
00000180: 1d6a e0bd 7c9b e63b 554e fc3d 66b5 423d
00000190: 5ee0 96be e9ca c03d 94ed 2dbe ebed 2ebd
000001a0: 0056 3d3e 9091 163e 565a 23be 25f4 603e
000001b0: c264 5abd 4fc4 82bd 8cb0 603e 5269 1dbd
000001c0: ddcd da3d a824 cdbc f7eb 973d 91ff da3d
000001d0: a067 533d e767 dfbc c0d7 a8bc fd70 cdbb
000001e0: c321 7a3d abcb 813e 3a2b 943d 4b33 c63d
000001f0: 5c3e ae3d ba03 513d b90d 7ebc 120a 8f3d
00000200: 35ed 973d cbc3 36bd 8650 f5bd 286d 063e
00000210: 7cd8 a5bc 1b9f 0abc aa03 e33c 9fbb 89bc
00000220: e11a 263e 5937 63bc 1c25 753e 6725 0ebe
00000230: f02c f23d ee3c e9bd c5ed 1c3e 85c8 94bd
00000240: 409b 20be 4a05 533d a5fd 3b3e 7820 223c
00000250: 5996 32bc 10a7 2fbc 6de8 0f3e 5973 44bd
00000260: a517 a2bd 6802 59bd 1619 fc3d 9d00 283d
00000270: 39ec 383d 097e 03be 8041 443e f4a5 283d
00000280: 18cd 95bd 3395 5b3d e7f8 9fbd bc45 403e
00000290: 6b96 b8bd 4166 a43d 582d 89bd 194d 843c
000002a0: 9796 5b3d abef 7cbe 029a 653e 1041 bc3d
000002b0: 5760 4a3e a947 a0bd 05f8 1fbc 4296 bc3d
000002c0: b08e 293c b0e1 903d d06b 223e 1e56 a8bd
000002d0: ed9a 623e f113 09be dc32 293c d16e a83d
000002e0: 8d2f 81bd 349c 18bd 1c86 1b3d 1466 6ebd
000002f0: 1e55 3a3e e624 1dbd 16e8 9b3d f813 33be
00000300: 9798 ae3d f19d c2bd 55b8 efbd 6dab a9bd
00000310: 7bad 12bd d693 7fbd f09d df3d 2073 f0bc
00000320: f730 0e3e 9e97 0b3e 4637 be3d c847 a13d
00000330: 0480 8d3d 3564 843e 3ad2 54be f545 c63d
00000340: 6a69 1bbe e48b c8bd f086 673d 96fa 33bd
00000350: 2e33 efbc 9507 903d 8a43 6cbe b2fe 553e
00000360: 877c b9bd 8d24 a6bd 3a02 9e3c bb32 66bb
00000370: f39b 98bb 41f3 2cbc 2ac8 47bd 2ee3 913e
00000380: bcc0 bdbd c2c5 22be 842a 0e3d c250 3a3e
00000390: 1d64 1fbd fc2d 3a3e c0c8 acbd c789 04b9
000003a0: 766d 45b9 0e4a 43bb 13c2 bebd 6de4 d83c
000003b0: ed90 23bd 51d3 f9bd eb32 6c3c 3594 0e3e
000003c0: e384 e8bd 85bc 2dbc 0358 b33d 411e 783d
000003d0: 2364 803e 1bf1 06be 3f0b dfbd 7291 e43d
000003e0: 2244 2abd 0e2e 1cbd 73a6 7b3e 10f2 48bd
000003f0: 1dbc 01be 1c8f 913e fc84 8dbd 597a d93c
0.14025179 0.0033400918 0.06268995 0.0049597737 0.22314873 0.04521952 0.051335268 -0.059174273
0.16683245 0.15449917 -0.083573855 -0.069273755 -3.3396835e-05 0.0023739908 1.043582e-09 -0.11101519
-0.16063723 0.027066547 0.12452924 -0.17657448 0.15614225 -0.06316312 0.12537107 0.10824176
0.16076733 0.0754438 0.069090724 0.2074521 0.12220676 0.0965707 0.1619477 0.2321225
-0.10372107 -0.069832966 0.22916265 -0.03395458 -0.12615615 0.19851933 0.090374425 0.086594224
0.18574242 0.06369434 -0.11842611 -0.1492946 0.07779125 0.21746613 -0.16843538 -0.10256556
-0.091696136 -0.17680049 0.19500354 0.095133096 -0.2047071 0.030732252 0.086656734 -0.15469977
0.19408587 0.10290009 -0.29070297 0.03861246 -0.049307097 -0.0002460702 -0.0007273079 -0.15633306
0.0031891826 0.12846385 0.15465057 -0.117109455 0.10796326 -0.0055942787 -0.061386175 -0.003862632
0.01246754 -0.010898363 0.086408526 -0.05928313 0.18980011 -0.08702173 -0.067697324 0.2790217
0.0319355 0.1585661 0.18544178 0.11525761 0.2403216 -0.10922026 -0.14198752 0.1097444
-0.008906278 0.003164431 0.186144 0.11395669 -0.011168246 -0.105331995 -0.037910145 0.119016215
-0.109577395 0.007037578 0.12319628 0.047536276 -0.29468054 0.09413702 -0.1698516 -0.042707365
0.18489838 0.14703965 -0.15952429 0.21968134 -0.053318746 -0.06385099 0.21942347 -0.03843052
0.106837966 -0.025041893 0.074180536 0.10693277 0.051612496 -0.027271224 -0.02061069 -0.006269573
0.061067354 0.253507 0.07234807 0.09677752 0.08507988 0.051028945 -0.015506201 0.06984343
0.074182905 -0.044620316 -0.11978249 0.13127577 -0.02024483 -0.008460785 0.027711708 -0.016813098
0.16221191 -0.013868176 0.23939937 -0.13881455 0.118249774 -0.113885745 0.15325077 -0.072648086
-0.15684223 0.051518716 0.18358476 0.0098954365 -0.0109001035 -0.010720983 0.14053507 -0.047961567
-0.07914666 -0.05298081 0.12309472 0.04101621 0.045147154 -0.12841047 0.19165611 0.04117389
-0.07314509 0.053609084 -0.07811146 0.18776602 -0.09013065 0.08027316 -0.06698102 0.016150044
0.05361041 -0.24700801 0.2242203 0.09192097 0.19763313 -0.07826168 -0.009763722 0.09208347
0.010348961 0.070742965 0.1586144 -0.082195505 0.22129412 -0.13386513 0.010327067 0.082242616
-0.06307898 -0.037258342 0.037969694 -0.058202818 0.18196532 -0.038365267 0.07612626 -0.17488086
0.08525198 -0.09502781 -0.117050804 -0.0828465 -0.035809975 -0.062396847 0.10918796 -0.02935177
0.13885866 0.13632056 0.09287886 0.07875019 0.06909183 0.25857702 -0.2078332 0.09681312
-0.15176931 -0.09792307 0.05652517 -0.04394015 -0.029199209 0.07032696 -0.23072639 0.2089794
-0.09056955 -0.0811244 0.019288171 -0.0035125453 -0.0046572625 -0.010556043 -0.048774876 0.28493637
-0.09265277 -0.15895751 0.034708515 0.18194869 -0.038913835 0.18181604 -0.084367275 -0.00012639827
-0.00018828161 -0.0029798779 -0.093143605 0.02647611 -0.039933134 -0.121985085 0.014416437 0.13923724
-0.11353471 -0.010604029 0.08757021 0.060575727 0.25076398 -0.13177912 -0.10890817 0.11160554
-0.041568883 -0.03812986 0.24575214 -0.049058974 -0.12669416 0.28429496 -0.069101304 0.026547598

bias f4 [128]
00000000: 1d85 d03c 0330 413d b884 01bd f35e ba3c
00000010: 13ae fcb8 1509 e43c c302 53bd df56 69bd
00000020: 8265 cd3c 4b88 b8bb 0b0f b5bb 369c 8ebd
00000030: 49dc d5bc 96db 963c ea88 9ebb 3787 b33c
00000040: 48e4 3b3d 593a 383d 6b11 c83c 9093 f8bc
00000050: 4038 df3c 9841 a83b af48 daba 522c fc3c
00000060: c5cd aebc 3bd6 a6bc 3457 07bd e614 063d
00000070: fdcd 20bc 9c92 98ba 5456 ab3c 8d21 a53c
00000080: 43a8 d83c 8671 dcbc b7f3 c23c 43a9 db3c
00000090: d8b4 e83c 5062 e7bc 3f2a 9f3c 122e 20bd
000000a0: 7b28 403d f8c4 b23c f6a0 acbc e8a2 9bbc
000000b0: 6114 34bc 1604 343d 1fbb c33c 0b28 d1bb
000000c0: 9f97 28bc eb2b 1d3d 42cb 8a3c 4507 ec3c
000000d0: 7121 103c cd0d c63c 3386 75bd bc1e 34bc
000000e0: 2e7c 793d bcf2 81bc eee0 77bd 1923 a93c
000000f0: 1fc3 02bc 4af4 03bc 540e 0e3c 8686 d33c
00000100: 3e15 d93c 3e30 4f3d 1d44 c5b8 9ff7 023d
00000110: ee61 343c 93f0 49bb 262e b83c d41d 2ebd
00000120: 8e15 01bc 227a 4d3c 28e3 b8bb ef2f dc3c
00000130: 6855 423d d7d1 eb3c a451 ea3c 6a40 e13c
00000140: dfac cabb c208 a33b 0601 45bd 9ec2 973c
00000150: e40a e23c 66b0 8d3c a545 123d 98e6 6e3c
00000160: e76a 133c 3e64 bf3c 54f8 cb3c 7acd 3fbb
00000170: 02e3 853c 74a3 c63c dba6 84bc dc7b d1bc
00000180: 7f57 45bd cca5 d03c 3a51 72bd 282a be3c
00000190: 1306 2dbd 3734 433d f3f3 48bc 8e45 92bb
000001a0: 9f0e d33c 1505 d4bc 5e91 9abc 3f58 b03c
000001b0: 2774 11bc b4eb d43c bc80 83bc b10b d6bb
000001c0: b94c a63b 4276 9e3c 068d 1ebd 5346 22bd
000001d0: 4677 5a3d 82ba eb3c a8ab e0ba b7ce 7bbc
000001e0: fd7b d23c f26d 5ebd e02d 433c a444 d1bc
000001f0: 2100 d0bc ee9f 00bc 3e65 17bd f9a0 c73c
0.025454098 0.04716493 -0.03162071 0.022750353 -0.0001204872 0.027836362 -0.051516306 -0.056967612
0.025072817 -0.0056314818 -0.005525475 -0.069633886 -0.026106017 0.018415254 -0.004838099 0.021915061
0.045872003 0.04497752 0.024422368 -0.0303438 0.027248502 0.0051347725 -0.0016653741 0.030782852
-0.021338353 -0.020365825 -0.033042148 0.032734774 -0.009814736 -0.0011640373 0.020915188 0.0201576
0.026447421 -0.026909601 0.023797853 0.026814109 0.028406546 -0.028245121 0.019429324 -0.039106436
0.046913605 0.021822438 -0.021072846 -0.018998578 -0.010991187 0.04394921 0.023892937 -0.0063829473
-0.010290056 0.03837196 0.016942624 0.02881206 0.008797036 0.024176503 -0.059942435 -0.010993656
0.060909443 -0.015862815 -0.060517244 0.020646619 -0.007981091 -0.0080538485 0.008670408 0.025820982
0.026499387 0.050583117 -9.406379e-05 0.03197443 0.011009676 -0.003081356 0.022482943 -0.042508915
-0.007878674 0.012541326 -0.0056423135 0.026878325 0.04744473 0.028786583 0.028603382 0.027496535
-0.0061851586 0.0049754092 -0.04809668 0.018525418 0.027593084 0.017296027 0.03571095 0.014581345
0.0089976555 0.023363229 0.024898686 -0.002926676 0.016343597 0.024247862 -0.016192844 -0.025571756
-0.048179146 0.025469683 -0.059159495 0.023213461 -0.04224212 0.047657218 -0.012265193 -0.004463858
0.025763808 -0.02588133 -0.018868145 0.021526454 -0.0088777905 0.025991298 -0.016052596 -0.0065321554
0.005075064 0.0193435 -0.03870871 -0.039617848 0.053336404 0.028775457 -0.0017141001 -0.015369109
0.025693888 -0.05430407 0.011912793 -0.025545426 -0.025390686 -0.00785063 -0.036961786 0.02436875

weight f4 [128, 128]
00000000: b9d7 ebbd c61f 70bc ac00 b6bd db93 943d
00000010: 5aaf b5b0 8447 be3c 51ee d73d 9ce5 3a3d
00000020: 3c9b 873d a693 183e a2cd fb3d ba3e 943d
00000030: 119b 1a3d b575 e03d 1d27 15bb 9791 3d3c
00000040: aa66 1ebd 2d61 dabc 70d2 c43d 1b73 af3c
00000050: 4179 36bc d9d3 b8bb 1b41 d83d 6f37 b33c
00000060: 82a1 a8bd 88a9 403d e30a 7fbd bc80 cc3d
00000070: d621 e63d 8576 833d 501c 213e c885 c2bb
00000080: 3bee 163d ec27 a1bc f58f cf3c 3eb9 ee3d
00000090: 42df 953c 1234 67bd e952 1dbd 17d3 1e3d
000000a0: 861d 3bbd 6116 0dbd eb52 91bd 3e50 783b
000000b0: 5152 c0bb 3ce1 c3bc 47ec 213b 7757 53bd
000000c0: c920 05bc 06be 9a34 444d 0f3d b857 bb3c
000000d0: fb63 b73d dd66 493c 2070 88bd 0ded 6e3d
000000e0: c382 233d 87b8 0f3e fe3a 3bbc cf11 d9bd
000000f0: ea6b 8b3d 433d 6ebd 28e4 f23d 3cf6 a03b
00000100: a30c 153e b961 fa3c 80ce f93c cd55 f7bb
00000110: b4e0 2239 de88 a5bd 44fe d83c 3dc5 7b3d
00000120: a705 e0bc f2a4 d5bc ae8d 02bd 015c f1bb
00000130: 3bf3 09bd a35a af3b 4965 61b9 4d47 c4bb
00000140: 9bcc acbb 7373 9b3d 523a 163d 18d2 cd3d
00000150: 286d 00be 3701 c7bd e438 92bb 0481 6fbd
00000160: b59b 8f3c b04b d7bd 13e6 b3bc 2b02 7cbd
00000170: 7d54 e13d c211 763c b045 1fbd b739 edbd
00000180: a33a 78bd 7447 be3d 0432 ddbd 2e11 68bc
00000190: 791b c3bc c7e3 75bc 6df8 feb1 ae43 ef3d
000001a0: 2389 093b 3964 4332 f9c1 8f3c 9ed9 4d3c
000001b0: 020a 41bb e857 983d e325 913d d132 bfbd
000001c0: 5063 a4bc 0e5f 003e 6e70 42bd 904c bbbd
000001d0: 9e49 fabb 283e efbd 29c1 763d 4cea 813d
000001e0: 5431 373d 5b4a 0935 36cb ed3d 043f 7cbd
000001f0: 68f6 ea3d efff 2f3d b66c 143c fca1 383d
00000200: 785b d73d 84ca ce3d 5c59 1abd 6fdd 6ebc
00000210: 10ff f338 612e 833b 12de cdbc dfb4 383d
00000220: c12a 4ebd a4d0 873c 2c9d 45bd 23cd 093c
00000230: 8025 863c 7e9d 67bd 0565 1c3d 0668 33bd
00000240: 3aae 4ebd 244d c5ba 5e57 c2bc 0d9e f5bd
00000250: a5b5 a6bc 4225 253c 410a 8ebd b6cb e930
00000260: 2883 74bb 46ec 0d3e 6ed5 8bbc 96a5 bfbc
00000270: f43b ffbd 7944 e63c d4c9 9b3d ba45 3abc
00000280: 7ea0 093b bb61 3abd ec60 223b 25a3 61bc
00000290: be6d 8bbd 1232 af3d 8f78 883d dc75 a5bb
000002a0: 0dee 743d c374 2cbd d6af ff3c 7d8f aebc
000002b0: c5ee f0bc c7d0 3f3d 5137 b5bd b38a c43d
000002c0: 702b 1dbd cd39 d0af 1edf 88ba 1d04 753d
000002d0: 91d7 3a3d 6416 2ebd f40a 933d 4fa3 bebd
000002e0: db64 bbbd 5c3f 873c 7228 373c 23fd 063d
000002f0: d606 96bc 6435 51bb d4fd f23c 0e28 b93d
00000300: 5fa9 fc3c ca43 0cbc 75ce b13d c8a0 9dbd
00000310: d26e c03a 4b08 dd3c 1c0f 4f3d a9dd 8cbd
00000320: 50cd 06bd 9280 1e3d 1ae5 113d de9c 3b3c
00000330: caca bc3d 67ce 75b8 6b2e 973c 3d3d 7ebc
00000340: 9607 03bd 47c1 0e3c 2636 643d 0451 2b3c
00000350: b211 b13d 155f 5bbd a25c 9c3b 802d 1fbb
00000360: e691 d43d 71cc 8b3d 5776 853d 7526 8ebc
00000370: 82e6 f03d 7a4c b93c 2c7a ba3a 6ecf bd3d
00000380: 4d46 803d 7e48 c83d 8806 f7bd 269b 80bb
00000390: 78bf b93d 0764 f73c d474 c0b3 dc97 48bb
000003a0: 8f60 25bd c6aa 86b0 c480 b63c 5029 81bc
000003b0: d0e1 dcbc 55b0 ccbd 4a2c e43d 621e 143d
000003c0: f103 71bd d901 7cbc 1a20 a2bd 6720 c1ba
000003d0: 9452 4abd 9a8e a63d e673 363d 9fc2 92bc
000003e0: d601 80bd 0f62 1a3b fa4d 5abc ad75 5fbd
000003f0: 22b1 63bc 9aab 82bd 2d59 fe3b a729 e6ba
-0.11515755 -0.014656013 -0.08886847 0.07254764 -1.3219321e-09 0.02322746 0.10543502 0.04562913
0.066214055 0.14900073 0.12295081 0.07238527 0.03774554 0.10959951 -0.002275891 0.011570356
-0.038672127 -0.026657665 0.0961045 0.021417191 -0.011137308 -0.0056404886 0.10559293 0.021877019
-0.0823393 0.047036678 -0.06226624 0.09985492 0.112369224 0.0641909 0.15733457 -0.005936358
0.036848288 -0.019672357 0.025337199 0.11656426 0.018294934 -0.056446142 -0.038409147 0.03877553
-0.045682453 -0.03444517 -0.070958935 0.0037889625 -0.005869188 -0.023911111 0.0024707483 -0.051597085
-0.008125492 2.8822996e-07 0.034985796 0.022868976 0.08954617 0.012292591 -0.06662011 0.058331538
0.039919626 0.14035235 -0.011427639 -0.105991 0.06807692 -0.058163892 0.118599236 0.004912166
0.14555602 0.030564176 0.030493975 -0.00754807 0.00015533232 -0.08082746 0.02648843 0.061467398
-0.027346445 -0.026079629 -0.031873398 -0.007365704 -0.03367923 0.005351381 -0.00021495404 -0.005989945
-0.0052734143 0.075903796 0.036676712 0.10049838 -0.1254164 -0.097170286 -0.0044623483 -0.05847265
0.017530302 -0.10512483 -0.021960294 -0.061525505 0.11002443 0.015018882 -0.03888482 -0.11583274
-0.060602795 0.09290972 -0.10800555 -0.014164252 -0.02381681 -0.01500792 -7.4206157e-09 0.11682831
0.002098628 1.1373282e-08 0.017548548 0.012564091 -0.0029455428 0.07438642 0.070873044 -0.09335864
-0.020066887 0.1253626 -0.047470503 -0.091454625 -0.0076381704 -0.11681777 0.060242806 0.06343517
0.044724777 5.114468e-07 0.11611025 -0.061583534 0.114727795 0.042968687 0.009059122 0.045076355
0.10515493 0.100972205 -0.037682876 -0.014579161 0.00011634652 0.0040033315 -0.025130305 0.045094367
-0.050333742 0.01657898 -0.048245594 0.008410725 0.016375303 -0.05654668 0.038182277 -0.043800376
-0.050459124 -0.0015052897 -0.0237233 -0.119930364 -0.020350287 0.010079684 -0.069355495 1.7010879e-09
-0.003730962 0.13859662 -0.017069545 -0.023394387 -0.12462607 0.028108822 0.07606855 -0.011369163
0.0021000202 -0.04550336 0.0024777008 -0.013771807 -0.06808041 0.08554472 0.0666362 -0.0050494503
0.059797335 -0.04210354 0.031211775 -0.021308655 -0.02941073 0.046829965 -0.088484414 0.09596767
-0.038371503 -3.787605e-10 -0.0010442471 0.059818376 0.045615736 -0.042501822 0.071798235 -0.093084924
-0.09150096 0.016509704 0.0111790765 0.032956254 -0.018313807 -0.0031922692 0.02966205 0.09040843
0.030842481 -0.008561084 0.08681957 -0.07696682 0.0014681465 0.026981493 0.05055152 -0.06878216
-0.032910645 0.038696833 0.03561888 0.011450974 0.092183664 -5.860478e-05 0.018454751 -0.01551753
-0.031989656 0.008713073 0.055715702 0.010456327 0.08645953 -0.053557474 0.004771785 -0.0024288595
0.103793904 0.068261035 0.06516712 -0.017352322 0.11762716 0.022619475 0.0014227084 0.0926808
0.06263409 0.09779452 -0.120617926 -0.003924745 0.09069723 0.030199064 -8.9619476e-08 -0.0030608093
-0.04037529 -9.79832e-10 0.022278197 -0.01576677 -0.026963145 -0.0999457 0.1114126 0.036161788
-0.05884165 -0.0153813 -0.07916279 -0.0014734388 -0.04939516 0.08132668 0.044544123 -0.017915068
-0.0625035 0.0023556983 -0.013324255 -0.054555584 -0.013897212 -0.06380387 0.0077620954 -0.0017560021

bias f4 [128]
00000000: 0efc 893c 9778 93bb c171 9ebb 7125 643c
00000010: 04e3 77b8 bceb db3b 7391 91bb 72ba 44bc
00000020: cceb 1ebc 3846 043c 46bf 34bb 9b99 ab3c
00000030: 2b7c 3e3c d74f 39bb 8e6c 993c cfb3 39b9
00000040: af8d a9bb daf0 9dba 7d8e 083c 8ac9 53b9
00000050: 487c 013d d06f 623b f9a5 823c dd28 cb3c
00000060: 82db 04ba 3c85 f23c 21bb 9cbb d640 88bb
00000070: dfeb 123c dca4 57bc 2f41 273c 2611 c4b8
00000080: 47d4 94bc 73a6 5d3b 31ea 383c 412b 373c
00000090: 01b4 cc3b 3f29 92bb b3bc 8e3b 6a81 2fbc
000000a0: 057f c33c 8c34 18bb 2cee 6e3c 1ff9 4a3b
000000b0: b723 903b 0cfe 943c b288 eaba dbb1 513b
000000c0: bc8c 013c 0a71 573b c966 543b 2b42 7a3c
000000d0: acfb d73c de21 bf3b 0a4b ef3c 8ad9 d13b
000000e0: 534b 8a3c e023 103c 13bc be3c d545 983b
000000f0: 44eb f33b 0eee 8a3c f76b 9c3c 7e20 e0bb
00000100: 0d25 4cbb fdf4 bc3c 5dfe ed3b a1f8 1abb
00000110: 3446 39ba 8177 213c 33b1 bf3b 804f 18bc
00000120: 63fc e53c 8697 8fbc b7b8 0f3c 0e29 f6ba
00000130: 9ee2 c9bb 26ca a4ba a576 6e3c 8f27 8d3c
00000140: 96f7 86b9 da1e 843c 3d17 3e3d 25b4 d13c
00000150: ba9e afbb 338a a73c 852d bbba 7024 e83c
00000160: d039 85bb d9a8 afba c141 f63b 0b24 a0bb
00000170: 743d 503c 4ba9 1d3c 7e51 a23c ca0f e83c
00000180: 686d 8abb 319c ac3b 47d7 4e3b 5c0e 0f3c
00000190: 2877 e4b7 b334 b4ba eb39 923c 50c5 033c
000001a0: 5f14 d43b bd97 973c 2cd5 b23c b276 5dbb
000001b0: 77b5 fb3b 26a9 913c be2f f73c bef6 a03b
000001c0: c56d 0d3c 95e5 3f3c 891c 633b 5886 333d
000001d0: 12b0 373d 3efe 2e3d 7e82 b83c b019 1b3c
000001e0: ed7e 9b3c 30c7 813b 7586 903c 78a0 9d3c
000001f0: c88f 0537 1663 0f3c 089a 83bc 37bc 12bc
0.016843822 -0.0045004594 -0.004835338 0.013924942 -5.9100814e-05 0.0067114513 -0.0044423877 -0.012007343
-0.009699773 0.008073382 -0.0027579828 0.020947268 0.011626284 -0.0028276348 0.01872852 -0.00017709959
-0.0051743607 -0.0012049929 0.008334753 -0.00020197607 0.031612664 0.0034551509 0.015948283 0.024799759
-0.00050681096 0.029604547 -0.0047830497 -0.0041581197 0.008967369 -0.013161864 0.010208412 -9.3492024e-05
-0.018167628 0.0033821135 0.011286304 0.011179746 0.006247044 -0.0044604833 0.004355991 -0.010712007
0.023864279 -0.002322468 0.014583152 0.0030971242 0.004398789 0.018187545 -0.0017893522 0.003199688
0.007907089 0.0032873773 0.0032409898 0.015274565 0.026365124 0.0058328947 0.029210586 0.0064041065
0.01688162 0.008797616 0.02328304 0.0046469965 0.0074438173 0.016959216 0.01909445 -0.006839811
-0.0031150014 0.023066038 0.0072629885 -0.002364673 -0.0007067651 0.009855152 0.005849981 -0.009296298
0.028074449 -0.017528307 0.008772067 -0.0018780546 -0.006161048 -0.0012572452 0.014554654 0.017230777
-0.00025742938 0.016127992 0.04640888 0.025598595 -0.005359498 0.02045164 -0.0014280534 0.028337687
-0.0040657297 -0.0013401761 0.0075151627 -0.004887109 0.012709964 0.009622882 0.01981425 0.028327841
-0.004224468 0.005267643 0.003156142 0.008731451 -2.7235204e-05 -0.0013748616 0.017849883 0.008042648
0.006472155 0.018504972 0.021830164 -0.0033792672 0.0076815444 0.017780852 0.030174132 0.0049122265
0.008632128 0.011712451 0.003465446 0.043829292 0.044845648 0.042722933 0.022523161 0.009466574
0.018981421 0.0039605126 0.01764224 0.019241557 7.960894e-06 0.008751651 -0.016064659 -0.008956007

weight f4 [128, 128]
00000000: 3cf2 f03d 960e a23d 9f8e 9fbd 8667 933d
00000010: 5b51 563d 9a9f debc 8aaa f3bb 521b c8bd
00000020: d468 953d 0e22 19bd ae3c 183d 6fc3 b1bd
00000030: 0b10 603c eec5 2e3c e4b7 ac30 00bb ff3d
00000040: 04e3 a5bc 5a96 f53c 3083 90bd d6d8 2a3c
00000050: 8e24 54bd 9724 06bd a263 0db8 d5bd 56bc
00000060: 8d64 e53c d5c9 29bd 96af 8c3d 5553 1f3d
00000070: 51d5 9c3b d69d 57b2 8542 f23c be89 463d
00000080: d77a 5bbd 49a9 d83d 4579 69bd 9674 54bb
00000090: 172b e13d 4b79 5ebd b3b1 f7ba 8898 0a3c
000000a0: 0afc d83c b2b2 cb3c eac4 dfb7 21a2 3cb4
000000b0: 1746 b9bb cf3c de3d 86c0 353d 0e5a 0e35
000000c0: c3be 6a3a 8ca0 f63a 1ff5 9bbd 0e0f 173d
000000d0: 6067 c63d 029b 95bd 68fc b9bc e41e 80ba
000000e0: 7a6d 9abc 11b4 ddb5 606b 8cbd 1a02 89bd
000000f0: e3e1 e73c c5e8 883c c292 98bc d1b9 ac3d
00000100: 2f4f ea3d 1ceb 9cbc 5c55 1f3d 4003 63bd
00000110: fcb5 89bc 2b86 9bbc c042 54bd f0bc 31bd
00000120: a00d 4fbc eba4 1a3d a31e 06b0 dc6e 02bd
00000130: cd79 9d3d 8b29 7dbd 144b 4ebd ad63 b73c
00000140: 1575 bf3c 19b1 7fbc 3f3f 00bc 80a6 b43d
00000150: 6cde 223d 6c25 a8bc 00a0 efbb 0769 ca3d
00000160: 9318 3a3c 3e6d bfbd 3ad9 993a c58e 9cba
00000170: f655 df3c b7dc d9bc 805b 963b c979 cabd
00000180: 6157 dabd 743a 503d 488d 143d 6899 983d
00000190: db7e 413d 35db a23c fe7a 42bc e3f1 8f3c
000001a0: 4a42 63bd fd46 92bd 131e cf3c 754b 343d
000001b0: 656a b8bc 97e5 67bd 3605 a5b7 9771 51bb
000001c0: dfc4 debc 2981 a53c e69b d5bb 0174 93b8
000001d0: a555 b03c 24db 683d 45d0 e2b3 fd80 b8bc
000001e0: 64bb d2bc 496c 213d 46a7 273d 781e 443d
000001f0: 8b1d 21bb 73dd 613a e029 cfbd 903f 99bd
00000200: 3bb6 65b8 46da 573c de63 96b4 701c 0a37
00000210: de98 cebb 0987 6abc 8fe2 8abc 0a07 9d33
00000220: c70d 35bc 791a f2b2 cd0c 4c39 9c47 213d
00000230: e689 16bc 9e21 02bc 6054 66b1 f3ef 2a37
00000240: f864 0a3a b8f1 dfbb 2c84 35bb 88e0 4538
00000250: 328b 3234 fea2 c8ba 7f5e b6bb 94c3 0235
00000260: 8c38 2ab5 9c35 1e3d bbef 1fb5 246f e93c
00000270: ef9c e233 efa5 8abc 2080 143d 80ed b6bb
00000280: 1aa6 9cb8 922d 623b f806 d3bc d5d7 8ebb
00000290: ea2f 48bc d2eb 47bb e5c2 ea3c 0b64 4fbc
000002a0: 7fed 073b 23aa 083a dc1e e1b3 3035 dd3c
000002b0: 90a9 65ba e225 9837 5f4d de3c 298d bfbc
000002c0: 9f0e 4b3a 7a47 87bb 7754 fc36 03b8 b6bb
000002d0: 0e3e 9fbc c46c 85ba 0ae5 ebb5 8c6a 4737
000002e0: 004b 503a 732a 3bba 5e56 0c35 7edd 4339
000002f0: cf56 27bc 428d 9bba ea14 733c f6e3 773b
00000300: 2ffb 80b5 26dc 1abc 408d ab3c 3d8f 06bc
00000310: 58d3 42bb e081 cd3c 1ccb de3c e7c9 20bd
00000320: 9304 bfba 8acb abbc acf7 53b1 3312 7335
00000330: 5f2d 353c 5a8a c539 eb40 e63c 639d 8936
00000340: 6dec ef33 a37e 57b5 3fd6 ffba 596b 3337
00000350: 08a0 673b 2341 2bbb 2ba9 573c ac48 33b8
00000360: 4d91 36b6 bcdc f5bb 467c 41bb 3982 1bb1
00000370: ba93 a2bb 2f0b 59bc 8ad2 233d 8e26 bbb4
00000380: 669a ffb8 273b 7bbc d52d 1234 c3d8 0136
00000390: 5082 1039 07c2 053d f3b8 c2b1 e293 f83c
000003a0: f561 cd3b fd45 1135 2ca5 7dbc 4d35 1937
000003b0: 6273 0ab9 7e57 b2b9 121a 1f3c d0bb 173a
000003c0: 8b01 07b0 eeae 503c 5c05 a734 7bd6 a83b
000003d0: c223 453a 60ab c83c 8290 3cb2 0021 5a33
000003e0: fa91 a336 e2cd 043b 5368 4a3c 280f 753c
000003f0: fd0a 82bc 767e 86b3 5b02 aa3a 00b3 96bc
0.117649525 0.07912938 -0.07790875 0.0719748 0.05232368 -0.027175713 -0.0074361013 -0.09770836
0.07295385 -0.037385993 0.037167244 -0.08679854 0.0136757 0.010667307 1.2566912e-09 0.12486839
-0.020249851 0.02997892 -0.07056272 0.010427674 -0.051792674 -0.03274974 -3.370981e-05 -0.013106783
0.028002048 -0.041452248 0.06869428 0.03889783 0.0047861715 -1.2550535e-08 0.029572735 0.048471205
-0.053583946 0.105791636 -0.057000417 -0.0032418123 0.10994547 -0.054314893 -0.0018897563 0.008459218
0.02648737 0.024865482 -2.6675367e-05 -1.7567847e-07 -0.0056541073 0.10851442 0.044373058 5.303017e-07
0.00089548173 0.0018816157 -0.076151125 0.03687959 0.09687686 -0.07304956 -0.022703364 -0.0009774831
-0.01885103 -1.6518189e-06 -0.06856418 -0.06689854 0.028305953 0.016712556 -0.018624667 0.08433879
0.11440884 -0.019155078 0.038899764 -0.05542302 -0.01681041 -0.018984875 -0.05182147 -0.043393075
-0.012637526 0.037754934 -4.8792453e-10 -0.031844005 0.07689247 -0.061807197 -0.05036457 0.022386396
0.023371259 -0.015606188 -0.007827579 0.0882082 0.0397629 -0.020525657 -0.0073127747 0.098833136
0.011358398 -0.09347008 0.0011737712 -0.0011944404 0.027262669 -0.026594503 0.0045885444 -0.0988651
-0.106611975 0.050836995 0.03626755 0.07451135 0.04724012 0.019879917 -0.011870144 0.017571395
-0.05548314 -0.07142446 0.025282895 0.044017274 -0.02251167 -0.05661544 -1.967196e-05 -0.0031958574
-0.027193485 0.02020319 -0.0065188287 -7.031114e-05 0.021525213 0.056849614 -1.0561829e-07 -0.022522444
-0.02572412 0.03940991 0.04093101 0.04788062 -0.002458426 0.00086160674 -0.10115409 -0.07482827
-5.476757e-05 0.013174599 -2.801234e-07 8.232062e-06 -0.0063048443 -0.014314421 -0.016953735 7.3121626e-08
-0.011050648 -2.8184546e-08 0.00019459725 0.039374933 -0.009188151 -0.007942585 -3.3517367e-09 1.0188657e-05
0.0005279328 -0.006834235 -0.0027697189 4.717757e-05 1.6628181e-07 -0.0015307365 -0.005565464 4.871338e-07
-6.341222e-07 0.038625345 -5.958097e-07 0.028495379 1.0552491e-07 -0.016924826 0.036255002 -0.0055825114
-7.4695985e-05 0.0034512025 -0.025760159 -0.0043592253 -0.012218455 -0.003050555 0.028657386 -0.012658129
0.0020740924 0.00052133406 -1.0482992e-07 0.0270029 -0.00087609235 1.8137453e-05 0.027136503 -0.02338274
0.0007746014 -0.0041283937 7.5200182e-06 -0.005576135 -0.01943877 -0.0010179509 -1.7575524e-06 1.1886132e-05
0.0007945746 -0.00071398093 5.2279745e-07 0.00018679161 -0.010213568 -0.001186766 0.014836529 0.0037825084
-9.609847e-07 -0.009451902 0.020941377 -0.008212862 -0.0029728021 0.025086343 0.02719646 -0.03925505
-0.0014573507 -0.020971078 -3.0845326e-09 9.055104e-07 0.011058181 0.00037677848 0.028107127 4.1012404e-06
1.11723104e-07 -8.027802e-07 -0.0019518806 1.0694225e-05 0.0035343189 -0.0026131354 0.013162891 -4.2744607e-05
-2.720469e-06 -0.00750312 -0.0029523536 -2.2629492e-09 -0.004961458 -0.013247295 0.039995708 -3.4859517e-07
-0.000121881065 -0.015333927 1.3613983e-07 1.934867e-06 0.00013781455 0.032655742 -5.6671694e-09 0.030343954
0.006267781 5.4118556e-07 -0.015481275 9.131921e-06 -0.00013203689 -0.00034015992 0.0097108055 0.0005788179
-4.9114907e-10 0.012737019 3.1110073e-07 0.005152521 0.0007520282 0.02449578 -1.09758975e-08 5.0787094e-08
4.8747725e-06 0.0020264317 0.012353974 0.014957227 -0.01587438 -6.2628644e-08 0.0012970673 -0.0183959

weight f4 [1, 128]
00000000: 8a7b 553e 5fbe 34be 9691 8abd d540 563e
00000010: bb32 013d f788 533e d118 edbd fc81 ffbd
00000020: 03f8 293e 10b8 a83d 0864 9ebc d7d9 2cbe
00000030: 3a84 3bbc fba0 65bd b232 2c3e 7e84 e73d
00000040: 4054 48be 45bb ecbc 402e 553e b642 b5bd
00000050: b368 bebc ca6b 5d3d 2124 ed3d 2a7b c8bc
00000060: 865f ab3d 5cf7 cabd dfbe 76be ed0d 24be
00000070: a43b 783e b531 ba3c 7a12 3a3e 6898 4a3d
00000080: f0f9 e43d 0e62 e3bd 13f8 d43d 6bc2 733e
00000090: 7e63 bd3c 90d4 2dbe 9a48 c83d 6cd5 33bd
000000a0: 7190 35be 88a8 3f3e 68aa 1d3e 1d34 49be
000000b0: e2f0 743d 5432 6fbe 4821 e43d 7d7e 80be
000000c0: 032a 103e 9206 53bd a032 9a3d 419e 3abe
000000d0: 6f21 adbc dcea df3d 7d64 b3bd 8ec1 013d
000000e0: 2a6a 27be c095 e43d d6b1 6abe 45bd 323e
000000f0: 9753 4a3e cfba fa3c 6358 a93d 31e6 85be
00000100: 6903 453e 7996 56be 9039 233e 1030 91bd
00000110: ff93 35bd 9382 6e3e 738c e93d bdd9 0fbe
00000120: 215b 0f3c db63 323d 4773 18be e680 273e
00000130: db87 0cbe a2d4 ba3d 7c6a fc3d 5078 203e
00000140: 3bee bc3d 2203 efbb 6bf2 f2bd 6740 523c
00000150: bd56 79be 00b5 e2bb f9a8 7cbd 3b18 7bbc
00000160: 441b 4abc e0ec 303e 7fdc 463e a9cd 20bd
00000170: df88 553d a7e1 863d bf82 fabc a53d 4cbe
00000180: 0898 0abe 370d 2b3e d3e8 f5bd 6603 233d
00000190: 88e1 1abe b445 40be cc15 2b3e c0ef 393e
000001a0: 2496 c53d f462 0dbe 114a 05bd b6c1 093e
000001b0: 1a02 d93d 636d 6d3e cb74 57bd 95b9 2f3d
000001c0: 2c32 93bc d713 c63d 0053 49be 3914 29bd
000001d0: cb9d 4cbe f8cc 2cbe ccda b0bd b091 343e
000001e0: accd d83c 309f ffbd 1b85 4f3e 0bf6 8cbd
000001f0: 1434 46bd 8f20 ae3d 6375 95bd 265f 613e
0.20847908 -0.17650746 -0.067660496 0.20923169 0.03154252 0.20657717 -0.11576999 -0.124759644
0.16598515 0.08238232 -0.019334808 -0.16879974 -0.0114450995 -0.056061726 0.16816214 0.11304568
-0.19563389 -0.02889789 0.20818424 -0.08850615 -0.023243284 0.054057874 0.11579157 -0.024472792
0.08367829 -0.09910461 -0.24096249 -0.16020937 0.24241501 0.02272878 0.18171111 0.049461752
0.11180484 -0.11102687 0.10398879 0.23804633 0.02311873 -0.16975617 0.09779473 -0.043904707
-0.17730881 0.18716633 0.15397036 -0.19648786 0.059800036 -0.23359042 0.111391604 -0.25096503
0.14078526 -0.051519938 0.07529187 -0.18224432 -0.021134106 0.10933468 -0.08759401 0.03167873
-0.16349092 0.11161375 -0.22919402 0.17455013 0.1975845 0.030606655 0.082688116 -0.26152185
0.19239582 -0.20955838 0.15939927 -0.07089245 -0.044330593 0.23291998 0.11403742 -0.14047904
0.008749754 0.04355226 -0.14887725 0.16357765 -0.137237 0.09122588 0.12324998 0.15670896
0.09225126 -0.0072940746 -0.11862644 0.0128327375 -0.24349494 -0.0069185495 -0.061684582 -0.015325601
-0.012335602 0.1727786 0.1942005 -0.039258633 0.052132484 0.065860085 -0.030579923 -0.1994539
-0.13534558 0.1670426 -0.12007298 0.039798163 -0.15125096 -0.1877659 0.16707534 0.18157864
0.09647778 -0.13807279 -0.03254134 0.13452801 0.10596104 0.23186259 -0.052601617 0.042901594
-0.01796826 0.09671753 -0.19660568 -0.04127905 -0.19982068 -0.16875064 -0.08635482 0.176337
0.02646526 -0.124815345 0.2026562 -0.068828665 -0.04838951 0.08502304 -0.0729778 0.22008952

weight f4 [128, 256]
00000000: 4f62 48b0 c395 1836 5701 c4b0 595f 3e30
00000010: 719a f7b8 61dd d22e 9c79 2faf e4d6 39b9
00000020: ee58 0d31 0b85 26b9 c5c7 be30 7565 8139
00000030: bcaf 6cb1 e11f e82f 1f35 04b3 801e 92b0
00000040: 00ce e2b3 86f3 28b4 1ba7 4eb1 eb04 dfb3
00000050: b36f 032e 2478 80b1 48e4 c3b1 c256 3935
00000060: 58db dfb3 3ca9 23ae 334e 6ab1 a951 4232
00000070: ac7f be31 1e3a 35b2 43c5 0231 d18b 0db5
00000080: da6d 4f37 9f6f 3db5 1304 3c30 76c0 452e
00000090: 5371 09af c48c 8d2e 2bf8 e734 2b35 e230
000000a0: 4e33 83b8 1533 9832 e179 a631 4a6e 8039
000000b0: 84dc 39b4 824e 1bb9 5b3a e534 e679 0d34
000000c0: 662b ac31 e882 84b9 236a 1c30 3b3e 2e30
000000d0: 8ee2 69b8 c421 bb2f 00db ac31 fa2d 36af
000000e0: 8350 00b3 bfb1 ccb1 c7e5 6730 b79a c031
000000f0: 3e79 e533 0567 f8b7 b70c 6337 708a 7db7
00000100: 9e1e 6638 6914 78b6 42b4 7232 4b6e bbb3
00000110: f044 e6b0 4bf9 c333 f635 3a31 7305 1c39
00000120: d973 f8b3 3faf d1b1 6fe4 9d2e 9f92 1db2
00000130: 4be6 f036 8a6c 2438 f19a 79b2 675b 1132
00000140: ab46 0bb5 1101 55b0 3a2f 412f e2a6 bdb2
00000150: 80b1 1332 3773 9fb7 5207 b134 6322 1131
00000160: 89ef 8238 71d5 1232 9e36 06b1 3a1b cd38
00000170: a165 10b4 6ac5 7039 6515 2cb0 cae2 32b9
00000180: 6abd c8b1 d8b5 91b0 55b1 1332 e1a4 9337
00000190: 0a32 5fb9 56bb 0031 1957 c732 3d32 9033
000001a0: 6c08 0433 3bc9 df38 1bc1 adb3 7f08 2535
000001b0: ab9a 38b2 22ad 0bb2 601b bab2 8cae 92b2
000001c0: 28b9 e2b6 5fa1 cc33 cd53 74b2 9c84 20b2
000001d0: ee6d 9bb6 9d60 0c39 6cde ba33 f8b0 b0b1
000001e0: 1264 a02f 7512 2cb9 b6e6 3433 4a77 63b1
000001f0: 499f 0632 0525 aeb1 ed6c faaf 938b 2e39
00000200: 36ea 89b2 cf58 f737 8102 6931 daa5 87b0
00000210: 090b aa30 0e87 d2b2 714f bdb8 834e c7b1
00000220: 3306 c4b5 8d3e 29b5 8e58 1ab1 7519 aa32
00000230: e3f9 01b3 cd9e 8339 35af 2bb5 3d18 12b2
00000240: 05ff a932 e444 0ab0 0ae3 4c30 f2ce f136
00000250: 1245 90b6 9e92 de32 386d ec32 12fe 91b1
00000260: f4bf 7732 6df5 13b0 8cad 6636 defe 23b1
00000270: b1d0 0931 44fe 1731 5ba1 12b2 532a aab0
00000280: 1a73 beb8 799f 9239 dedf 03b1 666d c731
00000290: c866 0433 68a8 1331 9984 dcb3 9cbe 012f
000002a0: c2d4 01b8 fdb1 0931 00aa c831 cd8d 2eb9
000002b0: 15ef 47b1 03f5 b2b1 9e64 f430 8ee8 932e
000002c0: 20b9 4d38 2cd6 04b5 d25d ea38 3f6e f02f
000002d0: d474 19b5 f434 8eb2 cc19 0db8 b4ea 1fb1
000002e0: 5f30 95b1 2275 9031 9112 1cb0 11c0 f634
000002f0: 6058 04b9 7b82 eb31 5f6e 13b2 df4f 2139
00000300: 4c28 6eb9 af65 8939 b34d 04af d0b2 68b2
00000310: d557 3eb6 1dd4 3e31 e105 812f 811f 4830
00000320: a9a1 8731 727c 1bb9 fdba 952f 277b 7a32
00000330: 5506 6130 dbe0 8830 de1c b5b3 5ac7 9232
00000340: 9541 c2b7 cc27 0235 cddf a22f 5070 0832
00000350: ea95 9c31 ab86 a734 bae7 f831 a661 9331
00000360: d3db 3eb1 8155 a2b1 57a7 7b32 39b7 cb33
00000370: 5888 7db1 1738 0534 315c dcb0 f404 85b9
00000380: 1363 2437 6eeb 0c33 acdf 462f 0b00 c9b3
00000390: 4f95 552f dcf4 3032 84a9 16b1 d856 46b1
000003a0: a0dc 8cb1 9980 46b0 f495 8c30 618d f6b5
000003b0: c5a3 8f30 5f26 9831 b763 bc31 a6bc 8430
000003c0: 65b6 9b31 a68f 38b5 f9bf c831 c0df 9b30
000003d0: 3012 b4b3 e6b1 7fb9 f006 e0b3 6842 10b9
000003e0: 8518 ad2e b195 bfb1 75af 6ab8 87a0 06b3
000003f0: c22c 89b6 fdca 3fb1 e9fa 07b1 18c1 59b6
-7.289928e-10 2.2736938e-06 -1.4261258e-09 6.9257095e-10 -0.00011806645 9.589019e-11 -1.5959362e-10 -0.00017723028
2.0568751e-09 -0.00015880556 1.3881097e-09 0.0002468039 -3.4442413e-09 4.2223205e-10 -3.078196e-08 -1.0631567e-09
-1.0561416e-07 -1.5734813e-07 -3.0071934e-09 -1.0385141e-07 2.988516e-11 -3.7389487e-09 -5.7011995e-09 6.904412e-07
-1.0424145e-07 -3.721222e-11 -3.4095933e-09 1.1310854e-08 5.5442424e-09 -1.0548801e-08 1.902962e-09 -5.2730053e-07
1.2363738e-05 -7.0570417e-07 6.839979e-10 4.4963554e-11 -1.2500338e-10 6.4369426e-11 4.320767e-07 1.6458775e-09
-6.256123e-05 1.7718358e-08 4.845092e-09 0.00024496234 -1.7309691e-07 -0.00014811198 4.2697033e-07 1.3175995e-07
5.0107927e-09 -0.00025274535 5.69033e-10 6.3389266e-10 -5.5762524e-05 3.4039094e-10 5.0307563e-09 -1.6569138e-10
-2.9875547e-08 -5.957389e-09 8.4363844e-10 5.6055245e-09 1.0685697e-07 -2.9611876e-05 1.3533215e-05 -1.5112208e-05
5.4864788e-05 -3.696676e-06 1.412724e-08 -8.727928e-08 -1.6754296e-09 9.125741e-08 2.7097236e-09 0.0001487935
-1.15694725e-07 -6.1026237e-09 7.1801114e-11 -9.1719405e-09 7.179367e-06 3.9201732e-05 -1.4528937e-08 8.460893e-09
-5.188437e-07 -7.7490464e-10 1.7570026e-10 -2.2078385e-08 8.596885e-09 -1.9007928e-05 3.2974145e-07 2.1119824e-09
6.2435e-05 8.5468495e-09 -1.9530613e-09 9.780233e-05 -1.3448017e-07 0.00022961726 -6.260364e-10 -0.00017059888
-5.8423e-09 -1.0601822e-09 8.596847e-09 1.7600543e-05 -0.00021285578 1.873294e-09 2.3206256e-08 6.714661e-08
3.0741305e-08 0.00010670951 -8.091066e-08 6.1479653e-07 -1.0745377e-08 -8.130231e-09 -2.1665699e-08 -1.7076012e-08
-6.75688e-06 9.5288435e-08 -1.4221723e-08 -9.343378e-09 -4.6321575e-06 0.00013387432 8.701758e-08 -5.142393e-09
2.9174935e-10 -0.00016410074 4.2119346e-08 -3.3100656e-09 7.836044e-09 -5.068275e-09 -4.5552132e-10 0.00016645929
-1.6055406e-08 2.948605e-05 3.3907386e-09 -9.869681e-10 1.2372264e-09 -2.4508633e-08 -9.0270194e-05 -5.800588e-09
-1.4604942e-06 -6.304843e-07 -2.2460287e-09 1.9802181e-08 -3.0262424e-08 0.00025104583 -6.3957424e-07 -8.50383e-09
1.9790159e-08 -5.0302007e-10 7.453741e-10 7.2064513e-06 -4.2995753e-06 2.5910875e-08 2.7523683e-08 -4.24894e-09
1.4420937e-08 -5.382706e-10 3.4373688e-06 -2.3864497e-09 2.0054751e-09 2.2117925e-09 -8.5350065e-09 -1.2381157e-09
-9.081345e-05 0.00027966106 -1.9190263e-09 5.8040994e-09 3.0827124e-08 2.1487043e-09 -1.0268668e-07 1.18002e-10
-3.0954143e-05 2.0037298e-09 5.840093e-09 -0.00016646758 -2.9094214e-09 -5.2083364e-09 1.7781934e-09 6.726096e-11
4.904822e-05 -4.9485493e-07 0.00011175465 4.373408e-10 -5.716695e-07 -1.6555056e-08 -3.3641045e-05 -2.3270958e-09
-4.34197e-09 4.204268e-09 -5.6778854e-10 4.5960817e-07 -0.00012621423 6.854234e-09 -8.581622e-09 0.00015383911
-0.0002271246 0.00026206436 -1.2032934e-10 -1.3544835e-08 -2.8363331e-06 2.7769211e-09 2.346914e-10 7.2804346e-10
3.9473957e-09 -0.00014828311 2.7235805e-10 1.4579917e-08 8.186352e-10 9.95921e-10 -8.43372e-08 1.7087292e-08
-2.3157141e-05 4.8486686e-07 2.9626648e-10 7.941779e-09 4.557241e-09 3.1204158e-07 7.244094e-09 4.2893644e-09
-2.7773595e-09 -4.724541e-09 1.4648172e-08 9.486252e-08 -3.6893848e-09 1.2406996e-07 -1.6033309e-09 -0.00025371427
9.798229e-06 3.2810412e-08 1.808746e-10 -9.3598e-08 1.9425282e-10 1.0300223e-08 -2.1924231e-09 -2.8862157e-09
-4.0996184e-09 -7.221473e-10 1.022896e-09 -1.8369575e-06 1.0451165e-09 4.4281445e-09 5.4828564e-09 9.657881e-10
4.5318296e-09 -6.875438e-07 5.842591e-09 1.1341328e-09 -8.3852115e-08 -0.00024384967 -1.0432075e-07 -0.00013757648
7.871485e-11 -5.5758496e-09 -5.5953355e-05 -3.1345305e-08 -4.0881287e-06 -2.7909544e-09 -1.9787711e-09 -3.2447915e-06

bias f4 [128]
00000000: b8cb 8eb8 6a73 733d 5dd9 323c fdf0 393d
00000010: 3561 11bc 352d 783b ff01 cb3c a77b b03c
00000020: 4a0b 8cbc 46b2 8aba 8535 50bc 5280 933c
00000030: a929 adbc b2e9 503b 6309 57bc 37f9 53bb
00000040: e5c7 023c 011d 583d a5af 293d ce78 c5bb
00000050: 4d6c 803c 653c 23bb 7ea2 a53c 42ef 713d
00000060: 18e0 7fbc 79d3 03b9 5bb1 303d 9de5 083b
00000070: a6bd c3bc aac5 82b9 81c4 2ebc faad 273c
00000080: 4491 243d d30e a13c 0354 cabb 3724 80ba
00000090: 9878 f6ba 5b26 eaba 819f 973d 9d61 cebb
000000a0: a7e3 cfba c171 8c3d f2ed 733c 6b88 533d
000000b0: 0dcf 103d 1863 703d a9a5 073c a7ba 673d
000000c0: 0a9e f23c 3c91 893d cc5a 0b3d 0541 fb3c
000000d0: 9132 ccbb 5c8a 7ebb 2900 503d f557 37bc
000000e0: 728f ca3c 2003 3f3d 6de0 3f3c 8d5c 02bc
000000f0: 1b61 42bb 3ba9 f7ba 65a7 1c3d cc4e cabb
00000100: 84f0 ef3c da80 c3bb af02 603d 0a7b 0ebc
00000110: 0fcb 81b9 f398 473d 0ea6 cdbb 89fb 6e3c
00000120: 8a2f 73bb 7476 ab3c 10a0 1d3d ab6a 7cbd
00000130: 98b9 f03c da6b 86bb 7a2d 1739 001d 0fbc
00000140: cd46 4dbb 5137 a63c 96e3 c3bb ad37 103c
00000150: c292 953a bbb6 e0bb 4a3f 813d 3b04 3f3d
00000160: cba1 1b3d 2a2e 04bc 368e 963d f2b4 45bb
00000170: 80d9 503d 226b 783d 6cde 923d a34a 653d
00000180: caf7 683d 6eba 723c d72d ecbb f329 59b9
00000190: 79ed 853d 9b39 323c 35a1 87bc 0d66 4ebb
000001a0: 56e5 4e3d 5636 193c a118 943c ad22 5bb9
000001b0: fb73 e3ba 5160 283d a6a5 79b9 495f 8bba
000001c0: 02f6 7fbb fcca db3c 71d8 2fbc 600a 843d
000001d0: e4eb 503d 1b5b 713d 072e 93b9 bebe 13bc
000001e0: f88c 403d ac8f e4bb c7be d2bb e2f5 a1bb
000001f0: 23d0 be3c 308c 0ebd 1587 8cb9 f202 ee3c
-6.809033e-05 0.05943624 0.010916081 0.04539584 -0.008873274 0.0037868742 0.024781225 0.021543337
-0.017095227 -0.0010581694 -0.012708073 0.018005524 -0.02113803 0.0031877575 -0.013124797 -0.0032344589
0.007982229 0.052762035 0.041427273 -0.006026364 0.015676642 -0.0024907824 0.020219084 0.059066065
-0.015617393 -0.00012571913 0.04313789 0.0020888813 -0.023894142 -0.00024942803 -0.010666967 0.01023435
0.0401776 0.019660389 -0.0061745658 -0.0009776418 -0.001880425 -0.0017864214 0.0740347 -0.0062982575
-0.0015860692 0.06857634 0.014888274 0.05164377 0.03535371 0.058688253 0.008279243 0.05657449
0.029616375 0.067171544 0.034022138 0.030670652 -0.006231614 -0.0038839793 0.050781403 -0.011190404
0.024726603 0.04663384 0.011711222 -0.007956636 -0.002965993 -0.0018895039 0.038245577 -0.006173944
0.029289491 -0.005966288 0.05469006 -0.008696327 -0.00024756088 0.048729848 -0.006275899 0.014586338
-0.0037107193 0.020930506 0.038482726 -0.061625164 0.029385373 -0.0041022124 0.00014417424 -0.0087349415
-0.0031322718 0.020290049 -0.005978058 0.008802337 0.0011411535 -0.0068577207 0.063108996 0.046634894
0.037996095 -0.008067647 0.07351343 -0.0030167666 0.050988674 0.060649045 0.0717133 0.055979382
0.056876935 0.014814956 -0.007207613 -0.0002071036 0.06539435 0.010877992 -0.016556362 -0.0031493932
0.05051168 0.009351334 0.01807815 -0.00020898385 -0.001735329 0.04110748 -0.000238082 -0.0010633256
-0.0039056544 0.026830189 -0.010732756 0.064472914 0.051006213 0.058924776 -0.00028072318 -0.009017644
0.04700944 -0.006975135 -0.006431434 -0.0049426416 0.023292607 -0.034801662 -0.00026803525 0.029054139

weight f4 [64, 128]
00000000: 4e88 1ab7 1eda 23bd a04d a5bc fa1b 2bbd
00000010: 6b3a e235 8066 8a39 9ffb 32bd 2c16 933d
00000020: 7faf c630 b2ca 4f3b a65c 74bb 2627 8c3d
00000030: 4489 173d 1bd3 36bd 8184 093c 8986 60b2
00000040: 1355 fd3b eb60 a9bc fd80 a4bb 287b 133d
00000050: cd09 463d dbb9 af3d 9145 37bd ded9 7f3c
00000060: f4cb ba3d e60d bcad 5889 7bbd ea11 c43d
00000070: fbd6 07bc c98e 7bb3 0fa0 b6bd 55ea 693d
00000080: 50e1 813c 1edc 033c 4e48 46bb 1970 debc
00000090: abb1 3dbb 6d7e 3535 342c 30bd f048 4e31
000000a0: dee5 2336 7cde 9ebd ff2e b93d 193a 93bd
000000b0: 316a 57bd c295 393c 53bc bb3d b318 5bbd
000000c0: b82a 63bd bb34 4fbb 0b10 e93c 2175 30bc
000000d0: e7ea 58b4 e3a3 bb33 7bde e03d 60bd 1830
000000e0: c750 a53d cdc3 10bd ed09 ee3c 11e3 1135
000000f0: b2fd dd3d a258 913a 09b1 b53d d513 c738
00000100: 3fac c03c 998b 1bbd 1d7e 8bbc 41c0 bcbc
00000110: 43d1 1232 99e0 32bd 27e2 e1b0 478b 81bb
00000120: 01e5 b4b3 619b 2ebd 45df 84bd 34aa bebd
00000130: 64d5 42bd e68c 9139 fedb 123c f28d 83bb
00000140: a6de feaf 7e03 a63c 565e 6f3b e92a f7ba
00000150: b798 d73a 0658 17b1 1990 a5bd 6497 8bbd
00000160: 50f3 c63c 1677 e53a 61bc acbd 65ad 00b2
00000170: d2bf 2bbd 7d59 95bd fbf3 97bd 7d22 e2bc
00000180: cac5 93bd cc70 bb3d 974c 4235 1afa 1d3c
00000190: bc66 d73b b96c e5bc 9a31 d839 d474 a530
000001a0: d36b b1bd 98c3 223d 62c3 653d 9f19 aa30
000001b0: 8229 6d3b 7305 69bd a9ca 3bb5 7a52 f6ba
000001c0: 2a6c 1c3d 280f c73d 695c a1bc 905a df3a
000001d0: dbff 53bd 116d 9abc 29df a433 3c37 17bc
000001e0: 0a62 53bd d750 843d dd57 cb3d 14f2 15ba
000001f0: eebd 4fbd baff d63c 45e0 d1b3 ff5f c03d
00000200: 7bb2 06b8 8b90 67bc 187b 6b3c 9eea 0dbd
00000210: d1d2 96ba 17db f2bc 7e91 61bd 2485 403d
00000220: 2a89 4e31 bb16 3738 b0c3 8d3c 0566 123d
00000230: 352b a43d a1da 9a3c 4aca a53d 68d7 c332
00000240: 8093 70bb 4a2c 60bd 0636 d33b 8fd9 e73d
00000250: 9f61 12bd f029 e93d 988b 713c bb18 e6bc
00000260: d74c 463c f6c6 1139 1ce8 d4bd 326f 06bd
00000270: f2a5 db3a 58be 6a39 1799 93ba 8bf5 093d
00000280: 799a a5bd 26dc 7abd bbdf 44b3 c4fa 28bd
00000290: f018 05b8 3ae1 3935 d87b 29ba 1744 e6b4
000002a0: 2bbd 2fba 339a 4cbd 377e c4bc f6f3 18be
000002b0: 753b 30bc 5e64 e23d 53f8 9b3b 82b8 87bc
000002c0: 8ede ae3d d163 763d d1ab 773d f8af 8cbd
000002d0: 113b dab7 fbc5 f039 3b13 e43c b501 4fba
000002e0: c343 b43d af61 ab3d 64e0 fbbc 773d c831
000002f0: 8ffa 833d 7a7a 973b 3536 da3c b8b0 85ba
00000300: 6ef9 5abc 2c75 6a3d f84f af3d b1a2 c8bc
00000310: ff90 5132 0742 3cbd b627 273b ac48 c33c
00000320: 9e3d 2437 e03d 0bbc 480a c43a 4b1e eabd
00000330: edb1 8abd b44c 9239 528c b83b afcd 653b
00000340: edec 66bb 4c50 e5bc 088f 4cbd ef25 993b
00000350: e2b7 cbbc 0c9b 0539 a651 4dbd f61e 9dbd
00000360: 6a7b a2bb 2328 f7b2 32aa 9abd ce0f f03a
00000370: f55b 1b3d ad49 98bd 36ff 8abd 4dcf 84bd
00000380: af9e bcbd 8ef3 443d a3d3 8539 2746 b33b
00000390: c88f 61bd 5e87 ab3d 45c3 04b5 b677 bab0
000003a0: 1658 56bd 34a4 353d 2917 b63d 9bf6 4232
000003b0: 6a33 5bbb 12f9 1bbd 1acb e233 74f5 6f3a
000003c0: c4f3 a53d c581 2c3c cc73 8fbd 3e3a 93bd
000003d0: ad78 d4bd 7ed8 8dbd bc8b 9eaf 7e43 603c
000003e0: 5d0e ab3d 063c d93d fb33 023b f0ff 1039
000003f0: 01a5 8fbd 680e 8e3d 3f36 6bb9 6078 02bd
-9.210851e-06 -0.040002935 -0.020178616 -0.041774727 1.6855314e-06 0.0002639778 -0.043696996 0.07181963
1.4456275e-09 0.003170651 -0.0037286668 0.068434045 0.03699614 -0.04463492 0.008393408 -1.3069106e-08
0.007731089 -0.020676097 -0.0050202594 0.036006123 0.04834919 0.08580371 -0.044744078 0.015615908
0.09120932 -2.1379298e-11 -0.061410278 0.09573729 -0.008291001 -5.8570354e-08 -0.089172475 0.057108242
0.015854508 0.0080480855 -0.00302555 -0.027153062 -0.002894501 6.761173e-07 -0.043010905 3.0018406e-09
2.4422693e-06 -0.07757279 0.09042167 -0.071888156 -0.052591506 0.011327209 0.09166779 -0.053490352
-0.05546066 -0.0031617123 0.028450033 -0.010770113 -2.0202025e-07 8.737677e-08 0.10979935 5.5566396e-10
0.08072048 -0.03534298 0.029057467 5.4347134e-07 0.10839404 0.0011089037 0.088716574 9.4927535e-05
0.023519633 -0.037974928 -0.017027909 -0.023040893 8.545899e-09 -0.043671224 -1.6435181e-09 -0.0039533707
-8.423559e-08 -0.04262865 -0.06487898 -0.093098074 -0.047566786 0.00027761533 0.008963583 -0.004014724
-4.6360532e-10 0.020265337 0.0036524734 -0.0018857393 0.0016448711 -2.2023428e-09 -0.08084125 -0.06815985
0.024285942 0.0017506804 -0.08434368 -7.490006e-09 -0.04193098 -0.07292459 -0.074195825 -0.027604336
-0.0721546 0.09152374 7.2382085e-07 0.009642148 0.006573526 -0.028005945 0.00041235687 1.2038535e-09
-0.08663144 0.039737314 0.056094535 1.237641e-09 0.003618807 -0.056889962 -6.995784e-07 -0.001879289
0.03818909 0.09719688 -0.019697385 0.001704054 -0.051757675 -0.018850835 7.677438e-08 -0.0092294775
-0.05160717 0.064607315 0.09928868 -0.00057199714 -0.05071824 0.026244987 -9.773115e-08 0.0939331
-3.2114312e-05 -0.014133583 0.01437261 -0.034647577 -0.001150692 -0.029645486 -0.055070393 0.047001973
3.0054914e-09 4.365177e-05 0.017305225 0.035741825 0.080160536 0.018903079 0.08095224 2.2798943e-08
-0.003670901 -0.054729737 0.006445649 0.11320793 -0.03573763 0.11384952 0.014742754 -0.028087964
0.012103281 0.00013902396 -0.10395834 -0.032820888 0.001675783 0.00022386888 -0.0011260834 0.033681434
-0.08086104 -0.061245106 -4.5838288e-08 -0.041254774 -3.1732896e-05 6.924562e-07 -0.00064652925 -4.289038e-07
-0.00067039084 -0.049951743 -0.023985965 -0.14936814 -0.010756363 0.110543 0.004759827 -0.016567472
0.08538543 0.060153786 0.06046659 -0.06869501 -2.601513e-05 0.00045923874 0.027841201 -0.00078966777
0.08801987 0.08368241 -0.030746646 5.827754e-09 0.06444275 0.0046227546 0.026637176 -0.0010199761
-0.013365133 0.05724065 0.08560175 -0.02449164 1.2198369e-08 -0.045961406 0.0025505847 0.023838364
9.789508e-06 -0.008498639 0.0014956677 -0.11431559 -0.06772218 0.00027904438 0.005631962 0.0035065224
-0.0035236434 -0.02799239 -0.049941093 0.0046737115 -0.024867956 0.00012741628 -0.050126694 -0.07671921
-0.0049585598 -2.8772837e-08 -0.075519934 0.0018315257 0.037929494 -0.074359275 -0.06786959 -0.06484852
-0.09209954 0.048083834 0.00025525418 0.0054710093 -0.05506876 0.083754286 -4.9457987e-07 -1.3567305e-09
-0.0523301 0.04434605 0.08891136 1.1348358e-08 -0.0033447393 -0.03807933 1.0560889e-07 0.0009153702
0.08103135 0.010528986 -0.070045084 -0.07188843 -0.103745796 -0.06926058 -2.883932e-10 0.013687966
0.08352349 0.10607152 0.0019867409 0.00013828254 -0.07013894 0.069363415 -0.00022431555 -0.03185308

bias f4 [64]
00000000: 8c1b 523c b534 193d 4482 a83d 8b89 8ebc
00000010: caba b93d 2499 2fbd 01fc 4fbd d792 b33d
00000020: 7ab4 613d 85f9 ffbb 74a5 82bd 085a 873d
00000030: 6f8c d9bc 9c3a 643d 13c3 a83c 4cad c1bb
00000040: 593a e7bc ed0f 60bd 2246 373c ce73 7d3c
00000050: 5507 c93b 2097 6d3d f654 863d 99a0 a83d
00000060: 7c56 1f3c 4e6d ad3d 4775 f53c 84a9 933d
00000070: 8e2f 95bd 7c78 e5bb 71d7 fdbc e057 983c
00000080: 9ee0 11bb cd2a f43b 4f5e d2bc 9a4a 003c
00000090: ed19 09bd 25b2 3dbd 50e1 b43c c110 d6bb
000000a0: 71f1 1c3d cb76 a93d 5943 473d c341 1bbd
000000b0: b682 9dbc 7488 adbc f06f 713b ca2d a73b
000000c0: 71ec 763d 26b8 ac3d d440 a63d 0aef 80bd
000000d0: df69 6c3d 3781 5bbb 6957 6dbc 7497 ffbc
000000e0: fddc 963d d449 edbc 4113 23bd 05c9 bf3d
000000f0: 40d2 b03d 9f51 643d 4dc8 753d 1695 32bc
0.0128239505 0.03740378 0.08227971 -0.01739957 0.0906883 -0.042870656 -0.05077744 0.08768242
0.055103756 -0.0078117275 -0.06379214 0.06608969 -0.026556222 0.055719957 0.020600831 -0.005910551
-0.028226065 -0.054702688 0.011186155 0.0154695045 0.0061349072 0.058005452 0.06559174 0.082337566
0.009725209 0.08468114 0.029963149 0.07210067 -0.07284461 -0.0070028882 -0.03098652 0.01859659
-0.0022259126 0.0074513913 -0.025679735 0.007830286 -0.03347199 -0.04631247 0.022080094 -0.006532759
0.038316194 0.08274611 0.048648212 -0.037904512 -0.019227367 -0.02118323 0.0036840402 0.005101894
0.06028408 0.08433561 0.08117834 -0.06295593 0.057718154 -0.0033493766 -0.014486172 -0.031200148
0.07366369 -0.028965868 -0.039813284 0.09364513 0.08633852 0.055741902 0.060005475 -0.010899803
