outputs/NCI1_Glo/model.pth (torch, 598998 bytes, 13 tensors)

bias f4 [128]
0	0xbb44d834	-0.0030036094
1	0x3bb7b736	0.0056065572
2	0xbc056fd6	-0.00814434
3	0x3c8c216a	0.017105777
4	0x3cffc009	0.0312195
5	0x3b4354cd	0.0029805184
6	0x3d13fcb6	0.036129676
7	0x3d029bf6	0.031887017
8	0x3d13401b	0.035949808
9	0x3c7bdab0	0.015371963
10	0x3c5dc9c9	0.013536879
11	0x3c144a76	0.009050956
12	0x3d1c556f	0.038167413
13	0xbc8a47df	-0.016879974
14	0x3c2e1913	0.010626095
15	0x3c2d82de	0.010590283
16	0xbab8b6a0	-0.0014092512
17	0x3ad76d0f	0.00164357
18	0x3c3f7f93	0.011688131
19	0x3d0f9390	0.035052836
20	0x3ba16cb1	0.004926287
21	0x3d5c420d	0.05377393
22	0x3d52715b	0.051377635
23	0x3cd22cde	0.02565616
24	0xbd3202e2	-0.04345978
25	0xbcf98857	-0.03046052
26	0x3d77eab6	0.060526572
27	0x3cb5b7bf	0.022182344
28	0x3cfbdff6	0.030746441
29	0x3c5e8214	0.013580818
30	0x3d371782	0.044700153
31	0xbbb67131	-0.0055676927
32	0xbc13fb9e	-0.009032158
33	0x3ce34358	0.027742073
34	0x3c97671c	0.018481784
35	0xbb4ce83d	-0.0031266354
36	0x3ca3cb8e	0.019994523
37	0xbbb0f6a1	-0.005400494
38	0x3c5601b2	0.013061928
39	0xbbae7a24	-0.005324619
40	0x3c8d6275	0.017258862
41	0x3c75719b	0.014980699
42	0x3c452281	0.012032152
43	0x3ce067cd	0.027393246
44	0x3d0f43b1	0.034976665
45	0x3c8e4e5f	0.017371355
46	0xbc456aea	-0.012049416
47	0x399ba0f8	0.00029683835
48	0x3d3613c7	0.044452455
49	0x3cf95199	0.030434417
50	0x3cafcf5d	0.021461183
51	0x3cfd2f39	0.030906307
52	0x3c7e33cd	0.01551528
53	0xb9c534c9	-0.00037614096
54	0xbb87585d	-0.004130407
55	0x3c4b017d	0.012390492
56	0x3d53431b	0.05157767
57	0xbc97ee1e	-0.01854616
58	0xbba67237	-0.0050795334
59	0xbb7fd777	-0.003903834
60	0xbb02b347	-0.0019943283
61	0x3d04689e	0.032326333
62	0xbcbfb718	-0.023402736
63	0x3bf46d71	0.0074593355
64	0x3bc22db7	0.00592586
65	0x3ce569df	0.028004585
66	0x3cf7ec94	0.030264176
67	0x3b43e219	0.0029889403
68	0xbbfb96f1	-0.0076779057
69	0x3c8abcfe	0.016935822
70	0x3b463974	0.0030246647
71	0x3c3787c3	0.011201802
72	0xbb42695e	-0.0029664855
73	0x3d433ee3	0.047667395
74	0x3cd0281f	0.025409756
75	0x3d6064b1	0.054783527
76	0x3d22c8bc	0.039742216
77	0x3ba0cd9e	0.004907324
78	0xbbfdd3a2	-0.007746176
79	0x3d326f35	0.043563087
80	0x3d135403	0.03596879
81	0xbca35679	-0.019938694
82	0x3d25f33d	0.040515173
83	0x3cf7d19d	0.030251319
84	0x3c6fb4f4	0.014630545
85	0x3d186d52	0.03721363
86	0x3d3505c0	0.044194937
87	0x3b0836d5	0.0020784636
88	0x3d455eba	0.04818604
89	0xbc9914d0	-0.018686682
90	0x3d09283e	0.033485644
91	0x3d4d1fca	0.050079145
92	0x3c9fc4a3	0.019502943
93	0x3abf96dc	0.0014617103
94	0x3c9f82f0	0.019471616
95	0x3ce50844	0.027958043
96	0x3c78910c	0.015171301
97	0x3d8a1b18	0.06743449
98	0xbc4d6a1c	-0.0125375055
99	0x3c56898b	0.013094316
100	0x3d365b18	0.044520468
101	0x3c6a4bc1	0.014300288
102	0x3be7980a	0.007067685
103	0x3aa58070	0.0012626778
104	0x3ca44995	0.020054618
105	0x3c1fa47d	0.009743807
106	0x3abd6e19	0.0014452367
107	0xbc967be9	-0.018369632
108	0x3ca65914	0.020306148
109	0x3c26d72a	0.010183135
110	0x3ca26c2a	0.019826967
111	0x3c13b14e	0.009014441
112	0x3d168e01	0.03675652
113	0x3d95a1cd	0.07306252
114	0x3c75a94a	0.014993975
115	0xbb2dcf5c	-0.00265213
116	0x3c18d1db	0.009327377
117	0x39cc8690	0.0003901017
118	0x3ba12f50	0.00491897
119	0x3bb61f14	0.005557904
120	0xbb85895c	-0.0040752124
121	0x3bb741b7	0.0055925506
122	0x3d17f81a	0.037101842
123	0x3c482813	0.012216586
124	0xb99c767a	-0.0002984291
125	0xbc9160b0	-0.0177463
126	0x3cd96189	0.026535766
127	0x3b7e8f41	0.003884271

weight f4 [128, 37]
0	0x3d202876	0.039101087
1	0x3e2fdb10	0.1717341
2	0x3dd8736b	0.10568889
3	0xbe320de9	-0.17388119
4	0x3c2fa4a5	0.010720407
5	0x3d94beaf	0.072629325
6	0xbbe302b2	-0.0069278115
7	0x3c512093	0.012764114
8	0x3e45e848	0.1932689
9	0xbc091167	-0.008365965
10	0xbc086533	-0.008324909
11	0xbc250d6b	-0.010074
12	0xbad6f73e	-0.0016400588
13	0x3d728dba	0.059217192
14	0x3bbab8b9	0.00569829
15	0x3bf7d287	0.0075629386
16	0xbd90147a	-0.070351556
17	0xbbb3bfc8	-0.0054855086
18	0x3df1d899	0.11808891
19	0x3e16d4f1	0.14729668
20	0x3d542689	0.051794562
21	0xbe2fa243	-0.17151742
22	0xb9921610	-0.00027863728
23	0x261e7c8d	5.498606e-16
24	0xbcda3f90	-0.026641637
25	0x3e429f14	0.19005996
26	0xbb1c3817	-0.0023837143
27	0x3b237d77	0.002494661
28	0xbb5cb6e4	-0.0033678347
29	0xbc370cb8	-0.011172466
30	0xba57b48e	-0.0008228504
31	0x3d1aded4	0.03781016
32	0xbb3d63b9	-0.002889855
33	0xbb346902	-0.002752841
34	0x3a576e78	0.000821806
35	0x39f00db0	0.00045786565
36	0xbb986397	-0.004650544
37	0x3e69e7a4	0.2284227
38	0xbe8d60bb	-0.27612862
39	0xbbbce02c	-0.005764028
40	0x3dbfb483	0.09360602
41	0x3d7f77f2	0.06237025
42	0xbe1a2eb2	-0.15056875
43	0x3d080418	0.03320703
44	0x3d812fe9	0.06307966
45	0x3eb76b02	0.35823828
46	0xbd63ca38	-0.055612773
47	0x3d2f4804	0.04279329
48	0x3d234b41	0.03986669
49	0x3daed173	0.08536043
50	0x3dc74046	0.09729056
51	0x3bf78120	0.0075532347
52	0x3d85b079	0.065278
53	0xbc2667da	-0.010156596
54	0x3d4cccfe	0.050000183
55	0x3e2a0296	0.16602549
56	0x3e6a5da1	0.22887279
57	0xbd21ab38	-0.039469928
58	0xbd25e895	-0.04050501
59	0x3d12d023	0.035843026
60	0x97802575	-8.281262e-25
61	0x3ab188cf	0.00135448
62	0x3e17888a	0.1479818
63	0x3d9a54df	0.07535719
64	0xbc0843f5	-0.0083169835
65	0xbc89449e	-0.016756352
66	0x3d248df0	0.040174425
67	0x3c7c46a2	0.0153977
68	0xbc08c352	-0.008347349
69	0x3cc6271d	0.024188573
70	0xbc526787	-0.012842066
71	0x3c0d48b4	0.008623291
72	0xbbd11a98	-0.006381344
73	0x3ca000e0	0.019531667
74	0x3d3cd272	0.046099134
75	0x3c68cbcb	0.014208744
76	0xbd5baa94	-0.053629473
77	0xbd848010	-0.064697385
78	0x3b46c9a8	0.0030332599
79	0x3e26e66b	0.16298835
80	0x3d85e809	0.06538398
81	0x8b4f2bb9	-3.9899643e-32
82	0x39a89708	0.00032155984
83	0xbb117068	-0.0022192243
84	0x8b7aa390	-4.82713e-32
85	0x991d8d09	-8.1451916e-24
86	0x0f977d89	1.4938104e-29
87	0x3d9bea27	0.076130204
88	0xb70df04b	-8.4602025e-06
89	0xb1694828	-3.3946979e-09
90	0x3bc1d21c	0.0059149396
91	0x89515491	-2.5197223e-33
92	0x3094ee49	1.0836142e-09
93	0x1dee379d	6.305558e-21
94	0xb9a43c62	-0.00031325506
95	0xbc7613db	-0.015019382
96	0xb6b1a6e2	-5.294439e-06
97	0x32ba4ae1	2.16873e-08
98	0xb675290d	-3.653174e-06
99	0x3d6ac94b	0.057320874
100	0xbd31454f	-0.04327899
101	0x2007cf24	1.1503482e-19
102	0x3a1ad01b	0.0005905644
103	0x3a95803a	0.0011406012
104	0x3bbc4824	0.0057459045
105	0xb48abd3d	-2.5842192e-07
106	0x3bc3898a	0.0059673237
107	0x28aa4e16	1.8907656e-14
108	0x893cae2b	-2.271157e-33
109	0xae414da1	-4.3952068e-11
110	0xbc0092ab	-0.007847468
111	0xbe9491ad	-0.29017392
112	0xbe6ff702	-0.2343407
113	0x3d616d9c	0.055036172
114	0xbbfdeaca	-0.0077489363
115	0x3e093fbf	0.13403223
116	0xbe5cdc48	-0.21568406
117	0xbb210366	-0.0024568676
118	0x3be38980	0.0069438815
119	0xbe63da48	-0.22251236
120	0xbc0efb66	-0.00872693
121	0x3d02cfa0	0.031936288
122	0x3dbb8afc	0.091573685
123	0x3da7cbed	0.08193193
124	0x3bcb5676	0.0062053753
125	0x3de8f187	0.11374193
126	0x3dcd1d11	0.100153096
127	0x3e2b8c04	0.1675263
128	0x3d9c392c	0.07628092
129	0xbe39a329	-0.18128647
130	0xbe6ee53f	-0.23329638
131	0x3dab77fb	0.08372494
132	0x3e951306	0.29116076
133	0x3bc2fec3	0.00595078
134	0x0a8c8e45	1.3535025e-32
135	0xbc976e4f	-0.018485216
136	0xbe2bbd4e	-0.16771433
137	0x3cc794a6	0.024362873
138	0x3cd072e1	0.025445404
139	0xbcf3b6c5	-0.029750237
140	0x3d8dbdd1	0.0692097
141	0xbcb2034e	-0.021730091
142	0xbc7a1887	-0.015264637
143	0x3c5de62b	0.013543646
144	0xbc87633b	-0.016526809
145	0x3c9b235b	0.018937757
146	0x3d9a8670	0.07545173
147	0x356349b9	8.467137e-07
148	0xbd5128ff	-0.051064488
149	0xbe113cb6	-0.14183316
150	0xbdd93e24	-0.106075555
151	0x3e337841	0.17526342
152	0x3dff7e53	0.12475266
153	0xbd550f35	-0.052016456
154	0x3d6e293d	0.058144797
155	0xbd411004	-0.047134414
156	0x3d84c07e	0.064820275
157	0x3b3ad432	0.0028507826
158	0x3d4645d6	0.048406444
159	0x3cbcb748	0.023036614
160	0x3caf82ef	0.021424739
161	0xbd3af71d	-0.04564582
162	0xbcb72e26	-0.022360872
163	0x3cd1cc28	0.025610045
164	0x3dfc586c	0.12321553
165	0x3dadb33d	0.084814526
166	0xbd097889	-0.033562217
167	0x0c9c0fff	2.4045233e-31
168	0xbcf3b55a	-0.029749561
169	0x3e261e49	0.1622249
170	0x3c929674	0.017894007
171	0x22013d42	1.751519e-18
172	0xbaf3bb6f	-0.0018595288
173	0xbdb934ba	-0.0904326
174	0xbcb4025a	-0.021973778
175	0x3d064624	0.032781735
176	0xbd4e1e3f	-0.050321814
177	0x3d1fbeda	0.03900037
178	0x3ce24517	0.027620835
179	0xbd0098a4	-0.03139557
180	0x3d0d46ed	0.03449147
181	0xbd04d41a	-0.03242884
182	0xbcc886ba	-0.024478305
183	0x3d66e1e3	0.056367766
184	0x3b4a9364	0.0030910606
185	0xbe1af332	-0.15131834
186	0xbe1d50bd	-0.1536283
187	0x3e21ff11	0.15819956
188	0xbe4e35d1	-0.20137717
189	0xbb73fd68	-0.00372299
190	0xbdda951f	-0.10672974
191	0xbd04b927	-0.032403138
192	0x3d965164	0.07339743
193	0x3d311bf7	0.04323956
194	0xbb407c46	-0.0029370948
195	0xbb201c6e	-0.0024431008
196	0x3d0e7ec5	0.034788866
197	0xbc2e7041	-0.010646881
198	0xbd5b52af	-0.05354565
199	0x3d1359a7	0.03597417
200	0xbc42009d	-0.0118409665
201	0xbd985704	-0.07438472
202	0xbb867563	-0.004103349
203	0x3c0700bc	0.008239921
204	0x3d220fd1	0.039565865
205	0x3e06929e	0.13141868
206	0xbdbe6983	-0.092974685
207	0xbc2b3585	-0.010449772
208	0x9338a01b	-2.3303003e-27
209	0x3aa7fbe2	0.0012816156
210	0x3ded5cbe	0.11589955
211	0xbc2462e6	-0.010033345
212	0xbcc95b1c	-0.024579577
213	0x3d41d1e0	0.047319293
214	0xbca4bcb0	-0.020109504
215	0x3d76680c	0.06015782
216	0x3de82387	0.11334901
217	0xbb597a90	-0.0033184625
218	0x3d667ca7	0.05627122
219	0x3bc4cf4b	0.0060061566
220	0x3bd75592	0.00657148
221	0x2082b003	2.2139331e-19
222	0xbd9cd371	-0.07657517
223	0xbd86f6a2	-0.0659001
224	0xbcfc221f	-0.030777989
225	0xbd8e6c32	-0.0695423
226	0xbd6ebf8a	-0.058288135
227	0x3d8b4d54	0.068018585
228	0x3dac3d29	0.08410103
229	0xbc5bce76	-0.013415923
230	0x3ce89de6	0.028395604
231	0xbcf7339f	-0.030175982
232	0xbd1d7231	-0.03843898
233	0xbbdff333	-0.0068344115
234	0xbd1a33c2	-0.037647016
235	0x3d88829e	0.06665538
236	0xbc9f6660	-0.019457996
237	0xbd14be65	-0.036314387
238	0xbd1b7927	-0.037957337
239	0xbd1232ee	-0.0356931
240	0x3dacc9f1	0.08436955
241	0x3d9fd612	0.078045025
242	0xba82d541	-0.0009981768
243	0xbc77636d	-0.015099389
244	0xbd217ee7	-0.039427664
245	0x87df4c9f	-3.3598345e-34
246	0x3acf0c60	0.0015796535
247	0x3d8ff2bd	0.070287205
248	0xbc13291d	-0.00898197
249	0xbcf31a87	-0.029675735
250	0x3e88708b	0.26648363
251	0xbd1409e7	-0.036142256
252	0x3e24cdcf	0.16094135
253	0x3d2d6cf0	0.04234022
254	0x3db61653	0.08890977
255	0x3df1815d	0.11792252

bias f4 [128]
0	0x3c20571c	0.0097863935
1	0x3cc08c91	0.023504527
2	0x3c8dee75	0.01732562
3	0x3c6d5e42	0.014487805
4	0x3c628009	0.013824471
5	0xbb6a2bbd	-0.0035731636
6	0x3bf22c65	0.007390546
7	0x3b2aea6a	0.0026079663
8	0x3c3d7f08	0.011565931
9	0x3cc19dbc	0.023634784
10	0xba3f3751	-0.00072943146
11	0x3b857037	0.004072215
12	0xbb950ba2	-0.004548506
13	0x3c8fd9da	0.017559934
14	0x3cbc3b19	0.022977399
15	0x3b42cd5d	0.0029724457
16	0x3c9f6a27	0.019459797
17	0x3ca5dec8	0.020247832
18	0xbc0b4fd7	-0.008502922
19	0xbbafeff5	-0.0053691813
20	0xbc81b9f4	-0.01583574
21	0xbc06187d	-0.008184549
22	0x3cbd8812	0.023136172
23	0xbd2a0302	-0.041506775
24	0x3dbf3a99	0.093373485
25	0x3a5d076e	0.0008431588
26	0x3ce2d7cb	0.027690789
27	0xbbf01110	-0.0073262528
28	0x3d14b22e	0.036302738
29	0x3c45e308	0.012078054
30	0x3ca92b05	0.020650396
31	0x3c8df5ff	0.017329214
32	0xbc071126	-0.008243835
33	0x3c193cdd	0.00935289
34	0x3c335b22	0.010947021
35	0x3ca2c6ee	0.019870248
36	0xbc4d1a9a	-0.012518549
37	0xba8bac75	-0.0010656255
38	0xbc43d1fd	-0.011951921
39	0xbb1e08ad	-0.0024114058
40	0xbbcdfe11	-0.0062863906
41	0x3c187648	0.009305544
42	0xbd1308f1	-0.0358972
43	0xba4c1978	-0.00077857776
44	0xbc89a94b	-0.016804358
45	0x3b14a9a5	0.0022684124
46	0x3bffafb8	0.0078029297
47	0x3c936261	0.017991247
48	0x3c9abf47	0.018890036
49	0xbc7c6163	-0.015404078
50	0xbc1c342a	-0.009533921
51	0x3c610f32	0.013736533
52	0xbafbab1e	-0.0019200777
53	0x3ba40a9c	0.0050061475
54	0x3c9bd84c	0.019024037
55	0x3b54a73a	0.0032448308
56	0x3cc1c351	0.023652704
57	0xbbfda48c	-0.007740563
58	0xbc1f8418	-0.009736083
59	0xbc9614a4	-0.01832039
60	0x3bfb605a	0.007671398
61	0x3cc75c3e	0.024335977
62	0xbbc9aac8	-0.006154392
63	0x3cd4f038	0.025993451
64	0x3b23cb56	0.0024993024
65	0x3c458ae7	0.012057043
66	0xbbe71bb7	-0.0070528644
67	0xbbd7a970	-0.006581478
68	0xbb3de871	-0.0028977657
69	0xb9f9aa54	-0.00047619885
70	0xbbb30bb8	-0.0054640435
71	0xbc3ed8cf	-0.011648371
72	0x3c2e9027	0.010654486
73	0xbc0432f0	-0.008068785
74	0xbc245f18	-0.010032438
75	0xbaf7a37e	-0.0018893329
76	0x3d22ff9b	0.039794546
77	0x3a08ff61	0.00052260427
78	0xbb102a9d	-0.0021998056
79	0xbca202aa	-0.019776661
80	0xbca0b215	-0.019616166
81	0xbb9fc02c	-0.0048752036
82	0xbbda646a	-0.0066648023
83	0xbc459463	-0.012059304
84	0xba0b4785	-0.00053130864
85	0xbb42a785	-0.00297019
86	0xbb13ce74	-0.0022553476
87	0x3c0a40a9	0.008438268
88	0xb8a5042c	-7.86859e-05
89	0xbc4a0930	-0.012331292
90	0x3a96d5a9	0.0011507767
91	0x3a394e93	0.00070688984
92	0x3c058d50	0.008151367
93	0xbb8df8b3	-0.004332626
94	0x3b7a7f9d	0.0038223036
95	0x3cb1d66d	0.021708691
96	0xbba5f92c	-0.005065104
97	0x3d521642	0.051290758
98	0x3c1c6a8d	0.009546888
99	0x3b4c891d	0.0031209656
100	0xbbc4a143	-0.006000669
101	0x3c5b6227	0.013390101
102	0xbd317cac	-0.043331787
103	0xbc50f176	-0.012752881
104	0x3d1ae2c8	0.03781393
105	0x3c949208	0.01813604
106	0x3c0b493a	0.008501345
107	0x3c186178	0.009300582
108	0x3c9549b1	0.018223615
109	0x3b3734d3	0.002795507
110	0x3cfdd1d8	0.03098385
111	0x3a75b242	0.0009372571
112	0x3cfce0c3	0.030868893
113	0xbbdedbd0	-0.006801106
114	0xbc5782cc	-0.013153743
115	0x3cf71b10	0.030164272
116	0x3ca116c3	0.019664174
117	0x3d1b9daa	0.037992157
118	0x3d1ccac4	0.03827931
119	0xbc1f4faa	-0.009723583
120	0x3c928c32	0.017889116
121	0x3b9350e2	0.004495726
122	0x3c886e0c	0.016654037
123	0x3b1ee6b5	0.0024246399
124	0x3d0ace74	0.033888295
125	0xbaf5bb08	-0.0018747756
126	0x3c89dec5	0.016829858
127	0x3c06b8a5	0.008222734

weight f4 [128, 128]
0	0x3dc65d6e	0.09685789
1	0xbdafab26	-0.08577566
2	0xbc516735	-0.012780954
3	0xbdacaeed	-0.08431802
4	0x3d13fff8	0.036132783
5	0xbd53fd57	-0.051755276
6	0xbd701c72	-0.058620878
7	0x3dc69620	0.09696603
8	0xbd20c7f9	-0.03925321
9	0xbcf54297	-0.02993898
10	0x3db2012a	0.08691628
11	0x3c039829	0.008031883
12	0xbda364b2	-0.079781905
13	0xbd5a7a4d	-0.05333929
14	0x3dd8ee3e	0.10592316
15	0xbdac6996	-0.084185764
16	0x3c626129	0.01381711
17	0x3c6ab2d5	0.014324863
18	0x3c4c02c4	0.012451831
19	0x3c93e6dd	0.01805442
20	0xbd1de032	-0.038543887
21	0xbc414f49	-0.011798688
22	0xbd1068bc	-0.035256132
23	0xbd31b55e	-0.043385856
24	0xbd922121	-0.07135225
25	0xbddca432	-0.10773505
26	0xbcd9fd40	-0.026610017
27	0xbc38e4d1	-0.011285023
28	0x3d986fdc	0.074432105
29	0xbb980432	-0.004639172
30	0x3d30cd7e	0.043164723
31	0xbdb8132a	-0.0898803
32	0xbd5acfd4	-0.053420857
33	0xbd3af6a4	-0.04564537
34	0xbd6b8889	-0.057503257
35	0xbdf9fbb1	-0.122062095
36	0xbb5f21f4	-0.0034047337
37	0x3c49375b	0.012281264
38	0x3acda4f2	0.0015689416
39	0xbd7c2a3b	-0.06156371
40	0xbd2da92e	-0.04239767
41	0x3d8f9b93	0.07012095
42	0x3c0ae05c	0.008476343
43	0x3c144d4a	0.00905163
44	0xbd93305e	-0.0718696
45	0x3a9430fe	0.0011306105
46	0xbde9ef1f	-0.11422562
47	0xbb3275fc	-0.0027230969
48	0x3c9cc8d1	0.019138725
49	0xbc868a65	-0.016423414
50	0xbd0371a9	-0.032090817
51	0x3d98fed7	0.07470482
52	0xbd8a361c	-0.06748602
53	0x3d125d77	0.035733666
54	0x3d8d7b3e	0.06908272
55	0xbd95f0f2	-0.07321347
56	0x3d1949e0	0.03742397
57	0xbda661a0	-0.08124089
58	0xbbd7020f	-0.0065615247
59	0x3d875506	0.06608014
60	0xbb4af202	-0.0030967002
61	0x3cf0a217	0.029374165
62	0x3db397be	0.08769177
63	0xbd1d7b2a	-0.038447537
64	0xbccd1e23	-0.025038784
65	0x3dbb08fc	0.09132573
66	0xbdb81310	-0.08988011
67	0x3d744174	0.059632733
68	0x3c354748	0.011064358
69	0xbcd04e12	-0.025427852
70	0x3dd77846	0.10520987
71	0x3d97c65f	0.07410883
72	0x3bce15f3	0.0062892376
73	0xbdaeaf05	-0.08529476
74	0x3d878972	0.066180125
75	0x3ccdbcfb	0.025114527
76	0xbc234cf2	-0.009967076
77	0xbdef94f0	-0.116983294
78	0x3b691961	0.0035568106
79	0x3d857ab5	0.06517545
80	0x3d65b9a8	0.05608526
81	0xbce7377c	-0.0282247
82	0xbd8075d8	-0.06272477
83	0x3d1b0ef1	0.037856046
84	0x3dc895e0	0.097942114
85	0x3d94e425	0.072700776
86	0xbd300335	-0.04297181
87	0xbd74697a	-0.059670903
88	0x3e2b1b6a	0.16709676
89	0xbcff35f1	-0.031153651
90	0xbb2e9d62	-0.00266441
91	0x3cf60228	0.030030325
92	0xbcd207a8	-0.025638416
93	0x3cdfa0cd	0.027298355
94	0x3c6ef43f	0.0145846
95	0x3e0145e3	0.12624316
96	0xbc92f1bc	-0.017937534
97	0x3debc110	0.11511433
98	0xbe04063a	-0.12893
99	0x3cb9001f	0.022583066
100	0x3dbeee45	0.0932279
101	0x3a3f2773	0.000729195
102	0x3d005375	0.03132959
103	0xbd286901	-0.041115765
104	0xbd46d324	-0.048541203
105	0x3d83977c	0.06425378
106	0xbda5b9aa	-0.08092053
107	0xbd076c7f	-0.033062454
108	0xbc1bff2d	-0.009521288
109	0xbc6480d9	-0.013946735
110	0x3c59963f	0.01328045
111	0x3d6181f9	0.055055592
112	0x3d78ad8b	0.06071238
113	0xbdd123be	-0.102118954
114	0xbdda6f8b	-0.106658064
115	0x3c9fdd27	0.019514633
116	0x3dd794ae	0.10526405
117	0xbdb632d8	-0.088964164
118	0xbd2380cb	-0.03991775
119	0xbd76fd35	-0.06030007
120	0xbdd5bf6e	-0.10436903
121	0x3d332e59	0.043745372
122	0x3da73977	0.081652574
123	0x3d46f6f1	0.048575345
124	0x3d2604b9	0.040531848
125	0x3dab8c7f	0.08376407
126	0xbccf206c	-0.025284015
127	0x3d7c2aa4	0.061564103
128	0x3d7bd034	0.061477855
129	0x3e2a7c2d	0.16648932
130	0xbd10a538	-0.035313815
131	0xbc043466	-0.008069133
132	0x3cea614e	0.028610852
133	0x3d6329f7	0.055459943
134	0x3ba58056	0.005050699
135	0xbd737663	-0.059439074
136	0xbd69857b	-0.057012063
137	0x3db050c0	0.08609152
138	0x3ce9c8ea	0.028538186
139	0x3d95c4d2	0.07312931
140	0xbd8ab1fb	-0.06772228
141	0x3af21b2e	0.0018471235
142	0xbd2e5333	-0.042559814
143	0x3db6bb3d	0.089224316
144	0xbd22e8f1	-0.03977293
145	0x3c4071e8	0.011745907
146	0xbd8e4660	-0.06947017
147	0x3c417851	0.011808471
148	0x3d6ba64f	0.05753165
149	0xbcb68cf8	-0.022284016
150	0xb9d6de47	-0.0004098287
151	0x3d273fc8	0.04083231
152	0x3ca46ca0	0.020071328
153	0x3cfa42a5	0.030549357
154	0xbd7be2a2	-0.06149543
155	0x3bee563c	0.0072734635
156	0xbdb97bde	-0.09056829
157	0x3ce37816	0.027767222
158	0xbdecaacd	-0.11556015
159	0xbd649597	-0.055806722
160	0xbc2c35fb	-0.010510917
161	0xbdb240de	-0.08703779
162	0xbd78e9bc	-0.06076978
163	0x3de7327b	0.11288925
164	0xbc6e44f0	-0.014542803
165	0x3c9d1fc1	0.01918018
166	0x3cb9728e	0.022637632
167	0x3c7997f6	0.015233984
168	0x3d3ef360	0.04661882
169	0x3d1e6b94	0.038676813
170	0xbc49cf3f	-0.012317478
171	0xbd9e897f	-0.07741069
172	0xbde390df	-0.11111616
173	0x3d6926b4	0.056921676
174	0xbc7b10de	-0.015323846
175	0xbd458767	-0.048224833
176	0xbcbcc68a	-0.02304389
177	0x3be4f6fa	0.0069874497
178	0xbd64b55b	-0.055837017
179	0x3cf6d681	0.03013158
180	0x3da6650c	0.08124742
181	0x3d2c2ab4	0.042032912
182	0xbdec5c43	-0.11541035
183	0x3e083fff	0.13305663
184	0xbc22cfab	-0.009937207
185	0xbd548598	-0.051885217
186	0xbc8d430a	-0.01724388
187	0xbcbbf45c	-0.022943668
188	0x3d1e2cfb	0.038617115
189	0x3d95b213	0.073093556
190	0x3cd7094d	0.026249552
191	0xbe01c17b	-0.12671463
192	0xbbcd88b9	-0.006272402
193	0xbd8b479e	-0.06800769
194	0xbc19fab7	-0.009398154
195	0x3d82231e	0.06354354
196	0x3daf20ea	0.085512
197	0xbd90f702	-0.07078363
198	0xbd85b269	-0.0652817
199	0xbc7efe43	-0.01556355
200	0xbc08eb15	-0.008356829
201	0x3e7f946c	0.24958962
202	0xbdd0e5f8	-0.10200113
203	0xbbd073ad	-0.006361446
204	0x3d9c2346	0.076239154
205	0xbdc8e2f5	-0.098089136
206	0x3cc5436a	0.024079997
207	0xbccddd12	-0.025129829
208	0x3a33268d	0.00068340526
209	0x3c476b71	0.012171612
210	0xbd0deea4	-0.034651414
211	0xba4716be	-0.00075946364
212	0xbdefe817	-0.117141895
213	0x3c8281a4	0.015930958
214	0xbc9a7221	-0.018853249
215	0xbe0eb15a	-0.13934842
216	0xbdfe35e3	-0.12412622
217	0x3d940462	0.072273985
218	0xbd0a1580	-0.03371191
219	0xbd6393b1	-0.05556077
220	0x3dae9ea0	0.08526349
221	0xbdd39605	-0.10331348
222	0x3dab16e2	0.08353974
223	0xbd40b8ed	-0.04705136
224	0x3c964b66	0.0183465
225	0xbdc3e90e	-0.09565936
226	0x3ba0b47b	0.0049043274
227	0x3d8d5f4b	0.06902941
228	0xbd93f4e1	-0.07224441
229	0x3d90b835	0.07066385
230	0x3d42a3bd	0.047519434
231	0x3d97218f	0.07379448
232	0x3d8e221a	0.06940098
233	0x3c7a341f	0.015271216
234	0x3d8f0c66	0.06984787
235	0x3bd8611e	0.006603374
236	0xbc99883f	-0.018741725
237	0xbcab99a2	-0.020947281
238	0x3cd27925	0.025692532
239	0x3b68896d	0.0035482303
240	0xbdd207a9	-0.10255367
241	0x3d2804f9	0.041020367
242	0x3de03182	0.10946943
243	0x3db6d2d6	0.089269325
244	0x3d7382f4	0.05945106
245	0xbd0629d9	-0.032754753
246	0x3e0986aa	0.13430277
247	0xbcf2f2e7	-0.02965684
248	0x3cdad2bf	0.02671182
249	0x393ff42b	0.00018306139
250	0x3d6a05cb	0.05713443
251	0xbda33dc4	-0.07970765
252	0xbcc2105a	-0.023689438
253	0x3dbc090e	0.091814145
254	0x3c93cb94	0.01804141
255	0xbc509b06	-0.012732273

bias f4 [128]
0	0xb948b5b4	-0.00019141176
1	0xbc3e0602	-0.011598112
2	0xbc101ede	-0.008796422
3	0xbc444a86	-0.011980658
4	0xbd5fd1cc	-0.054643437
5	0xbc7413b4	-0.014897276
6	0x3c0dd5a7	0.008656896
7	0xb97164fb	-0.00023021169
8	0xbb90ec28	-0.0044226833
9	0xbd8e7961	-0.06956745
10	0xbabe08bf	-0.0014498456
11	0xba064104	-0.00051213824
12	0xbaec9ffe	-0.0018053052
13	0xb941ed35	-0.00018494281
14	0xbbd5dd0b	-0.0065265945
15	0x3bebf278	0.0072005354
16	0x3d039bdc	0.03213106
17	0xbc97e654	-0.018542446
18	0x3cc04aed	0.023473227
19	0xbce6d215	-0.028176347
20	0x3cbb6ac6	0.022878062
21	0x3a6cfd7f	0.00090404594
22	0x3bf79250	0.0075552836
23	0x3cc6dd10	0.024275333
24	0x3cb9e9ad	0.022694433
25	0xbc4de6c4	-0.012567226
26	0x3d099ea6	0.033598565
27	0xbd285089	-0.04109243
28	0xbc4a6680	-0.0123535395
29	0x3d0a4a37	0.033762183
30	0x3d24621c	0.040132627
31	0xbc5a8e74	-0.0133396275
32	0x3ca0f9e3	0.019650405
33	0xbc69fc2c	-0.014281314
34	0x3d0dabc0	0.03458762
35	0x3ced080c	0.028934501
36	0x3c2730d1	0.01020451
37	0xbae2a356	-0.001729111
38	0x3d1ffca0	0.03905928
39	0xbb0dd369	-0.0021640903
40	0x3ce2c466	0.02768154
41	0x3c560ff5	0.013065328
42	0xbbd3dc1a	-0.006465447
43	0x3b9b2d6a	0.0047356384
44	0xbbbf8b59	-0.005845469
45	0x3d3b0724	0.045661107
46	0x3d0506d8	0.03247723
47	0x3d1dd985	0.03853752
48	0xbca4182f	-0.020031063
49	0xbc3e85d1	-0.011628584
50	0x3cf9ce4d	0.03049388
51	0x3ca429e0	0.020039499
52	0xb213a696	-8.594403e-09
53	0x3cc17237	0.023614032
54	0xbc9b7766	-0.018977832
55	0xbc0b27a9	-0.008493342
56	0xbab624b3	-0.0013896435
57	0xaffdf732	-4.6196075e-10
58	0xba38ea27	-0.00070539344
59	0xbcb06aae	-0.021535244
60	0x3cf68427	0.030092312
61	0xba4f80d7	-0.0007915622
62	0x3d2f4e62	0.04279936
63	0x3a3ab75a	0.00071226584
64	0x3d46f901	0.048577312
65	0x3a961e60	0.0011453144
66	0xb990d3d1	-0.00027623636
67	0xbc84d4f6	-0.016214829
68	0xbbb025f2	-0.005375617
69	0xb34a37dc	-4.7082594e-08
70	0x0e5e2eee	2.7386208e-30
71	0x3b2ef227	0.0026694627
72	0xb9bbc824	-0.00035816536
73	0x3c8e20fd	0.017349714
74	0x3a5fbea2	0.00085351814
75	0x3b9996fa	0.0046871873
76	0x399f884c	0.00030428392
77	0xbccad0c9	-0.02475776
78	0x3c026a1a	0.007959867
79	0xbc83f67d	-0.016108746
80	0xbd25097a	-0.04029224
81	0xbb66c3c1	-0.0035211893
82	0xbc5173aa	-0.012783924
83	0xbcc6cafb	-0.02426671
84	0xbbae820f	-0.005325563
85	0x3d0f8cde	0.03504645
86	0x3a4f11df	0.00078990863
87	0xbcb0b19b	-0.021569064
88	0x3c958a5e	0.018254455
89	0xbbe005b1	-0.006836616
90	0x3d13e4fb	0.036107045
91	0xba0db384	-0.0005405473
92	0xbc855f87	-0.016280903
93	0x3c7f0fc5	0.015567725
94	0x3b00b863	0.0019641153
95	0xb875a4d6	-5.8566067e-05
96	0x3c95b4e8	0.01827474
97	0xb5c617db	-1.4759092e-06
98	0x3ccdf4ce	0.025141146
99	0xb2008a11	-7.481973e-09
100	0xbc74df94	-0.014945883
101	0xbc8b8aa5	-0.017033884
102	0x3d313759	0.043265674
103	0x3c51cc26	0.01280502
104	0xbbfee919	-0.0077792522
105	0x3c19345d	0.009350863
106	0xbcab9d7f	-0.020949123
107	0x3d1f58cd	0.038903046
108	0x3e5cc91a	0.21561089
109	0xbc3c3ed1	-0.011489586
110	0x3c3e3fac	0.01161186
111	0xbcd824fd	-0.026384825
112	0xb5489ce5	-7.473412e-07
113	0x3c02c4c7	0.007981486
114	0xbbc32f8d	-0.005956596
115	0xbbcb61d0	-0.0062067285
116	0xbc036474	-0.008019555
117	0x3b74228a	0.0037252032
118	0xbbce2eb8	-0.0062921904
119	0xbd1fb8e0	-0.03899467
120	0x3ab270e5	0.0013613967
121	0xbce17067	-0.027519418
122	0xbc8bced9	-0.017066406
123	0x3c4182f8	0.011811011
124	0xba40ce2a	-0.00073549396
125	0x3ca6a152	0.020340595
126	0xbd1de29b	-0.038546186
127	0xbcf985d9	-0.030459331

weight f4 [128, 128]
0	0xb2a0e56e	-1.8730784e-08
1	0x9f214be1	-3.4155842e-20
2	0xa2348f7d	-2.447051e-18
3	0xb0214742	-5.867272e-10
4	0x0874b825	7.364254e-34
5	0xa9458c71	-4.38646e-14
6	0xb3a43f1e	-7.648326e-08
7	0x2e3b6394	4.260732e-11
8	0x89f47e50	-5.8859647e-33
9	0x0ea6f235	4.1155396e-30
10	0x2465832a	4.976756e-17
11	0x8c7a1e76	-1.9268466e-31
12	0x161024f7	1.1643891e-25
13	0xa99cf635	-6.970502e-14
14	0xb0cfcb22	-1.5118966e-09
15	0x34258c64	1.5417896e-07
16	0x8c666899	-1.7750032e-31
17	0x9c3d3cee	-6.2613604e-22
18	0x0b45628a	3.8014952e-32
19	0x3093187b	1.0702615e-09
20	0x3216ff30	8.789172e-09
21	0x1213e419	4.6666173e-28
22	0xb19597a8	-4.353712e-09
23	0x928cd42d	-8.8875475e-28
24	0x17a51ef0	1.0670685e-24
25	0x0c15e342	1.154693e-31
26	0x1c230369	5.3936583e-22
27	0x1f75645c	5.1963783e-20
28	0xa42c2f2d	-3.7336514e-17
29	0x8e8b37d6	-3.4319914e-30
30	0x0d6c855f	7.2883654e-31
31	0x8c02dbf5	-1.0081027e-31
32	0x0b40b647	3.7114985e-32
33	0x93db6780	-5.538543e-27
34	0x1aaf334c	7.246118e-23
35	0x1546a1d7	4.011345e-26
36	0x8aad791e	-1.6704853e-32
37	0xb387a996	-6.317275e-08
38	0x0b0e51d1	2.7409757e-32
39	0x13f12865	6.0876785e-27
40	0x8b4ce24b	-3.9459215e-32
41	0x2a0b5dbc	1.2378201e-13
42	0xab3c42b5	-6.688359e-13
43	0x32acef4b	2.0132253e-08
44	0x0a02638a	6.2779935e-33
45	0x9aa629b3	-6.872336e-23
46	0x0c1a6d6d	1.1896658e-31
47	0xa762be20	-3.1466867e-15
48	0xb17fbfae	-3.7216341e-09
49	0xa3358860	-9.840908e-18
50	0xb178ff2a	-3.6233794e-09
51	0x9432a4f4	-9.019235e-27
52	0x09a1d364	3.895813e-33
53	0x96dba285	-3.5483922e-25
54	0x3105208c	1.9372548e-09
55	0x10d967a0	8.575107e-29
56	0x0e7fd36f	3.1532978e-30
57	0xb3898b54	-6.404903e-08
58	0x2f9794c4	2.7572444e-10
59	0x08ac1f1c	1.0359187e-33
60	0x8fd99781	-2.1456209e-29
61	0xa4174734	-3.2803217e-17
62	0xac444d3d	-2.7896151e-12
63	0x34019d7b	1.2071352e-07
64	0x2baf0eb8	1.2438583e-12
65	0x8da1ef0c	-9.9799395e-31
66	0x880a44f6	-4.1608928e-34
67	0x8a25a85c	-7.976126e-33
68	0xb350188b	-4.8451096e-08
69	0x2efe8328	1.1573881e-10
70	0x20853563	2.2566405e-19
71	0x0acf1bc5	1.994382e-32
72	0x0f34c5dd	8.912792e-30
73	0xb0cf23da	-1.5071422e-09
74	0x8d3f744e	-5.8996416e-31
75	0x08b33f93	1.0788117e-33
76	0x103c53d1	3.7141032e-29
77	0x07abb94d	2.583813e-34
78	0x080dac50	4.2633196e-34
79	0x30247d82	5.984121e-10
80	0xac09404c	-1.9504563e-12
81	0xb1863bcf	-3.9067127e-09
82	0x979b689b	-1.0043046e-24
83	0xb284cb55	-1.5459287e-08
84	0x88265a7d	-5.0060176e-34
85	0x8ab6a5d0	-1.7588334e-32
86	0x8b444fe7	-3.780834e-32
87	0x0d3018ad	5.426389e-31
88	0x08fce83a	1.52212945e-33
89	0xb0b1b78f	-1.2930615e-09
90	0x8d9464bd	-9.145456e-31
91	0xb18069a8	-3.737302e-09
92	0xadabe00d	-1.9539948e-11
93	0x0d3bb64e	5.7843265e-31
94	0x0d6a8bea	7.2275233e-31
95	0x27b23f12	4.9473306e-15
96	0x30954fb5	1.0863831e-09
97	0x2074e933	2.0744763e-19
98	0xad9a8c94	-1.7570202e-11
99	0xa5fedda0	-4.4212155e-16
100	0x910be1bc	-1.1034726e-28
101	0x8f551812	-1.05063466e-29
102	0x11a37fe3	2.5795682e-28
103	0x3238e206	1.0761601e-08
104	0x0d0f40bb	4.4143194e-31
105	0x88de3686	-1.3373957e-33
106	0x32c7f64c	2.3278652e-08
107	0xabcf5985	-1.4733081e-12
108	0x0b764556	4.743004e-32
109	0x18fa0549	6.4628822e-24
110	0xaeb51c6e	-8.235977e-11
111	0x308802a1	9.89605e-10
112	0x8f0a7a29	-6.8274525e-30
113	0x8804b86f	-3.9939106e-34
114	0x2c3f0761	2.7146829e-12
115	0x2f2ec884	1.5896445e-10
116	0xb3abebf0	-8.005725e-08
117	0x2cfb92ff	7.150169e-12
118	0x9fa6c0e5	-7.062285e-20
119	0xa1cdc091	-1.3942312e-18
120	0x06e73713	8.6973467e-35
121	0xaef5eeb0	-1.11837095e-10
122	0x9011b899	-2.8738417e-29
123	0x0bead16a	9.044861e-32
124	0x1127e82b	1.3245519e-28
125	0x0b5d6e6b	4.264612e-32
126	0xa61c4982	-5.4222994e-16
127	0x341aeaa0	1.4427724e-07
128	0x3592a82e	1.0926794e-06
129	0x32afe8b5	2.0478504e-08
130	0xb7087e2b	-8.1356075e-06
131	0xa95f04c6	-4.9520087e-14
132	0xb3054e9c	-3.103797e-08
133	0xb74e6603	-1.2302308e-05
134	0xb909fb69	-0.00013158996
135	0xb78757fd	-1.6134227e-05
136	0xb6108cbc	-2.153959e-06
137	0xb8bc733b	-8.986002e-05
138	0x114b4810	1.6036082e-28
139	0xabd7a4d1	-1.5322415e-12
140	0xb788a08c	-1.6287224e-05
141	0xb55ff8e3	-8.343615e-07
142	0xb6ceae2b	-6.1595542e-06
143	0xb48cf2c5	-2.625367e-07
144	0xac24ca52	-2.3418112e-12
145	0x3222d475	9.477948e-09
146	0xb876a7ef	-5.880737e-05
147	0x1083d93c	5.200509e-29
148	0x0fd24cff	2.0737257e-29
149	0xb9b94d1b	-0.00035343398
150	0x3a4df3e9	0.0007856475
151	0x11a52f7e	2.606168e-28
152	0xacd2a864	-5.987254e-12
153	0x387d260f	6.0355345e-05
154	0xb6ec3bd6	-7.040314e-06
155	0xb81b677f	-3.7051268e-05
156	0xb0252bc0	-6.0088823e-10
157	0xb21d868a	-9.169193e-09
158	0xb9abd10b	-0.0003277141
159	0xb93d6ac2	-0.00018064215
160	0x37c70aee	2.3727738e-05
161	0x2fe0f663	4.092043e-10
162	0x39c4a660	0.00037507992
163	0xa33df215	-1.0296973e-17
164	0xb6ac2f0c	-5.1314764e-06
165	0xb35b1a71	-5.101396e-08
166	0xb9679ba8	-0.00022087863
167	0xb1fc6519	-7.3456587e-09
168	0x354929fe	7.493944e-07
169	0xb840b6e4	-4.5946697e-05
170	0x3307e479	3.163993e-08
171	0x36c3eda0	5.839116e-06
172	0x9588b574	-5.5216245e-26
173	0x3209d581	8.022995e-09
174	0x307599f6	8.934927e-10
175	0xb82d47b2	-4.1313186e-05
176	0xb788e922	-1.6321024e-05
177	0xb3a4a922	-7.66761e-08
178	0x35afdcc7	1.3102771e-06
179	0x0acae281	1.9537094e-32
180	0x915501e1	-1.6803316e-28
181	0x8b1ca7bc	-3.0170696e-32
182	0xb5cf4505	-1.5442789e-06
183	0xb794faa7	-1.7759694e-05
184	0x380398e9	3.1375243e-05
185	0xb9026668	-0.00012435915
186	0xb694f486	-4.43921e-06
187	0xb54b20d7	-7.567118e-07
188	0x39a3fe98	0.0003127947
189	0xb6868f9e	-4.0102304e-06
190	0x35db34f5	1.6332184e-06
191	0x9581a4be	-5.23626e-26
192	0xbb57927d	-0.003289371
193	0xb991557e	-0.00027720252
194	0xb09f1da6	-1.1577199e-09
195	0x12a29de5	1.0262561e-27
196	0x39de29b0	0.000423742
197	0x8ab4742f	-1.7377073e-32
198	0x38bb7d55	8.9402e-05
199	0x341194d5	1.3558322e-07
200	0xb792edab	-1.7515229e-05
201	0xb68648b5	-4.0019754e-06
202	0x32666ca5	1.3412465e-08
203	0x2dff4c33	2.9023983e-11
204	0x1c3ca957	6.242285e-22
205	0x2389c99c	1.4938955e-17
206	0x354fbb36	7.7385937e-07
207	0x9279cb0e	-7.882083e-28
208	0x2e36fc03	4.160584e-11
209	0xb144de00	-2.8647946e-09
210	0xb8408845	-4.5903278e-05
211	0xb1de001f	-6.461064e-09
212	0x22eea4c9	6.4684502e-18
213	0x37b76b2b	2.1865204e-05
214	0xb8566db3	-5.112374e-05
215	0xb716931f	-8.974951e-06
216	0x9c837d82	-8.701296e-22
217	0xb6c3e209	-5.837767e-06
218	0x3956684e	0.00020447487
219	0xb5e469d7	-1.7018127e-06
220	0x3542142c	7.2299986e-07
221	0xb9350488	-0.00017263193
222	0x36a18edf	4.8148063e-06
223	0x2123197f	5.526029e-19
224	0xb92c6131	-0.00016439405
225	0x8fdf76e8	-2.2035299e-29
226	0xaf71f923	-2.2007333e-10
227	0x37e6bdbe	2.7506492e-05
228	0xb7335127	-1.0688126e-05
229	0x3a0aabe5	0.00052898965
230	0x3642682b	2.8968886e-06
231	0x2e2be782	3.908652e-11
232	0xb131b4de	-2.58597e-09
233	0x33072ebe	3.147465e-08
234	0x38b1460b	8.453064e-05
235	0xb2e99c74	-2.7195917e-08
236	0xa9bf151a	-8.4857644e-14
237	0x3746e97c	1.1856082e-05
238	0xb305ef23	-3.118397e-08
239	0xb2965cab	-1.7504439e-08
240	0xb7f664c0	-2.93724e-05
241	0x357e220b	9.467191e-07
242	0x365efa5c	3.3226306e-06
243	0x38a900e5	8.0587146e-05
244	0xa0bb4ab3	-3.1728464e-19
245	0x3761cdf6	1.3458999e-05
246	0xba95a0ef	-0.001141576
247	0xb484e62a	-2.4754382e-07
248	0xb0c41997	-1.426815e-09
249	0xb99da970	-0.00030071614
250	0xb60f4396	-2.1348e-06
251	0x36de9889	6.633873e-06
252	0xa924e66a	-3.6615168e-14
253	0x17a0a144	1.0380467e-24
254	0x39b59931	0.00034637147
255	0x38c7a2e2	9.519399e-05

weight f4 [1, 384]
0	0x3d8f5226	0.069980904
1	0x3daaae5f	0.0833404
2	0xbbb25b72	-0.00544303
3	0xbe29243b	-0.16517727
4	0xbd875bb0	-0.06609285
5	0x3db074fe	0.086160645
6	0x3cf5bb7b	0.029996624
7	0x3ddac360	0.10681796
8	0xbe1cedff	-0.15325163
9	0x3dee59ab	0.116381966
10	0x3d773b26	0.060359143
11	0xbd5515ab	-0.052022617
12	0xbdb53e7e	-0.0884981
13	0xbcdcfe7a	-0.026976813
14	0xbd667fb0	-0.056274116
15	0x3c245707	0.010030515
16	0x3de80243	0.113285564
17	0xbd6479b9	-0.055780146
18	0xbdcc86b1	-0.09986628
19	0xbd86adc1	-0.0657611
20	0xbde35de2	-0.11101891
21	0x3cf47491	0.02984074
22	0x3c7e8f99	0.015537166
23	0xbdac206b	-0.08404621
24	0x3c7b7157	0.015346847
25	0x3dca6a01	0.098835
26	0xbe267a91	-0.16257693
27	0x3e144988	0.14481175
28	0xbc114fdc	-0.008869138
29	0xbcd95bdd	-0.026533062
30	0xbda57957	-0.08079784
31	0xbdeb3091	-0.11483873
32	0x3ba4a2c7	0.0050242874
33	0x3e014888	0.12625325
34	0x3adf5f38	0.0017041927
35	0xbc7b3f77	-0.015334955
36	0x3c837b5f	0.016050039
37	0xbccf552b	-0.025309166
38	0xbdad7448	-0.084694445
39	0x3d654a9b	0.055979352
40	0x3dda669d	0.10664103
41	0x3e089445	0.1333781
42	0x3d5b819f	0.053590413
43	0xbd84ee81	-0.064908035
44	0xbddc992e	-0.10771404
45	0xbdb16780	-0.08662319
46	0xbd8c2c1e	-0.06844352
47	0xbd898217	-0.06714266
48	0xbe1f6873	-0.15567188
49	0x3e0d8d01	0.1382332
50	0xbd910f1f	-0.07082962
51	0xbe3e4f94	-0.18585044
52	0xbd5c0f88	-0.05372575
53	0xbdea9936	-0.11455004
54	0xbd8451fd	-0.064609505
55	0xbdf8b219	-0.121433444
56	0x3bb3ac69	0.0054831994
57	0xbd9d2a76	-0.076741144
58	0x3b413f47	0.002948718
59	0xbc6e85e5	-0.01455829
60	0x3d8e22d2	0.06940235
61	0xbe0e4f36	-0.13897404
62	0x3dd02efa	0.1016521
63	0xbcf0cc14	-0.029394187
64	0xbc70e59e	-0.0147031825
65	0x3d387e56	0.04504236
66	0x3d4acda3	0.049512517
67	0xbdcb681b	-0.09931966
68	0xbd2ebac9	-0.0426586
69	0xbae1f879	-0.0017240188
70	0x3cdfd436	0.02732287
71	0xbda1720e	-0.07883082
72	0xbd80b9a5	-0.06285409
73	0x3e592d4a	0.21208683
74	0xbe0fb24d	-0.1403286
75	0xbe37228d	-0.17884274
76	0xbdf18e83	-0.1179476
77	0xbdfff370	-0.12497604
78	0xb8769997	-5.8794012e-05
79	0xbd857790	-0.06516945
80	0xbbaa08e3	-0.0051890477
81	0xbd23aa42	-0.039957292
82	0xbe0b3a17	-0.13596378
83	0x3d8f5c31	0.07000006
84	0xbd655b79	-0.05599544
85	0x3bda57a6	0.0066632805
86	0xbe438487	-0.19093524
87	0xbdfa4f3f	-0.12222146
88	0xbdbda28d	-0.0925952
89	0xbcd264dc	-0.02568286
90	0xbe20349c	-0.15645069
91	0xbdebb62a	-0.115093544
92	0xbcbd07fc	-0.023075096
93	0x3d1cf187	0.038316276
94	0xbc2d0b34	-0.010561753
95	0xbdabe3c0	-0.08393049
96	0xbd721ce0	-0.05910957
97	0xbddf8983	-0.109149
98	0x3b48b6d0	0.0030626543
99	0x3d9b68a5	0.07588319
100	0xbd97f2f0	-0.074193835
101	0x3c0df7e5	0.00866506
102	0x3bf33de5	0.00742315
103	0xbc3e27f9	-0.01160621
104	0xbcf014e1	-0.02930683
105	0x3dfe21ce	0.124087915
106	0xbd344692	-0.044012614
107	0xbd2a6a4e	-0.041605286
108	0xbe44bf58	-0.19213617
109	0xbd3e4aa6	-0.04645791
110	0xbdbea979	-0.09309668
111	0x3d1ca81d	0.038246263
112	0xbdd1864c	-0.10230693
113	0x3e321b33	0.17393188
114	0xbd26457a	-0.0405936
115	0xbdbd87c4	-0.09254411
116	0xbdaf5845	-0.08561758
117	0x3d40e5f1	0.04709429
118	0x3d9d7b1d	0.076894976
119	0x3caa7e02	0.020812038
120	0xbda6c9e9	-0.0814398
121	0x3da5d4fc	0.08097264
122	0x3c954c16	0.018224757
123	0xbd1b1aa7	-0.037867215
124	0xbd7d27b5	-0.061805446
125	0x3d9f9605	0.07792286
126	0xbdab4742	-0.08363201
127	0xbb4ed875	-0.0031562124
128	0xbdf21927	-0.11821204
129	0x3df45512	0.119302884
130	0xbd06116e	-0.032731466
131	0xbd5d7a56	-0.054071747
132	0xbcc9d11f	-0.02463585
133	0xbe14f92b	-0.14548175
134	0xbd72ebb6	-0.059306823
135	0x3d81c1f2	0.0633582
136	0xbe11b906	-0.14230737
137	0x3d9eb4c3	0.07749321
138	0xbd163b5d	-0.036677707
139	0xbd16318b	-0.03666834
140	0x3d3b3d34	0.045712665
141	0xbe117f27	-0.14208661
142	0x3d1713ef	0.036884245
143	0xbd30f4a3	-0.043202054
144	0x3d8f7280	0.07004261
145	0x3d3ef75c	0.04662262
146	0xbe35f37e	-0.17768666
147	0xbe1eabfe	-0.15495297
148	0xbd8cd94b	-0.06877383
149	0x3ba18e58	0.004930299
150	0xbe2fd69c	-0.1717171
151	0xbc509242	-0.012730183
152	0xbdb6041c	-0.088875026
153	0xbd913c5b	-0.0709159
154	0x3d0390da	0.032120563
155	0xbe183fdd	-0.14868112
156	0xb8a11c22	-7.6823184e-05
157	0xbe283b30	-0.16428828
158	0xbd069a81	-0.03286219
159	0xbdedc946	-0.116106555
160	0xbdc8651c	-0.0978491
161	0xbd97f03d	-0.07418869
162	0xbda93562	-0.08262135
163	0xbd07c425	-0.033146042
164	0xbe255d11	-0.16148783
165	0x3dc7df90	0.09759438
166	0xbe00d089	-0.1257955
167	0x3d2d5cdb	0.042324882
168	0xbe173f61	-0.14770271
169	0xbe3cf1ae	-0.18451568
170	0xbc809731	-0.015697094
171	0xbdea905b	-0.11453315
172	0xbd7fb01b	-0.062423807
173	0xbda08eec	-0.0783976
174	0xbe1c8c9d	-0.15288015
175	0x3d8a469b	0.06751748
176	0x3dd7f1cb	0.10544165
177	0x3d51c67d	0.051214684
178	0xbd0f0ec4	-0.03492619
179	0x3d896e85	0.06710533
180	0xbb59367a	-0.0033144043
181	0x3cc950d4	0.024574675
182	0x3d0a359f	0.033742543
183	0x3d356b7a	0.04429195
184	0x3cd19cac	0.025587402
185	0xbc40b574	-0.011762012
186	0xbe01821f	-0.12647294
187	0xbe030c5b	-0.12797682
188	0x3d8806f2	0.0664195
189	0x3d8a6311	0.06757177
190	0x3b282a04	0.002565981
191	0x3dcb6f8a	0.09933384
192	0xbc52fb44	-0.012877289
193	0xbe516660	-0.20449209
194	0xbbb17c79	-0.0054164496
195	0xbd38c927	-0.04511371
196	0xbd39295a	-0.04520545
197	0x3534fddf	6.7424656e-07
198	0xbe1b647a	-0.15175048
199	0xbe12268a	-0.14272514
200	0xbe22a9f9	-0.15885152
201	0xbbf4ac7a	-0.00746685
202	0x3d243b3a	0.040095545
203	0xbbc0b728	-0.005881209
204	0x3c9cebbd	0.019155378
205	0xbdb9eee2	-0.090787664
206	0xbd830df4	-0.06399146
207	0xbd0cc0fc	-0.03436373
208	0xbd29b54e	-0.04143267
209	0xb9d1bcb3	-0.00040004178
210	0xbddf1f09	-0.10894591
211	0xbdb86950	-0.09004462
212	0x3a8fa6a8	0.0010959702
213	0xbe088053	-0.13330202
214	0xbce80f6b	-0.028327664
215	0xbe385a19	-0.1800312
216	0x2d6f48d5	1.3601749e-11
217	0xbd324e8b	-0.043531936
218	0x3d5f45a3	0.05450977
219	0x3d1e60bf	0.038666483
220	0xbdb54fd5	-0.088531174
221	0xbdc32b61	-0.09529758
222	0xbe2b5043	-0.16729836
223	0xbd80fcf9	-0.06298251
224	0xbdfa7705	-0.122297324
225	0xbdb251fd	-0.08707044
226	0x3d8aa26a	0.06769259
227	0xbdef4aff	-0.11684226
228	0x3d7f99b7	0.062402453
229	0xba7d29da	-0.00096574205
230	0xbda28f12	-0.07937445
231	0xbda0ac17	-0.078453235
232	0xbc5d3e48	-0.013503619
233	0xbd9912d5	-0.07474295
234	0xbe16bbc8	-0.1472007
235	0xbe25aa49	-0.1617824
236	0xbe0f7053	-0.14007692
237	0xbe0aa213	-0.13538389
238	0xbda0cdf2	-0.07851781
239	0xbe284874	-0.16433889
240	0xbd64264a	-0.055700578
241	0x3d53699a	0.05161438
242	0xbdc950c4	-0.09829858
243	0x3d53447d	0.051578987
244	0x3dfa244f	0.122139566
245	0xbe0f7adb	-0.1401171
246	0x3d6aadc7	0.057294633
247	0xbdc7002f	-0.09716832
248	0x3e224989	0.15848364
249	0xbd2100fc	-0.03930758
250	0x3d4fb193	0.050706457
251	0x3dfb88f4	0.12281981
252	0x3dc29ff3	0.09503164
253	0xba0bb9e2	-0.0005330128
254	0x3cdb247a	0.026750792
255	0xbe3ebac8	-0.18625939

weight f4 [128, 768]
0	0xbc0e9085	-0.008701448
1	0xbc127ed0	-0.008941367
2	0xbc9ddf5c	-0.019271545
3	0xbd43c725	-0.04779734
4	0xbb8fe66f	-0.0043914835
5	0x3cd59667	0.026072694
6	0x3d20ae7d	0.039228905
7	0x3c31b02e	0.010845227
8	0xbcbd080e	-0.02307513
9	0x3c8d044c	0.017213963
10	0x3d2f6053	0.04281647
11	0xbc772bde	-0.015086142
12	0xbb565d86	-0.0032709553
13	0x3db2a209	0.08722312
14	0xbcb79b14	-0.022412814
15	0xbc0e471c	-0.008683946
16	0x3c42f357	0.011898837
17	0xbd0f540a	-0.034992255
18	0x3c545143	0.012958827
19	0x3ced0761	0.028934183
20	0xbd268cf6	-0.040661775
21	0x3db4a793	0.08821025
22	0xba8e6b9e	-0.0010865813
23	0x3d1ef138	0.038804263
24	0x3d139b72	0.036036916
25	0xbce83660	-0.02834624
26	0x3c8837d6	0.016628187
27	0xbd097c69	-0.033565912
28	0xbd76b7db	-0.060233932
29	0xbc42612a	-0.011863986
30	0x3cfbcf15	0.030738393
31	0xbcb161b7	-0.02165304
32	0x3b181845	0.0023207825
33	0x3ccf667e	0.025317427
34	0x3d120164	0.035645857
35	0xbc4a4aa5	-0.012346898
36	0x3d042f9b	0.032271963
37	0x394ae169	0.00019348193
38	0x3b8849c1	0.004159183
39	0x3d0b8362	0.034060843
40	0x3c4b1ef0	0.012397513
41	0x3bc19659	0.0059078154
42	0xbc0d4ec1	-0.008624733
43	0xbcf1bfa9	-0.029510336
44	0xbd59a998	-0.053140253
45	0x3cd81e87	0.026381744
46	0x3bba2acd	0.005681372
47	0x398c27b6	0.00026732468
48	0x3c1a0cdf	0.009402483
49	0x3c8653af	0.016397325
50	0xbaa19016	-0.0012326266
51	0x3cc2efc6	0.023795974
52	0xbaccb4f4	-0.0015617893
53	0xbb84e207	-0.004055265
54	0xbcc608df	-0.024174152
55	0x3c6cdaea	0.01445649
56	0x3bb881ce	0.0056307083
57	0x3b4c0887	0.0031133012
58	0x3c1cf813	0.00958063
59	0x3d018ef5	0.031630475
60	0xbc95174e	-0.01819959
61	0xbc2af6e9	-0.0104348445
62	0xbc3d00ba	-0.011535818
63	0xbba1cdda	-0.0049378695
64	0xbc29dd3b	-0.010367687
65	0x3be48679	0.006974038
66	0x3b579598	0.0032895561
67	0xbcde7c4f	-0.027158884
68	0xbcf2b388	-0.029626623
69	0xbca4ebcf	-0.020131974
70	0xbccdf8b4	-0.025143005
71	0x3cf2e1e4	0.029648729
72	0x3cb01019	0.021492051
73	0xbc28744f	-0.010281636
74	0xbaae8642	-0.0013315158
75	0x3c92dff8	0.017929062
76	0xbc88d760	-0.016704261
77	0x3bde084d	0.006775892
78	0xbc9fc4dc	-0.01950305
79	0x3c8e0b0a	0.017339248
80	0x3c8cab7e	0.017171618
81	0xbbeaeadf	-0.007169112
82	0xbd4ad95a	-0.04952369
83	0xbc2294f3	-0.009923208
84	0xbc0cdc6b	-0.008597474
85	0xbd237d19	-0.039914224
86	0xbcde33f2	-0.027124379
87	0xbcd23bb5	-0.025663236
88	0x3ca21a9f	0.019788085
89	0x3ce8af85	0.028404007
90	0x3d10f2af	0.03538769
91	0x3c0a49c1	0.008440436
92	0xbb91e68a	-0.004452531
93	0xbd096682	-0.033545025
94	0xbd861b38	-0.0654816
95	0x3ba8f1b6	0.0051557673
96	0x3c87e203	0.016587263
97	0x3aa3aa50	0.001248667
98	0xbcdaa402	-0.026689533
99	0x3c9dfd49	0.019285815
100	0x3d679652	0.05653984
101	0xbd72e671	-0.059301797
102	0xbd7b02fe	-0.06128215
103	0xbb2ad42d	-0.0026066408
104	0x3c3ea47a	0.011635894
105	0x3ca104d4	0.019655623
106	0xbc13386a	-0.008985618
107	0x3c5198d5	0.012792786
108	0xbc5b7fa1	-0.013397128
109	0xbc8b7c1c	-0.017026953
110	0xbd2aa21e	-0.041658513
111	0x3c919d1e	0.017775115
112	0x3cd4c2ac	0.025971733
113	0x3d5af44f	0.053455647
114	0x3d00259e	0.031285875
115	0xbc81944b	-0.015817782
116	0x3c50c735	0.012742807
117	0x3b9f32cc	0.0048583504
118	0xbd08f51c	-0.03343688
119	0x3d3cfae9	0.046137724
120	0xbc598b12	-0.013277786
121	0x3c3d1925	0.011541639
122	0x3bda9d8c	0.006671613
123	0x3d1ba04c	0.037994668
124	0x3d650c0e	0.0559197
125	0x3b79f815	0.0038142253
126	0xbbabca60	-0.005242631
127	0x3c3934af	0.011304065
128	0xbd064aca	-0.03278617
129	0xbc5755c2	-0.013143005
130	0xbc1e4967	-0.009661055
131	0xbd43b6d9	-0.0477818
132	0x3b14f0d2	0.0022726548
133	0x3cb461ae	0.022019234
134	0x3a6a9091	0.00089479337
135	0x3ce46335	0.027879337
136	0xbcae4296	-0.021271985
137	0xbb121f54	-0.0022296505
138	0xbd5decdf	-0.054180976
139	0xbd1bfd3b	-0.038083296
140	0x3ca1f28b	0.019768974
141	0x3cc45e18	0.023970649
142	0x3cb275e9	0.02178474
143	0xbc315841	-0.010824264
144	0x3c9ac793	0.018893993
145	0x3c03d72c	0.008046906
146	0x3cfa50c1	0.030556085
147	0xbbeb4a1b	-0.007180465
148	0xbd0fcfd8	-0.035110325
149	0x3cab5195	0.020912925
150	0x3caf5763	0.021403974
151	0x3b1d774f	0.0024027412
152	0xbd79762a	-0.060903706
153	0x3c231aed	0.00995515
154	0x3aeb2d0b	0.0017942501
155	0xbcdfd9b6	-0.027325492
156	0xbd37ada3	-0.044843327
157	0x3c88fe14	0.016722716
158	0x3bac676c	0.0052613523
159	0x3cb0fe93	0.021605765
160	0xb9e9f531	-0.00044623905
161	0x3ca56b8f	0.02019289
162	0xbc83c21c	-0.01608377
163	0xbba9d8ad	-0.0051833005
164	0x3bca38f7	0.0061713415
165	0xbc8d4abb	-0.017247548
166	0xbd09e8e3	-0.033669364
167	0xbd267971	-0.04064316
168	0xbca67b2a	-0.020322401
169	0x3b212840	0.0024590641
170	0xbb1ea47a	-0.0024206922
171	0x3b18be29	0.0023306704
172	0xba0bb9f9	-0.0005330141
173	0xbd5d68e4	-0.05405511
174	0x3c991528	0.018686846
175	0xbb412b76	-0.0029475368
176	0xbb13b6de	-0.0022539417
177	0xbd11a57a	-0.0355582
178	0xbc853ef0	-0.016265363
179	0xbd2d1a3a	-0.04226134
180	0x3c21dcb6	0.009879282
181	0x3c7619ce	0.015020801
182	0x3b8cfc76	0.0043025566
183	0xbbc62cec	-0.0060478356
184	0xbc296338	-0.010338597
185	0xbce17fa6	-0.027526688
186	0x3b23b0d4	0.0024977224
187	0x3c3e26bf	0.0116059175
188	0xbc8ad5b8	-0.016947612
189	0x3ca0a8dc	0.019611768
190	0xbd20c155	-0.039246876
191	0xbc84de28	-0.016219214
192	0x3cab5c26	0.020917963
193	0xbcf7bdc1	-0.030241849
194	0xb9c88a06	-0.00038249808
195	0xbd45457e	-0.048161976
196	0xbc1f2d2b	-0.009715359
197	0x0e3408a0	2.2190866e-30
198	0xbcdd09cb	-0.026982209
199	0xb95df866	-0.00021168738
200	0xbce8f4b9	-0.028437005
201	0xbc693125	-0.014232908
202	0xbc911ad2	-0.017712984
203	0xba645d30	-0.0008711396
204	0xbc553b5d	-0.013014642
205	0x3b75b916	0.0037494353
206	0xbc86abaf	-0.016439287
207	0x3d0495d5	0.032369453
208	0xbd054000	-0.03253174
209	0x3cd1e860	0.0256235
210	0xbc7617cf	-0.015020325
211	0xbd06770c	-0.032828376
212	0xbd0b9afd	-0.034083355
213	0x3d1953c1	0.03743339
214	0xbb55bcdb	-0.0032613787
215	0x3c8a8740	0.016910195
216	0x9da1f9a9	-4.2874488e-21
217	0xbceb1217	-0.02869515
218	0x3b43286e	0.0029778737
219	0x3c6d3466	0.014477825
220	0x3cbc9e80	0.023024797
221	0x3c63aaa7	0.013895667
222	0x3d069631	0.032858077
223	0x3c30457c	0.010758754
224	0xbb7cd28b	-0.0038577642
225	0xbafecd2f	-0.0019439812
226	0xbb7cce04	-0.0038574943
227	0xbb419e25	-0.0029543724
228	0x3b3bb0eb	0.0028639387
229	0xbbf7e603	-0.0075652613
230	0xbcbb1d45	-0.022841105
231	0xbd5c8d9b	-0.053845983
232	0xbc5bab9d	-0.013407615
233	0xbdb743a6	-0.0894845
234	0xbc16180b	-0.009161006
235	0xbbfbfe53	-0.00769023
236	0xbd46c0be	-0.048523657
237	0x3c3f62da	0.011681283
238	0x3caaf1d4	0.020867266
239	0xbd29d2d5	-0.04146083
240	0x3ca39a07	0.019970907
241	0xbccf30bf	-0.025291799
242	0xbd15baf8	-0.03655526
243	0xbc836c5a	-0.016042877
244	0x3cea4a73	0.028599953
245	0xbd83a168	-0.0642727
246	0xbc0715af	-0.008244916
247	0x3c942ae9	0.018086867
248	0xbd74c936	-0.059762202
249	0xbba37da0	-0.004989341
250	0x3c3ec485	0.011643534
251	0xbc4ab0aa	-0.012371222
252	0x3bc4800a	0.0059967088
253	0x366ced66	3.5304924e-06
254	0xbb90fd27	-0.0044247094
255	0x3c9e6074	0.019333102

bias f4 [128]
0	0x3d145ec3	0.036223184
1	0x3d2b0a8b	0.0417581
2	0x3c7a76d2	0.015287118
3	0x3d4c1124	0.049821034
4	0xb6c6e823	-5.927884e-06
5	0xa79e3726	-4.39136e-15
6	0xbbc47b89	-0.005996172
7	0xba88ea9d	-0.0010445897
8	0xba49812c	-0.00076867896
9	0x3c519d62	0.012793871
10	0xbd3b015d	-0.045655597
11	0xb82c4328	-4.107054e-05
12	0xaa01ca1b	-1.1527621e-13
13	0xba29762f	-0.0006464449
14	0xbc7b2efc	-0.015331026
15	0x3bbb2052	0.00571064
16	0xb67da736	-3.7797267e-06
17	0xa957f114	-4.7948692e-14
18	0xb3749a17	-5.695082e-08
19	0x3c5f4ad4	0.01362868
20	0x3c61ac6e	0.013774021
21	0x3ba3fa14	0.005004177
22	0x3ca7ef0a	0.020499725
23	0xbcb6d185	-0.022316704
24	0x3d0f8a86	0.035044216
25	0xb113fd5a	-2.153533e-09
26	0x3ce018b7	0.027355535
27	0xb641d261	-2.8881698e-06
28	0x3b939cfd	0.0045047984
29	0xbd492dfe	-0.049116127
30	0xb7c47013	-2.341721e-05
31	0x3c347a91	0.01101555
32	0x3c8417ae	0.016124573
33	0xb490623a	-2.689356e-07
34	0xbad9499b	-0.0016577722
35	0x3c83e200	0.016098976
36	0xbad33f64	-0.0016116914
37	0x3d31946c	0.043354437
38	0xbd52e003	-0.051483165
39	0x3c96f065	0.018425176
40	0xba6f48e0	-0.00091279857
41	0xbad6f0e9	-0.0016398701
42	0x3c6fdf94	0.0146407075
43	0xbae0de22	-0.0017156044
44	0x3d25fe28	0.040525585
45	0x3cf910b4	0.030403472
46	0xbc4fd920	-0.012686044
47	0x3d2ced18	0.042218298
48	0x3d394aed	0.04523747
49	0x3cef8b8f	0.029241351
50	0xaf59aaf9	-1.9796777e-10
51	0x3ba55541	0.0050455634
52	0x3d377868	0.044792563
53	0x3c516fd9	0.012783014
54	0x3c9837f6	0.018581372
55	0xbbf62487	-0.0075116786
56	0xbd0575ec	-0.032583162
57	0x3cf9f756	0.030513447
58	0x3cee0827	0.029056622
59	0x3d2a0963	0.041512858
60	0xbcb5dffc	-0.02220153
61	0xbbdc2222	-0.006717936
62	0xba064316	-0.0005121691
63	0xabd0216d	-1.4788566e-12
64	0x3cade934	0.021229364
65	0xafb98111	-3.374301e-10
66	0x3c95fc8f	0.018308906
67	0xbb8275f6	-0.003981347
68	0x3cc93138	0.024559602
69	0xaf0e3e76	-1.2937015e-10
70	0xb90443d3	-0.00012613767
71	0x3ccb7cc7	0.024839772
72	0x3cebd466	0.028787803
73	0x3bfbaadc	0.00768028
74	0x3cc84d35	0.024450878
75	0xbb25ef11	-0.0025319497
76	0xbabdfb9f	-0.0014494545
77	0xae4ef0b8	-4.705278e-11
78	0x399dd1db	0.00030101728
79	0x3a7c038f	0.00096135674
80	0x3d24a731	0.04019851
81	0xbce09253	-0.027413523
82	0xbd029d22	-0.031888135
83	0xbcebdc3b	-0.028791538
84	0xbba2e845	-0.0049715363
85	0xbc0ccde3	-0.008594009
86	0x3cede048	0.02903761
87	0xbb258fad	-0.002526264
88	0x3c0911be	0.0083660465
89	0xbd28ccc3	-0.0412109
90	0xba06e0fa	-0.00051452185
91	0xbc2d8689	-0.010591158
92	0x3c0d9580	0.008641601
93	0xb1350bd3	-2.6345688e-09
94	0x3d0bac12	0.034099646
95	0x3c4e0f02	0.01257682
96	0x3d08470a	0.033270873
97	0x3cffd348	0.031228676
98	0x3c8cd108	0.017189518
99	0xafa11254	-2.9298752e-10
100	0x3bab23ec	0.005222788
101	0xa3e2c75d	-2.4587403e-17
102	0xbd1105be	-0.035405867
103	0x3b5f7f30	0.003410291
104	0x3d0b4f33	0.034011077
105	0x3d07296f	0.0329985
106	0x3d1c744f	0.038196858
107	0x392cc715	0.00016477362
108	0x3ce7e96b	0.028309545
109	0xbb46ec9b	-0.003035343
110	0x3d1cff09	0.038329158
111	0x3c46a07b	0.012123222
112	0x3cd02927	0.025410248
113	0x3c80e386	0.015733492
114	0x3ce8da75	0.02842448
115	0x3d2ee8e2	0.042702563
116	0x3ce5e3dd	0.028062755
117	0x3c324693	0.010881084
118	0x3ced56eb	0.02897211
119	0x3d0424b8	0.03226158
120	0x3c9674f9	0.018366324
121	0xac84fc18	-3.7796537e-12
122	0x3cf4363a	0.029811013
123	0x3ce642c6	0.028108012
124	0x3c49a3c2	0.012307109
125	0xbcb756f1	-0.022380324
126	0x3cb5de75	0.022200802
127	0x3ce5b3a8	0.028039768
