outputs/PROTEINS_Glo/model.pth (torch, 581590 bytes, 13 tensors)

bias f4 [128]
000000 4c 58 7f ba f5 68 5b 3c 78 00 aa 3c a5 74 b4 3c
       -0.0009740635 0.013391723 0.020752177 0.022028277
000010 92 49 0c 3d fc 10 1f b0 0c 46 fb 3c c8 e7 8a 3c
       0.03424985 -5.7868e-10 0.03067305 0.016956225
000020 a5 e0 17 bc 06 4d 9b 3b a2 39 00 bb 8e d0 ce 3c
       -0.009269868 0.0047394065 -0.0019565602 0.025245931
000030 07 0c 94 3c ad a2 b4 b9 de 51 86 3d 46 1b fd 3c
       0.018072141 -0.00034453478 0.06558584 0.030896794
000040 d1 dd 03 3d 59 57 df 3c f8 c1 4c 3c 53 ba 45 3d
       0.032193962 0.02726333 0.012497418 0.048273396
000050 eb 2c 63 bb 92 22 18 3d 7d f8 09 3d 88 52 20 bc
       -0.0034664224 0.037142344 0.033684243 -0.009785302
000060 2d 7b 5a 3c 53 51 80 3c 4c 40 cd 3c 8e d9 35 bc
       0.013335031 0.015663778 0.025055073 -0.011099232
000070 7f ca 67 3c 15 2a a8 3b ac e9 16 3b 6b 45 52 3d
       0.0141474 0.0051319697 0.0023027463 0.051335733
000080 8d 61 d0 3b 30 a2 e4 3c b0 f4 5b 3d 4e 42 41 3d
       0.006359285 0.027909368 0.05370015 0.047182374
000090 42 54 04 3d b2 34 a8 3c f5 f6 3c 3b 00 00 00 00
       0.032306917 0.02053294 0.0028833721 0.0
0000a0 f7 f9 7f 3b bb 9b d4 3b ee a2 98 3b 02 34 05 3d
       0.0039058903 0.006488291 0.0046580946 0.0325203
0000b0 9f f4 0f 3d d2 6c 53 3c 82 f6 f0 3c 39 15 56 3c
       0.0351454 0.012904363 0.02941442 0.013066583
0000c0 0a ca fc 3c 2c cb 04 bc f4 42 08 3d 23 fd b7 3c
       0.030858058 -0.008105081 0.033266976 0.022459572
0000d0 25 f4 15 3d 49 41 85 b8 10 1a 1d 3d 79 16 14 3d
       0.036609787 -6.3540945e-05 0.038354933 0.036154244
0000e0 34 59 37 3d 5e 39 68 3c 57 12 27 3b fe ab 1a 3c
       0.044762805 0.014173834 0.002549311 0.00944042
0000f0 57 15 11 3d 24 54 90 3c 02 1b 0b 3d 19 46 78 ba
       0.035420742 0.017618246 0.033961304 -0.00094708946
000100 a2 b8 be 3c 00 00 00 00 76 af 56 3c 4f dd 1e bb
       0.0232814 0.0 0.013103357 -0.0024240797
000110 47 07 07 3c c1 8c 4a 3d 79 ae ea 3c c7 47 1d 3d
       0.008241481 0.04945064 0.028647648 0.03839853
000120 8f 53 14 3d 00 00 00 00 ac d5 1b bc 11 b9 15 3d
       0.0362125 0.0 -0.009511393 0.036553446
000130 f4 24 ad 3c 4d bd 96 ba a8 b4 4d 3d 8b a6 2d 3d
       0.021135785 -0.0011500508 0.050221115 0.042395156
000140 01 05 31 3d 8f f0 7e 3c 51 f0 9d 3c cd f8 18 3d
       0.043217663 0.015560283 0.01927963 0.03734665
000150 a1 cd b0 3c 69 08 17 3b 58 d6 4d 3d 96 a1 13 bc
       0.021582427 0.0023045784 0.050253242 -0.009010693
000160 46 8a 45 3c 3d 9c 2e 3d 2f 99 52 3d 07 7f 04 3c
       0.012056893 0.04262947 0.05141562 0.008086926
000170 2b 76 60 3c 26 6e f6 3c 32 e2 1b 3d aa 85 2f 3d
       0.013700048 0.03008182 0.038057514 0.04285208
000180 7e 25 dd 3c bd f4 1e 3c e1 89 2e 3d a1 d6 78 3d
       0.026995417 0.009701905 0.04261196 0.06075156
000190 bb 86 5c b7 ff 4d e3 bc b0 68 31 bc 54 81 47 3d
       -1.3144391e-05 -0.027747152 -0.010828182 0.04870732
0001a0 be 2e 5c 3d d1 e6 28 b5 52 66 97 3d 45 49 8b 3b
       0.053755514 -6.292076e-07 0.07392563 0.004250678
0001b0 df 53 bc 3b 33 03 b1 3a ce b5 64 bc ed 52 c8 3c
       0.005747303 0.0013504982 -0.013959361 0.024453605
0001c0 46 b3 ae 3c 10 d3 4b 3c d2 9c 40 3c 63 96 e4 3c
       0.021325719 0.012440458 0.011756139 0.027903741
0001d0 b4 a0 0c 3d 6e 6d 59 3c 0e ac a0 b9 f3 6e 61 3d
       0.034332946 0.013270719 -0.0003064577 0.05503745
0001e0 a1 62 cb 3b c3 eb d8 b7 c2 19 28 3d d2 a6 f7 3c
       0.006206826 -2.5858992e-05 0.04104019 0.030230913
0001f0 c3 1f e7 bb e9 31 38 bc b0 0a 75 ac cd f6 de 3c
       -0.007053347 -0.011242368 -3.4822527e-12 0.027217293

weight f4 [128, 3]
000000 83 b2 f6 3d c0 a1 e4 3c 6e f1 56 3b 2d a7 75 3d
       0.12045767 0.02790916 0.0032797712 0.059973884
000010 ae c7 46 3e bb 00 d4 3d 48 32 09 3e b4 36 a9 bc
       0.1941211 0.10351702 0.13398087 -0.020655967
000020 83 d1 3d 3e 6b 2a 1c 3e 0a 3a ed bd 03 5b 17 bd
       0.18536954 0.15250556 -0.11583336 -0.03695203
000030 6b f2 21 be 60 43 97 3d 36 2c 80 bc f9 43 9a ba
       -0.15815131 0.07385898 -0.015646081 -0.0011769525
000040 6d 2c 1b ba 8b 4d ec 2c 8e 5d 44 3e 25 e0 97 bd
       -0.0005919401 6.7161324e-12 0.19176313 -0.07415799
000050 9d 2d 36 3e 00 82 ac bd 2e d1 a7 3d f3 06 1f 3e
       0.17790838 -0.08423233 0.08194195 0.15529995
000060 a5 c1 05 3e 6e 19 c9 3d 2a 55 cc 3d 1d a5 3d 3e
       0.13062151 0.098193035 0.09977181 0.18520017
000070 aa 8f 1c 3e 2d 88 f7 3d 2a 58 4e 3e 25 ce 32 3e
       0.15289178 0.1208652 0.2015082 0.1746145
000080 ab a9 57 bc d6 19 de bc 90 0e 43 3e 54 a1 b6 bc
       -0.013163011 -0.027111929 0.19048524 -0.022293724
000090 d4 8a 2f be 16 14 55 3e a9 c9 f2 3d 53 fd 2b 3e
       -0.17142802 0.20808443 0.1185487 0.16795854
0000a0 49 f6 e1 3d bc 4d 0d 3e bb e8 5a bd 4e e8 23 be
       0.11033303 0.13799185 -0.053444605 -0.16006586
0000b0 10 af 6f 3e 6c 66 5a 3e 3a 6c 2b be 23 12 b1 bd
       0.23406625 0.21328133 -0.16740504 -0.086460374
0000c0 da 6e cf bd d0 c4 03 be b7 cc 91 3e 50 be 91 3d
       -0.10128565 -0.12868047 0.28476498 0.07116377
0000d0 9c d4 aa bd 7d 07 47 3b 8e 96 95 3c df 13 08 be
       -0.08341333 0.0030369454 0.018260267 -0.1328883
0000e0 26 1f 77 3e 00 c8 25 3e cf 57 2d be 47 cb 39 3d
       0.24132976 0.16189575 -0.16928028 0.045359876
0000f0 ea b7 97 bc c0 71 81 ba 27 98 04 3b 82 89 ce bd
       -0.018520314 -0.0009875819 0.0020232291 -0.10084821
000100 3a 41 0b be 7a 22 95 3e b0 09 1d 3e 33 ca 12 be
       -0.135991 0.29127866 0.15335727 -0.14334945
000110 7b a2 ea 3d 50 58 e5 bb 5a 39 91 bc 60 ee 83 bc
       0.11456772 -0.006999053 -0.017727543 -0.016104877
000120 e2 7e 2e bd be a5 f4 3c b6 43 0f 3e c8 48 e8 bd
       -0.042601474 0.029864188 0.13990673 -0.11342007
000130 2b e9 02 3e 32 25 ad 3b 6f 7e d8 bc 74 fa 82 3e
       0.12784259 0.005283975 -0.026427476 0.25581706
000140 97 e3 11 3d 35 67 6a 3e 65 22 bf 3d 5e 9e 3a 3e
       0.035617437 0.22890933 0.09332732 0.18224475
000150 27 86 72 3e 52 2b 18 be da d0 4d be e1 fd 10 3e
       0.23683988 -0.14860275 -0.20099202 0.14159347
000160 d1 c1 96 bb 5c e1 73 3d f5 16 2e 3e 31 6f 0b 3e
       -0.0046007414 0.05954109 0.17000945 0.13616635
000170 a3 f5 73 bc 71 a5 11 be 03 c3 08 be a2 82 4b 3e
       -0.014890107 -0.14223267 -0.13355641 0.19874051
000180 11 cf c7 bd 4b eb 99 bd b0 a4 65 3e 3d a5 09 3d
       -0.09756292 -0.07515582 0.22426105 0.03360485
000190 31 28 48 be 9b 58 f4 3d 55 0e aa bd cd 56 39 be
       -0.19546582 0.11930963 -0.08303515 -0.18099518
0001a0 30 d6 bc 3e 61 9d 1d 3e be 95 23 be 7b 5a 70 3e
       0.36882162 0.15392067 -0.15975091 0.23472016
0001b0 dd 01 27 be 3d d4 d8 bd f1 13 5b 3e 73 55 b4 bc
       -0.16309305 -0.10587356 0.21394326 -0.022013402
0001c0 1b c0 8e 3d d5 37 4b ba f6 c6 94 3d b4 20 e7 3d
       0.06970235 -0.0007752155 0.07264511 0.112855345
0001d0 de 9a b2 3d 4c 9c 8b b8 d9 e8 9f b7 90 ec 1e b3
       0.08720945 -6.657149e-05 -1.9062705e-05 -3.7002394e-08
0001e0 b4 f0 ca 3d 1d ab 60 3e a0 f3 ff 3d 57 7c 78 3d
       0.09909192 0.21940275 0.1249764 0.060665455
0001f0 2b 0a 01 3e 96 bb 05 3d d8 c2 8a bd 2f e6 d6 3d
       0.12601535 0.0326496 -0.06775445 0.10493123
000200 73 ce 9f 3d f8 71 2e bd 43 97 05 be c5 43 92 3e
       0.07803049 -0.042589158 -0.13045983 0.2856733
000210 3e 02 e8 bd b6 b0 a4 3d 70 86 a5 bc 13 ee 62 bc
       -0.11328553 0.080415174 -0.020205706 -0.013850707
000220 31 c0 0b 3e 4f 75 f2 3c 26 f1 7b 3e 77 85 1d be
       0.13647534 0.029596953 0.2460371 -0.15382944
000230 18 47 11 3e f5 1b b3 be 7d 9d e4 3d 67 d5 70 be
       0.14187276 -0.34982267 0.11162851 -0.23518907
000240 4f 4b 1f be 59 06 1d 3e fb 05 66 3e db 04 a3 3b
       -0.15556072 0.15334453 0.22463219 0.004974944
000250 56 d1 26 b3 87 7b 5b b5 03 f4 24 3e 20 12 04 bd
       -3.8840277e-08 -8.1763613e-07 0.16108708 -0.032243848
000260 7c 3e 61 be 8c 87 c4 bd 4d 7f b0 3d 9b cf a9 3d
       -0.21996492 -0.09596166 0.08618031 0.08291551
000270 b4 b7 af 3d 29 d1 10 bd ae bb 2d 3e 57 a5 8e b5
       0.085799605 -0.03535572 0.16966125 -1.0627945e-06
000280 61 3f ac b5 1b 72 2b 35 69 0f 0b be bf 39 11 3e
       -1.2833444e-06 6.386851e-07 -0.13580097 0.14182185
000290 2b 5f 7d bc 42 e9 ba 3d 61 80 7e bd fb 06 8a 3d
       -0.015464584 0.09126522 -0.06213415 0.06739613
0002a0 32 db be 3d 52 05 fb bd a2 e7 8b 3e 68 22 71 3d
       0.09319152 -0.12256874 0.2732516 0.058870703
0002b0 ac 0f 74 3e 8d b6 00 bd c2 30 46 3d 22 06 28 3d
       0.23834103 -0.031424094 0.048386343 0.041021474
0002c0 87 a8 52 bb 1a 45 27 3d 51 20 4e 3e 6e 74 9c bd
       -0.0032143907 0.040837385 0.20129515 -0.07639395
0002d0 73 ac 62 3e f6 b3 05 be 6d 40 89 3c 69 e7 95 3d
       0.22136097 -0.13056931 0.016754353 0.073195286
0002e0 76 ef 8e bd d5 20 66 3b 1d 18 b9 3c 00 5a 87 bd
       -0.06979267 0.0035114784 0.022594506 -0.06608963
0002f0 76 5a 78 3e 88 17 6e ac 9a 53 70 ba 3b 5e 82 ba
       0.24253258 -3.3834897e-12 -0.0009167731 -0.0009946296
000300 8f d8 9e 3d 70 b7 a2 bd 50 ab 20 be a1 e4 92 bb
       0.07756149 -0.07945144 -0.1569035 -0.004482821
000310 3e 50 5b b9 07 06 e2 ba 92 f9 d8 3d 5c a0 86 bd
       -0.0002091536 -0.0017244228 0.10594477 -0.06573555
000320 fb 8a 27 3e ab 1e 5b 3e 1b e2 55 3b d3 8f 40 3e
       0.1636161 0.21398418 0.003263599 0.18804865
000330 d9 cc d0 3d 0a 92 2e 3e 86 6d a2 bd 9e 95 bf 3d
       0.101953216 0.17047897 -0.07931046 0.09354709
000340 e4 11 11 be 4e 29 11 be c6 1a 88 3d d7 ef df bc
       -0.14166981 -0.14175913 0.06645732 -0.027336044
000350 7d 2f 0b be 99 96 f9 3d 49 68 04 be 87 09 61 3e
       -0.13592334 0.12186927 -0.12930407 0.2197629
000360 00 2a fb bd f8 3a 87 bd 42 73 a8 3d c0 79 52 b0
       -0.1226387 -0.06603044 0.08225109 -7.657057e-10
000370 62 d1 c1 b1 95 f9 3b b5 b9 ad ee bd 42 1c 61 3e
       -5.6408433e-09 -7.002612e-07 -0.11654229 0.21983436
000380 61 a2 61 bd b5 de 1b be e5 45 0b 3e 4a 8d 3b 3e
       -0.055086497 -0.15221675 0.13600881 0.18315616
000390 e4 d0 b7 bc 24 d4 02 3e 75 8b ab bc cb 53 4f 24
       -0.022438474 0.12776238 -0.020940522 4.4956945e-17
0003a0 43 08 98 ba 09 9c 61 af 2d f1 36 be d5 80 10 3e
       -0.0011599142 -2.0519066e-10 -0.17865439 0.14111646
0003b0 51 07 e9 bd c1 f5 25 be 8b 23 84 3d 46 4b 24 3e
       -0.113783486 -0.16207029 0.06452092 0.1604434
0003c0 0f 5d 05 bd 3f df fe bd 20 d3 62 3e 45 31 93 3d
       -0.03255945 -0.124449246 0.2215085 0.07187132
0003d0 b7 45 67 3e e2 f4 80 bd b8 d5 a6 be 56 7d a5 3d
       0.22585188 -0.06296708 -0.3258493 0.080805466
0003e0 e8 b4 70 be c1 05 5d bd 34 15 81 3e 07 f8 af bc
       -0.2350651 -0.053960565 0.2521149 -0.021480573
0003f0 19 db 4b be c9 f3 77 3e 98 60 8f 3c c3 de ca 3d
       -0.19907798 0.2421409 0.017502114 0.0990577

bias f4 [128]
000000 c7 90 49 3c dc 64 94 3a 8b b8 28 3b f8 fb 26 3c
       0.012302584 0.0011321562 0.0025744762 0.01019191
000010 b8 9d e8 3a 1d a5 fa bc 7b 8b bc 3a 50 5d a1 bb
       0.0017747199 -0.03059631 0.001438483 -0.004924454
000020 f7 1f bb bb fa eb 69 3b c7 2c 81 3c 53 27 e0 3b
       -0.0057105976 0.0035693632 0.015768422 0.0068406253
000030 b2 d3 35 ba 34 23 5c 3c 89 9b 79 b9 bf 17 8c 3c
       -0.0006936147 0.013436127 -0.00023804432 0.017101167
000040 a2 66 d3 3c b9 27 57 3c 44 d7 cf bb fd 94 2b b6
       0.025805775 0.013132029 -0.0063428003 -2.5567708e-06
000050 ea 10 dd b8 b5 0e 23 3c 08 91 ad bb 2d 5c 8e 3c
       -0.00010541252 0.009952237 -0.00529683 0.017377937
000060 00 00 00 00 ae 22 fc 3b 2a 97 89 bb 53 63 1c bb
       0.0 0.007694564 -0.0041989284 -0.0023862913
000070 2b a2 b9 3c 79 ba 17 3c 25 c9 e1 3b 9d 17 60 bb
       0.022660336 0.009260767 0.0068904334 -0.0034193762
000080 4c 3b 9d bc eb bf 88 bb 56 11 2c 3c c7 c1 3b bb
       -0.019193314 -0.004173269 0.01050218 -0.0028649436
000090 9e ac f6 ba 06 32 9a 3c ed 93 df 3b e0 b7 15 bc
       -0.0018819754 0.018822681 0.006823054 -0.0091380775
0000a0 4b 9c ff ba 14 f7 1f 3c a3 07 0f bb bc 71 62 bb
       -0.0019501535 0.009763498 -0.002182462 -0.0034552654
0000b0 00 00 00 00 da ab 86 3c 89 a2 be 3b b4 7b 87 3c
       0.0 0.016439367 0.0058177155 0.016538478
0000c0 84 8b b2 3c ae 6e 83 3c 09 36 55 bb 03 55 b2 3c
       0.021795042 0.016043987 -0.0032533428 0.021769052
0000d0 41 4f a1 3b 63 a5 ca 3c ea 54 2f 3a f5 28 85 3c
       0.004922778 0.024737066 0.00066883734 0.016254881
0000e0 00 00 00 00 94 4f c2 3c 82 40 db bb 20 67 11 3c
       0.0 0.023719586 -0.0066910395 0.008874685
0000f0 83 b1 43 bc 00 00 00 00 ec e1 02 bb fb 6f 87 3c
       -0.011944178 0.0 -0.0019971086 0.016532889
000100 18 a3 ab 3b a8 4f d4 3b 5a a3 a5 3b ac 62 2a 3c
       0.005237948 0.0064792223 0.0050548734 0.010399502
000110 57 67 df 3b 54 30 0e 3b 99 a4 2d bc dc a0 58 3b
       0.006817739 0.0021696286 -0.010598325 0.0033054864
000120 55 9e 88 b8 32 e4 9b 3c e2 fc d6 3c b9 47 78 bc
       -6.514477e-05 0.01902971 0.02624363 -0.015153819
000130 7a e9 5f bb b8 ac 1d 3c f6 ba 74 3c c6 ac 98 3c
       -0.0034166262 0.009623699 0.014937153 0.018637072
000140 6f 0b e4 3c 30 83 d8 3b 85 9d 52 bb b9 bf 6d bc
       0.027837483 0.0066074356 -0.0032137346 -0.014511042
000150 6e f8 8c 3c 00 00 00 00 ba 82 92 b8 83 61 67 bb
       0.017208304 0.0 -6.986172e-05 -0.0035305924
000160 64 72 a2 bb 41 75 80 bc 29 74 18 bc a1 19 94 3c
       -0.004957484 -0.015680911 -0.0093050385 0.018078627
000170 e4 f3 93 3c db 43 85 3c 00 00 00 00 5e fa b0 3c
       0.018060632 0.016267708 0.0 0.02160376
000180 0c ef 82 3a c9 10 85 3c 4b 22 89 3c 60 84 5e bc
       0.0009989454 0.016243355 0.016739985 -0.013581365
000190 59 70 17 bb fd 04 e5 ba a1 29 70 bb ea 23 ff bb
       -0.0023107736 -0.00174728 -0.0036645907 -0.0077862637
0001a0 16 38 0e 3c 64 cf 8a bb 55 a7 86 3c 80 52 2d bc
       0.008680364 -0.0042361487 0.016437212 -0.010578752
0001b0 49 17 9f 3c e4 37 c3 3a 00 00 00 00 fc b2 3a bb
       0.019420283 0.0014893976 0.0 -0.002848803
0001c0 a7 e6 9c bc 97 e2 8b bb 83 10 69 3b 00 00 00 00
       -0.019152952 -0.004268955 0.003556282 0.0
0001d0 00 00 00 00 2f e0 61 bc 06 f4 d3 b9 00 00 00 00
       0.0 -0.01378636 -0.00040426868 0.0
0001e0 14 e1 e8 3b d1 7a 99 bb 92 1a 3f bb 33 48 db bb
       0.0071069095 -0.0046838303 -0.0029160124 -0.0066919564
0001f0 23 16 18 bc 6e 75 04 b9 53 49 e9 ba ae 3a 9c bb
       -0.009282622 -0.00012632247 -0.0017798342 -0.0047677374

weight f4 [128, 128]
000000 0c 2d 0c be 84 d4 7c bc 9e 71 f0 bd 26 a8 09 3d
       -0.13689059 -0.015431527 -0.11740421 0.033607624
000010 68 99 18 3d e3 2b 11 38 b9 34 a8 3d 9d 7a e5 3d
       0.037255675 3.4611567e-05 0.08213181 0.11205027
000020 a2 18 69 3d b8 32 12 3e 8d 26 f5 3d 97 30 1b 3e
       0.056908257 0.1427716 0.119702436 0.15155254
000030 6b 9d 12 3e cc 8c d9 3d 46 24 44 3d 18 35 1a bd
       0.14317863 0.10622558 0.047886156 -0.03764829
000040 da 50 bb bb 3e 65 8a bd 76 39 24 3d 4a 16 af bb
       -0.0057164254 -0.06757592 0.04009386 -0.0053432332
000050 f8 17 c3 ba 98 a6 4b 3d f0 5e 87 3d 72 26 00 3b
       -0.0014884463 0.049719423 0.06609905 0.0019554165
000060 54 c0 af bd da f1 d4 3d 92 08 00 bd 5d 96 bc 3d
       -0.085816056 0.10397692 -0.031258173 0.09208367
000070 0a de 9a 3d 11 e7 60 3d 96 bf 1c 3e b2 eb 14 3c
       0.07561882 0.054907862 0.15307459 0.009089397
000080 ac 30 c5 3d 91 bf 45 bd cd 2d ea 3d cf 0c a8 3d
       0.09628424 -0.048278395 0.11434517 0.08205568
000090 d3 fc 07 3d cf ca 78 bd d4 c0 70 bd b0 27 97 39
       0.033200096 -0.06074029 -0.058777645 0.00028830534
0000a0 44 b6 7d bd ae 50 5d bd 84 68 a3 bd 77 33 96 3d
       -0.0619414 -0.05403202 -0.07978919 0.07334035
0000b0 02 25 10 bd 11 65 45 bc 12 ab 33 bd f9 38 35 bc
       -0.035191543 -0.012048022 -0.043864317 -0.011060947
0000c0 7d 53 26 3d d7 5b 83 b3 96 3e 76 3b 3e 17 ab 3d
       0.040606964 -6.1168684e-08 0.0037573925 0.083540425
0000d0 63 42 d1 3d cf 87 17 9d 75 d4 93 bd c1 4c df 3c
       0.102177404 -2.0054895e-21 -0.07218257 0.027258279
0000e0 2d a9 24 3d 50 61 13 3e c5 1e 66 3d a6 3c 01 be
       0.0402004 0.1439259 0.056181688 -0.12620792
0000f0 b7 e9 fb 3c 3a cb cb bd 0d 33 c2 3d f4 51 3b 1c
       0.030751092 -0.09950872 0.094823934 6.197903e-22
000100 76 bc d4 3d bb 5d e3 38 c1 d8 75 ba 18 52 06 bd
       0.103875086 0.00010841662 -0.0009378307 -0.032793134
000110 72 47 84 bc f3 78 01 be 6e 3c 5a bc 83 01 54 3d
       -0.016147349 -0.12643795 -0.013320072 0.051759254
000120 2c 9c bb bb 6b dd 65 b8 49 7a f4 3c e3 ab 2a 3d
       -0.0057254042 -5.4804066e-05 0.029843466 0.04166783
000130 42 f9 95 bc 68 e7 77 32 c2 92 9f bc 54 b0 12 3d
       -0.018307332 1.4429908e-08 -0.01947916 0.03581269
000140 80 aa 22 3d 56 be a5 3d 4c e4 19 3e 7b 8e 24 3e
       0.039713383 0.08092944 0.15028495 0.16069977
000150 a0 24 c5 bd bc 1a e3 bd 7b a3 1d 3d 78 7f 9b bd
       -0.09626126 -0.110890836 0.038485985 -0.07592672
000160 26 25 6d bb 9e 64 1b be 70 dd 8b bd f3 90 ac bd
       -0.0036185472 -0.15175101 -0.06829345 -0.08426084
000170 3f 4b dd 3d 4a 87 c8 3d 61 6f d8 3b 59 69 ca bd
       0.10805368 0.09791429 0.0066050743 -0.09883375
000180 f2 2f ed bb 59 ad 03 3e 1e 00 18 be dd e0 33 3c
       -0.0072383815 0.12859096 -0.14843795 0.010978905
000190 66 58 b3 1f 7d 77 08 bd 3c 96 43 3b 2e 76 ab 3d
       7.595569e-20 -0.033317078 0.0029844185 0.0837215
0001a0 dd a9 87 3d 77 e5 0b 31 23 3e a3 3d 59 62 8a bb
       0.06624196 2.0357598e-09 0.07970836 -0.0042231497
0001b0 99 2a b9 bc 37 60 86 3d d1 7a e0 3d 0f 67 09 be
       -0.02260332 0.0656132 0.10960925 -0.1341822
0001c0 0a b8 7a bd 74 18 c0 3d fe 5a 86 bd 74 05 de bd
       -0.06121067 0.09379664 -0.06560324 -0.10840884
0001d0 38 d9 9f bc b7 a9 ed bd 7c b6 4b 3d 70 b5 dd 3c
       -0.019512758 -0.11604636 0.049734578 0.027064055
0001e0 33 f5 1b 3e fb ae 80 2e 17 9d 9d 3d d6 d5 b8 bd
       0.15230255 5.851849e-11 0.07695978 -0.09025161
0001f0 a5 0d db 3d 7e 24 12 3d f1 5e a4 34 ae a4 00 3b
       0.10695962 0.035679333 3.061646e-07 0.0019629407
000200 39 c4 ff b9 47 47 f0 ba 85 18 36 bb 46 11 da ba
       -0.00048783587 -0.0018331789 -0.002778561 -0.0016637228
000210 83 1b 38 bb 63 a6 85 ab a8 ee 87 bb 08 46 4c bb
       -0.002809257 -9.4964e-13 -0.004148323 -0.0031169672
000220 61 be 12 bb fb b6 86 b8 45 69 d1 ba c1 87 23 bb
       -0.0022391307 -6.423701e-05 -0.0015976807 -0.0024952742
000230 28 7b 95 b9 7c 3e 32 bb 28 c0 90 ba b9 88 24 bb
       -0.00028511253 -0.0027197888 -0.0011043595 -0.0025105907
000240 3e 8b 6b ba 47 27 1e bb 34 09 50 b7 6f ad da bb
       -0.0008985287 -0.0024132298 -1.2399909e-05 -0.006673507
000250 07 a7 a0 b7 b4 d6 a8 ba 9d 28 a5 bb 10 d4 56 9b
       -1.9151264e-05 -0.0012881369 -0.005040242 -1.7770186e-22
000260 36 2a f8 ba 23 9b 97 b8 2b 07 79 bb 5c 03 b8 ba
       -0.0018933478 -7.2291376e-05 -0.0037998657 -0.0014039087
000270 0d f0 e9 bb 16 44 c3 ba cc f9 ea ba be e4 22 b9
       -0.007139212 -0.001489761 -0.0017927228 -0.00015534737
000280 32 a6 83 b9 31 f3 c4 b8 7f 96 22 bb 36 15 af bb
       -0.00025110092 -9.391306e-05 -0.002480894 -0.0053431047
000290 93 ff 2b b9 bb f3 22 bb 51 4c 13 bb e5 ae 24 b2
       -0.0001640304 -0.0024864513 -0.0022475908 -9.585823e-09
0002a0 bc a5 98 ba 8f a6 0d bb fe f1 c7 b9 5a 56 a9 ba
       -0.0011646072 -0.002161417 -0.00038136536 -0.0012919412
0002b0 b0 cf b2 bb 61 48 88 ba 9b 14 c0 bb 68 2b d3 bb
       -0.005456887 -0.0010397547 -0.0058618314 -0.0064443834
0002c0 40 b4 01 bc 71 fc 96 9b 69 60 53 3a 7c 45 39 ba
       -0.00791651 -2.4978555e-22 0.00080633775 -0.0007067544
0002d0 fd 8c 19 bb 92 fc d3 2a 35 10 65 ba 79 ac bc bb
       -0.0023429983 3.7656385e-13 -0.0008738072 -0.005757865
0002e0 25 bd e1 bb 0a 08 97 b9 4c fa 12 bb 76 37 58 b9
       -0.006889003 -0.00028806954 -0.002242702 -0.00020620026
0002f0 dd ed 2e bb cc a9 70 ba 57 5a 27 bb f3 3b bd 37
       -0.002669207 -0.0009180575 -0.0025536024 2.2558472e-05
000300 b3 47 e9 ba a0 2c 71 b4 bd 09 8d bb 2d 3b 86 bb
       -0.0017797857 -2.2461109e-07 -0.0043041394 -0.00409641
000310 d0 e5 70 ba 52 ac 1e bb 08 0b 06 bb 12 14 d1 bb
       -0.0009189518 -0.0024211598 -0.0020453352 -0.0063805664
000320 74 b6 a8 b9 c0 ee 95 39 95 94 cf ba 87 39 3b bb
       -0.00032179395 0.00028597377 -0.0015837128 -0.0028568225
000330 ee 4b 03 bb 9f fd 3d a3 f3 82 1d bb 00 eb 96 bb
       -0.0020034271 -1.0299417e-17 -0.002403435 -0.004605651
000340 22 46 dc ba f3 63 27 ba d8 6d ea bb f3 a5 02 bb
       -0.0016805569 -0.0006385438 -0.0071542077 -0.001993534
000350 70 2b a2 ba 3a 36 65 bb 54 78 e8 b9 40 bf bc ba
       -0.0012372565 -0.0034974949 -0.0004434014 -0.0014400259
000360 fb db 41 ba 13 e1 60 bb e6 ce d4 bb 1b 0e a1 ba
       -0.00073951454 -0.0034313842 -0.006494391 -0.0012287529
000370 ec ba 02 3a 00 73 ba b9 bb 6b a7 bb 17 05 10 bb
       0.000498696 -0.00035562366 -0.005109278 -0.002197569
000380 5b c3 0a bb b4 f1 ef ba 6b 77 b6 bb 6a 5c e4 ba
       -0.002117357 -0.0018306286 -0.005568435 -0.0017422561
000390 04 1c 4e 39 76 9a 1e ba 53 0d 81 9e bb 45 0e bb
       0.00019656128 -0.0006050238 -1.3663917e-20 -0.0021709043
0003a0 3d 57 3e bb e1 09 19 9b 8d 02 a2 ba 03 90 f4 ba
       -0.0029043697 -1.2659055e-22 -0.0012360379 -0.0018658641
0003b0 dd 40 e2 ba 85 22 c1 bb 38 b2 e5 ba ea 1d d1 bb
       -0.0017261762 -0.0058940076 -0.0017524427 -0.00638174
0003c0 32 6d 32 bb 82 e2 a4 ba 6f 20 a9 bb b7 47 1e bb
       -0.002722573 -0.0012579712 -0.005161337 -0.0024151632
0003d0 26 07 90 33 06 25 d0 b8 48 ee 12 bb ec bf a1 bb
       6.706823e-08 -9.925109e-05 -0.0022419859 -0.004936209
0003e0 a3 b1 bb bb fd e3 db 30 1f c5 94 ba f2 16 c3 ba
       -0.005727963 1.5999145e-09 -0.001135025 -0.0014884158
0003f0 cf d8 5a ba 79 3d 79 bb b4 ee 0a 34 3d ae 8d bb
       -0.0008348347 -0.0038031025 1.2939091e-07 -0.0043237493

bias f4 [128]
000000 bb 3e 93 3c b1 93 15 bc b6 4c c0 3c dc 7b 97 bb
       0.017974248 -0.009129451 0.023474079 -0.0046229195
000010 00 00 00 00 51 0c 89 3c 99 a4 77 ba e9 07 d8 3b
       0.0 0.016729506 -0.0009446829 0.00659274
000020 ca e3 1d b5 0d 57 fb bb 16 65 82 b9 9b d2 0d bb
       -5.8818534e-07 -0.0076702894 -0.00024870847 -0.0021640423
000030 f4 96 18 3c 79 81 42 bb 92 ad 86 bc 19 da 3d 3c
       0.009313334 -0.0029679222 -0.016440187 0.011587643
000040 fb 73 01 3d 1e c7 ff b7 56 2f 8d 3b 70 3f b5 9a
       0.03160475 -3.049109e-05 0.0043086214 -7.4962334e-23
000050 18 68 24 bd 19 52 a7 bc d8 98 0c bc 1f 09 a7 bb
       -0.040138334 -0.02042489 -0.008581363 -0.005097523
000060 72 5f ab 3c 52 4d ed bb ae bd ae bb 4e fc ef bc
       0.020919535 -0.0072418833 -0.00533267 -0.029295113
000070 91 40 f4 bc 23 e0 80 3b d5 0b 7f 3d 08 9c ca b9
       -0.029815944 0.003932969 0.062267143 -0.00038644695
000080 58 7c d3 3b 19 c0 b3 3c 8f 68 80 bc 2f 27 fd 3b
       0.006454032 0.021942185 -0.015674857 0.0077256183
000090 37 67 80 3b 49 37 3f 3b e0 62 b2 3b 64 40 de 3a
       0.003918554 0.002917724 0.0054439157 0.0016956446
0000a0 9d 82 46 3b c0 67 ac ba 11 31 c8 3c f7 cd f0 3c
       0.0030290254 -0.0013153479 0.02443746 0.029395087
0000b0 11 8c b3 3b cf 0b 09 bc 00 00 00 00 e6 c9 16 bd
       0.0054793437 -0.008364632 0.0 -0.03681364
0000c0 01 a6 f7 3b cc 8a 17 3c 76 e4 99 3c 52 37 4e bc
       0.007557631 0.0092494 0.018785696 -0.012586432
0000d0 c0 83 87 bc 35 c0 a7 3c 16 9f 8b 3c 6a 88 fd b8
       -0.016542315 0.020477394 0.017043632 -0.00012089389
0000e0 e6 ea 08 bc 91 c9 6c 3c 2c a7 f6 ba 8b e2 0c 3c
       -0.008356785 0.014452354 -0.0018818132 0.008598934
0000f0 5f 59 f1 bb 20 20 9e bb 92 41 69 3b d7 6c 00 bb
       -0.00736539 -0.004825607 0.0035592061 -0.0019596124
000100 00 00 00 00 62 55 21 bc ea 1a 07 3c 0a 9a c2 3b
       0.0 -0.009847017 0.008246163 0.005938773
000110 5e df 44 3d fb ea 56 bc 11 4e 54 bc 44 16 f2 bc
       0.048064582 -0.013117547 -0.012958066 -0.029551633
000120 80 d7 51 bc 26 48 70 ba d3 e8 a6 3c 00 00 00 00
       -0.012807727 -0.00091660244 0.020374691 0.0
000130 4a 0c 08 b9 20 ad 4f ba b1 d5 a7 b9 fc 89 36 3c
       -0.00012974549 -0.0007922221 -0.00032011935 0.0111412965
000140 93 f3 ca bb 42 32 16 bc a6 33 b5 bb ed 31 a4 3c
       -0.006193587 -0.009167256 -0.0055298386 0.020043338
000150 be af db b8 04 e7 4e bc e1 51 8f b9 81 91 8b bc
       -0.00010475468 -0.012628321 -0.0002733609 -0.017037155
000160 5c a9 cf bb 23 e5 29 3d 09 3d ad bb cb f8 ba 3c
       -0.006337328 0.041478287 -0.005286817 0.022823712
000170 b3 fd 40 bc d1 ef 0e 3d 32 b8 86 3c 1c 4d a5 3a
       -0.011779237 0.034896675 0.016445253 0.0012611481
000180 54 ba b3 b7 c0 04 29 3c 03 4a 48 bc 7f 3e 60 bc
       -2.1425229e-05 0.010316074 -0.012224677 -0.013686775
000190 92 0d 00 3c 95 08 d9 ba aa 4e b1 bb 1e da 2c bc
       0.007815735 -0.0016558344 -0.005410989 -0.01055005
0001a0 7c 6a a8 3c df e3 b6 bb 56 39 c9 3c b0 fc 08 b9
       0.020558588 -0.0055813636 0.024563473 -0.00013064104
0001b0 3b 2a a9 bc 60 91 2b b3 f0 4a 36 bc 6f dd 3b bb
       -0.02065002 -3.9946258e-08 -0.011126265 -0.002866592
0001c0 63 e6 46 3c fe f3 8f bb 13 0b b7 bc 04 35 85 b4
       0.012139889 -0.0043931 -0.022344148 -2.4811754e-07
0001d0 d7 33 8d ba 41 2b 9c bc 35 5a b1 ba cf 52 03 3b
       -0.0010772896 -0.019063594 -0.0013530912 0.0020038371
0001e0 18 bd 0f bb 91 1f dc 3b f8 56 33 3b b9 4c 34 3c
       -0.0021932777 0.00671763 0.002736507 0.01100462
0001f0 79 b5 2e bc db df 13 bd bd ed ad b9 3a 77 bd ba
       -0.010663384 -0.036102157 -0.0003317426 -0.0014455088

weight f4 [128, 128]
000000 86 85 12 3e ca e0 a8 bb 65 56 fc bd 41 4f e6 3d
       0.14308748 -0.00515375 -0.12321166 0.11245585
000010 c1 04 cf 3d bf ed 45 bd 66 08 c7 bc 20 38 a7 bd
       0.101083286 -0.048322435 -0.024295997 -0.08165002
000020 04 54 f2 3d 59 f4 c9 bc 5c 0c 1a 3e 43 1f 9d bd
       0.11832431 -0.024652647 0.15043777 -0.07671978
000030 12 19 33 36 53 ec 44 3d c1 68 95 38 18 98 16 3e
       2.6687671e-06 0.04807694 7.1243856e-05 0.14706457
000040 08 c9 73 3d 8c b0 29 3d a2 ad e1 bd 87 d3 50 b5
       0.05951789 0.041428134 -0.11019446 -7.779385e-07
000050 5a d5 d4 b7 a6 d1 a7 bd 39 05 03 ba 59 60 47 3d
       -2.5371719e-05 -0.08194284 -0.00049980317 0.04867587
000060 3f a0 9b 38 7b e6 ec bc 24 0c a0 39 04 68 74 30
       7.420824e-05 -0.028918495 0.00030526624 8.89145e-10
000070 6a 62 85 3c a5 af 03 3d bf 8f 05 3d 41 23 86 3d
       0.016282279 0.03214993 0.03260779 0.06549693
000080 c9 1b 9a bd fc 91 f9 3d 0b 31 69 bd c0 e7 29 bd
       -0.07524831 0.121860474 -0.056931537 -0.04148078
000090 27 9b 20 3e 61 b6 f6 bc 24 b2 f7 bc 44 f5 87 3d
       0.15684186 -0.030116262 -0.030236311 0.066385776
0000a0 d7 5f 80 a8 b7 e7 34 3b 7d e6 e5 ba b9 9c 16 bc
       -1.4252419e-14 0.0027603933 -0.0017540004 -0.009192639
0000b0 20 4b a9 b2 5f 79 19 3e 8c 2f 9b 3d 8b 38 10 bd
       -1.9708352e-08 0.14987706 0.07577428 -0.035210174
0000c0 ae 95 f7 3c 68 52 ba 3c ec 24 c3 bd 57 90 12 3c
       0.03022274 0.022744372 -0.09528527 0.008945546
0000d0 2f b3 0d 3e ea e1 ee bd 81 d3 a1 bc 16 92 65 3d
       0.13837884 -0.116641834 -0.019754173 0.05604752
0000e0 f1 e0 f6 9a 83 79 3d 3d 97 97 70 bd 75 d2 6b 3d
       -1.0210663e-22 0.04625846 -0.058738317 0.057573754
0000f0 6d cc 0a 3a 48 59 ee 36 f2 d0 bd 3d 0b 33 0e 3e
       0.0005294744 7.1033464e-06 0.09268369 0.13886659
000100 46 18 03 3e 2f 3a 71 3d 8b 1b 65 3e d7 6e c8 bd
       0.12802228 0.05889338 0.22373788 -0.09786766
000110 e3 24 db bc 3e a8 a2 3c e2 a6 b1 bd f6 95 24 3a
       -0.026750987 0.019855615 -0.086744085 0.00062784494
000120 d4 85 db b5 08 7a 92 3d de d3 31 3d f7 ad 4a bd
       -1.6355721e-06 0.07152182 0.043414943 -0.049482312
000130 eb 09 43 3e 3f aa ec bd 7b 57 88 bd 4e 3d 8b 3c
       0.19046752 -0.11555909 -0.066573106 0.016997006
000140 9e 4b db 3d 29 7a 1e bc 19 8c 40 3d bb 88 d2 3d
       0.10707782 -0.00967268 0.047008608 0.102799855
000150 f2 61 c9 3d 62 1c ba b7 cb 6f 10 a9 ad 9e ff 3d
       0.09833135 -2.2186145e-05 -3.2071388e-14 0.12481437
000160 73 30 ea 3c b6 db eb bd a2 af 5c bc c0 0e 43 bd
       0.028587556 -0.11516516 -0.0134696085 -0.04762149
000170 1e cb af 3c 8c 6d 87 bd a2 7e b1 31 db 70 ad bd
       0.021459159 -0.06612691 5.1657745e-09 -0.08468791
000180 cf c5 ec bd 17 bb 92 3d cc d2 ee 3d b2 17 78 3d
       -0.115611665 0.07164591 0.116613 0.060569473
000190 84 0e cb 3d 2b 3d 4a 32 fe cd 6a bb f8 7d 35 3e
       0.09914878 1.17718555e-08 -0.0035828347 0.17723835
0001a0 78 96 8b bd 7c 03 e2 2a 76 53 74 3d d9 17 27 3d
       -0.06815809 4.0148082e-13 0.059649907 0.040794227
0001b0 a7 4d 7c bd 1b 1e db bd 56 e9 a4 9a 81 64 06 b6
       -0.061597493 -0.106991015 -6.8205785e-23 -2.0026057e-06
0001c0 a5 8a 6d 3d 94 ca 49 3b 88 15 10 bd 48 b7 2e 1b
       0.05799355 0.0030790912 -0.035176784 1.4452164e-22
0001d0 6e cf f4 34 5e 9f 05 3d 1e de b3 b5 f3 23 f1 b7
       4.5599467e-07 0.032622688 -1.3401184e-06 -2.8746179e-05
0001e0 0e 01 34 bd fd 56 f1 3d c2 f6 2f 3d f5 09 d0 3d
       -0.04394632 0.1178417 0.042959936 0.10158149
0001f0 3e 81 cf bb 73 66 46 36 02 6e fd bd 92 5e d9 b8
       -0.0063325455 2.9563932e-06 -0.12374498 -0.000103649814
000200 fb 40 28 ba 7b 3f 18 36 3d 98 d2 b9 37 85 aa ba
       -0.0006418374 2.2686716e-06 -0.00040167748 -0.0013009672
000210 ee a9 8e bc 11 19 21 bc 4d 4e 66 bb 44 73 ed 3a
       -0.017415013 -0.009832636 -0.0035141886 0.0018116017
000220 96 ea b5 b9 32 0e cc b1 4e 4e 9a b9 57 96 b3 3c
       -0.0003469779 -5.9387952e-09 -0.0002943151 0.021922274
000230 4a 77 b0 b4 bd 0e e2 b9 a8 52 db 9a 8c 7d 40 bb
       -3.286935e-07 -0.0004311706 -9.0709815e-23 -0.0029371707
000240 af 67 83 b9 8b 73 68 b9 26 58 54 ba f7 aa 05 23
       -0.00025063517 -0.00022168287 -0.00081002933 7.246148e-18
000250 f3 4d d2 1d 6e da e9 b9 18 df 98 b2 e1 94 af b8
       5.5667135e-21 -0.00044603966 -1.779658e-08 -8.372381e-05
000260 62 55 50 19 f7 9c 8d 3c 3a ec 30 1b d7 6e aa 38
       1.0770591e-23 0.01728676 1.4634708e-22 8.126877e-05
000270 62 6f 11 ba 32 70 3f ba 70 f7 de 3b 9b bd c1 bb
       -0.00055479084 -0.000730279 0.006804399 -0.0059124953
000280 9c e4 0c 3b ae 6d 1b 3b d9 55 25 ba 47 1f 82 ba
       0.0021498566 0.0023716497 -0.0006307043 -0.0009927534
000290 66 2b e5 ba 4f 7a bf bb d8 a0 24 3c fc e7 38 bb
       -0.0017484247 -0.0058434377 0.010048114 -0.0028214445
0002a0 bf 00 bf 2c 4b a3 9c 3b e5 03 99 1d ab 3c 03 3c
       5.4286293e-12 0.004780208 4.050279e-21 0.00801007
0002b0 ad c6 07 a9 02 7e fb ba b5 28 94 39 17 eb 96 ba
       -3.0148345e-14 -0.0019187334 0.0002825909 -0.0011514154
0002c0 33 6e 22 ba f0 60 f9 ba 0a d3 37 bb b7 27 12 bb
       -0.00061962305 -0.0019026082 -0.0028049373 -0.0022301504
0002d0 9c 85 5d bc 60 40 3e bb 3a 3a 6e 3a 4e b4 ad 33
       -0.0135206245 -0.002903007 0.0009087656 8.0887375e-08
0002e0 d3 df b9 28 3b 3b ab b5 bd d1 9d ba 69 6f 9b b8
       2.0636194e-14 -1.2757731e-06 -0.0012040656 -7.411728e-05
0002f0 4c 5b 33 b5 d5 ab e8 29 dd b2 42 b9 d0 03 b4 3a
       -6.681555e-07 1.0332678e-13 -0.00018567914 0.0013734046
000300 86 4f 7f ba 34 2b e0 b5 a3 b2 9d b9 d8 e9 d3 ba
       -0.0009739328 -1.6701874e-06 -0.00030078468 -0.0016167713
000310 20 ba 19 ba a9 57 72 b9 3f 53 08 3c 7d a2 84 bc
       -0.00058642216 -0.00023111574 0.008320629 -0.016190762
000320 aa 65 3a 2b cb 09 ab bb 94 ec 41 ba b6 f5 9c ba
       6.622156e-13 -0.0052196733 -0.00073976186 -0.0011975083
000330 51 eb 2d b9 9d ed 39 3a 6c ab 09 3c 97 7f cb ba
       -0.00016586228 0.0007092597 0.008402687 -0.0015525696
000340 7f e0 0c ba e9 7c f5 b9 c8 8a f8 ba f5 e6 91 bb
       -0.00053740287 -0.00046823107 -0.0018962258 -0.004452581
000350 6f 7d 10 bb 36 a2 86 ae 13 27 13 36 8f e2 c9 bb
       -0.002204742 -6.122429e-11 2.1927451e-06 -0.006161041
000360 ed 70 21 b3 92 5b 00 bc e2 74 21 b8 95 b1 66 ba
       -3.758844e-08 -0.007834332 -3.8494247e-05 -0.00088002655
000370 9f b0 9d bb 88 8f 4e bb 1a 04 ab 39 36 fa a0 ba
       -0.0048123146 -0.0031518657 0.00032618718 -0.00122816
000380 c3 ae e6 bb 39 bc 06 bc d5 9f 8e bb 26 6b c9 b6
       -0.007039876 -0.008223587 -0.0043525496 -6.0027405e-06
000390 de 36 65 39 3a 1f 17 39 fe 57 5b 1c 89 a9 49 b7
       0.00021859581 0.00014412115 7.257475e-22 -1.2020007e-05
0003a0 45 01 75 3c 8b e2 52 1c 41 d0 27 b7 4f 07 56 b9
       0.014953916 6.977597e-22 -1.0002464e-05 -0.00020411353
0003b0 77 31 1b ba 04 86 80 ba 36 17 f0 34 7e d9 a3 2e
       -0.00059201516 -0.0009805565 4.4720372e-07 7.451016e-11
0003c0 c7 81 74 b4 4d 9f 18 3c 61 29 3b ba cd 0e 3a 32
       -2.2771484e-07 0.009315324 -0.000713965 1.082999e-08
0003d0 9d c5 8f 28 d9 c2 05 38 91 c9 8c 1d 58 18 99 1b
       1.596189e-14 3.1891137e-05 3.7266106e-21 2.5327459e-22
0003e0 fb bd 8d bb 00 fe 1b 3c ca 5d ed 39 45 76 78 3b
       -0.004325626 0.009521008 0.0004527404 0.003791229
0003f0 0f 48 85 bc 4a ac 9c 19 24 f8 12 3a fb 88 4d b7
       -0.016269712 1.6199609e-23 0.0005606434 -1.2250845e-05

weight f4 [1, 384]
000000 b9 c5 ee 3d 4f c3 9d 3d 6d bf 83 3d fb 93 9c bd
       0.11658806 0.07703268 0.06432996 -0.076454125
000010 ec 2f 3c bd e8 2d ed 36 91 eb ba 3d bf 40 ba bd
       -0.04594414 7.0684946e-06 0.09126962 -0.090943806
000020 c7 55 a1 bc d7 d0 aa 3d 01 4b 0f bd 27 8b 06 3e
       -0.019694222 0.08340614 -0.03498364 0.1313902
000030 e8 c3 9c 3d 71 5d c8 3d 37 81 5a bd ab 0f ed 3d
       0.07654554 0.097834475 -0.053345885 0.11575254
000040 71 9a 8a 3d 53 ef a4 3d e5 89 f9 bc 27 f6 58 bc
       0.067677386 0.0805346 -0.030461261 -0.013242281
000050 76 68 bc 3b 99 c4 89 3c 9e 3a dc bd ba 38 70 3a
       0.0057497574 0.016817378 -0.10753368 0.00091637264
000060 92 34 dc bd 7b 26 07 3c 41 9b a5 3d 02 1b 02 bd
       -0.107522145 0.008248921 0.08086253 -0.031764038
000070 fb ba b8 bd 55 6d fa 3c 1e 6b 94 3d e3 f0 08 bd
       -0.09020039 0.030569712 0.072469935 -0.033432852
000080 46 0a 8d 3d d5 cd 82 bd 3c 58 a7 bd d6 36 1b 3d
       0.06886725 -0.063869156 -0.08171126 0.037894093
000090 e4 8a e6 bd 55 72 a4 3c 14 34 a2 3d 00 dc 83 21
       -0.1125696 0.020074049 0.07920089 8.935139e-19
0000a0 eb e8 02 3e a8 06 d4 3d 8c c8 8d bd de 0e 11 be
       0.12784164 0.10352832 -0.06923017 -0.14165828
0000b0 51 6f 6e 3d b6 78 e1 3d ab af 36 3c 6f 38 fb bc
       0.05821163 0.11009352 0.011150281 -0.030666558
0000c0 45 51 33 bd 87 2f 87 bb 74 79 f8 3d 6c 20 83 3d
       -0.043778677 -0.0041255387 0.1213254 0.06402668
0000d0 d3 fc 62 3d 3e 6f 09 26 91 86 86 3d a1 31 0c bd
       0.055416893 4.7682185e-16 0.06568635 -0.034227017
0000e0 28 73 a6 bd 26 2c b1 bc 66 7b cb 3d ff b0 26 3d
       -0.08127433 -0.021627497 0.09935646 0.04069614
0000f0 32 a0 e0 3d 36 4a ae bd 37 f5 21 bd 2a b0 2d 9b
       0.10968055 -0.08510248 -0.039540496 -1.4367146e-22
000100 58 9c 6b 3d 55 9d bd a3 3c 40 29 bd d5 12 2a bd
       0.057522148 -2.0558054e-17 -0.041321024 -0.041521866
000110 b7 3f 3b 3c 20 49 e0 bd d8 d7 ca 3d aa f1 bb 3c
       0.011428765 -0.109514475 0.0990445 0.022942383
000120 7e 03 cb bc 4d 11 c4 9b 96 b3 b0 bd c0 d7 e9 3c
       -0.024781939 -3.243666e-22 -0.08628003 0.02854526
000130 bf b3 d2 3d 21 c9 ae 30 db df 0b 3e 9a cd e4 3d
       0.1028819 1.271733e-09 0.13659613 0.11172028
000140 f1 57 1c 3d 41 50 42 bd 34 19 1a 3e d0 99 01 3e
       0.038169805 -0.047439817 0.15048677 0.12656331
000150 0d b1 98 bd 00 f1 55 3d 1b 66 91 bd d9 3e 75 3d
       -0.07455645 0.05223179 -0.07099553 0.05987439
000160 23 e7 0e 3e 39 42 7e bd d1 63 9f bd 73 2d b8 3d
       0.13955359 -0.062074874 -0.0778271 0.08993044
000170 21 7d db 3d b7 ac f3 3d 77 a7 49 3d cc 14 d7 3b
       0.10717226 0.11898177 0.049231973 0.0065637585
000180 41 8d b9 bb 5d c1 52 bd 2f bb bf bd d6 41 f2 3c
       -0.0056625907 -0.051453937 -0.09361874 0.029572409
000190 52 7c 6f 9d 81 0b 94 bd 53 67 ab 3b 09 df af 3d
       -3.1695659e-21 -0.07228757 0.005230823 0.085874625
0001a0 bc 4a 99 bd 61 cf 42 31 c3 f5 0d be bc c7 a4 3d
       -0.074849576 2.8348597e-09 -0.13863282 0.08045909
0001b0 a1 3f e8 3d 1d 30 af 3d ee c0 b5 bc 2d 8a bd bd
       0.11340261 0.08554099 -0.022186723 -0.092548706
0001c0 e3 87 3a bd 8e 3a c5 bd e4 36 fd 3d 31 f2 03 bd
       -0.045539748 -0.09630309 0.12363985 -0.032213394
0001d0 fb e1 0e be 96 18 90 3d 56 33 ee 3d 8d a4 a9 bd
       -0.13953392 0.070359394 0.11630885 -0.08283339
0001e0 eb 4c fc 3d c3 84 8a 32 c0 6d 9d bd 96 ca 9f 3d
       0.123193584 1.6125687e-08 -0.07686949 0.07802312
0001f0 ad db 04 3d ba e3 58 bc dd b9 b5 28 5b 31 1d bd
       0.03243606 -0.013237888 2.0175642e-14 -0.038377147
000200 76 f8 f2 3d c4 46 83 bb b4 41 d0 bd cf ca 6e bc
       0.118637964 -0.0040062387 -0.10168782 -0.0145747205
000210 d9 f4 39 3d bb 83 d0 bd 5e 6e 12 be 00 db 6d 3d
       0.04539952 -0.101813756 -0.14299914 0.058070183
000220 57 f3 5e bd 4d c6 c4 3c 3a 5b a7 3c f9 aa 02 3e
       -0.054431286 0.024020338 0.020429242 0.12760533
000230 58 70 41 32 8e 8e 52 3d c2 e2 97 36 cd 54 fa 3d
       1.1259623e-08 0.051405482 4.5265488e-06 0.12223206
000240 19 2f a5 bc 90 e4 6e 3d 7a 1c 6b bd 29 ff 48 af
       -0.02016406 0.058323443 -0.057400204 -1.8280545e-10
000250 13 0f 24 2e fe 11 0d 3c e9 d2 8e bb c8 a8 60 3c
       3.730267e-11 0.008610247 -0.0043586385 0.013712116
000260 e2 33 45 2b 3d 0e b1 bd 99 8a 16 38 ff 39 5f 36
       7.006046e-13 -0.08645294 3.5891866e-05 3.3263348e-06
000270 5d b3 b8 bb 11 89 b0 3d 50 0c 57 bd 00 50 c8 3c
       -0.005636616 0.08619893 -0.052501976 0.02445221
000280 50 05 17 bd ba 8b 5f 3d 5b 77 36 3d 69 35 30 bd
       -0.0368703 0.054576613 0.04454742 -0.043019686
000290 16 81 37 3d 28 df 57 3c a1 b2 c1 3d 53 54 81 bd
       0.04480084 0.013175763 0.09457899 -0.06314912
0002a0 b9 3d db a9 14 4e 5f bd 8e 59 b2 bb 6f 2b b4 bd
       -9.736261e-14 -0.05451782 -0.0054428047 -0.08797347
0002b0 87 41 dd 98 65 fd da 3d e3 97 93 3d 4b f0 9e 3d
       -5.7193327e-24 0.106928624 0.072067045 0.07760676
0002c0 19 41 d7 bc 55 70 10 3e ca ec ec 3c d8 bf d2 3d
       -0.026276158 0.14105351 0.028921504 0.102904975
0002d0 07 83 01 bd 24 fc 0e 3e 75 49 e1 bc 1c 93 6e 3d
       -0.031619098 0.13963372 -0.027500847 0.058245763
0002e0 3d fc 3f 1f d2 6e 01 3d 23 10 48 bd b0 9e ec 3d
       4.065447e-20 0.031599827 -0.048843514 0.11553705
0002f0 8a e4 7b b9 61 74 a2 99 7f f4 f1 3c 0f 1a 04 3e
       -0.00024022363 -1.6797412e-23 0.02953553 0.12900566
000300 f4 91 bb bc 6e ee af 3c c4 3e 10 3e ca c9 9d 3d
       -0.022896744 0.021475997 0.14086443 0.07704504
000310 49 25 1e 3d 16 15 2a 3d 64 c3 93 bc ab 31 00 be
       0.038609777 0.041524015 -0.018037505 -0.12518947
000320 0a e6 a2 b6 7d 8d 83 3d 59 d5 34 bd 74 5f ad 3d
       -4.8547563e-06 0.06423471 -0.044148777 0.08465472
000330 92 fa 51 3d a3 31 f3 bd f5 32 3f 3d 7f 26 92 3d
       0.051264353 -0.11874702 0.046679456 0.07136249
000340 f6 4f 15 3d 3b d7 95 bc 6c 8e df bd 55 cf d7 bd
       0.03645321 -0.018291106 -0.10915837 -0.10537592
000350 53 96 2b 3d c8 0d 8b 2b 24 a5 a0 31 85 32 1a bd
       0.041891407 9.880369e-13 4.675387e-09 -0.037645835
000360 62 26 f1 bd 34 68 d0 3d fd 59 af bc eb d5 d9 3d
       -0.11774899 0.10176125 -0.021405214 0.10636505
000370 62 a7 c3 3d 56 cd d5 3d 9c ea a2 1a 7f 35 1a bc
       0.0955341 0.10439555 6.738066e-23 -0.0094121685
000380 bb 21 98 bd 45 4b e0 3d 0a ab aa 3d 1e 3b 9a bd
       -0.074283086 0.109518565 0.08333404 -0.07530807
000390 ad a4 a9 bd e8 fd 86 37 85 e8 12 bc 9e c0 b6 3c
       -0.082833625 1.609228e-05 -0.00896657 0.022308644
0003a0 5e f0 38 3c d4 e3 29 37 39 29 8f bd 8a aa c3 bd
       0.011287777 1.012623e-05 -0.069902845 -0.09554012
0003b0 76 aa 7d bd 0b b0 11 be e7 7e 52 34 fd a6 96 b9
       -0.061930142 -0.14227311 1.9603941e-07 -0.00028734645
0003c0 a3 7e 13 3d 41 9e 96 3c f2 5e a0 3c 40 5b 91 9a
       0.036009442 0.018386008 0.019576523 -6.0118017e-23
0003d0 cb ce bd 31 c2 fb 49 bd ad 2a 6a bb 2b a3 48 9a
       5.5241336e-09 -0.04931236 -0.0035731003 -4.1490837e-23
0003e0 18 df b6 3d 7e 90 a0 bc 10 f5 fd 3b 6a 7b 9b bc
       0.089292705 -0.01960015 0.007750161 -0.018979747
0003f0 3b 04 4b bc 16 ab f5 37 53 ac 08 3b 14 e7 5f bb
       -0.012391145 2.9285944e-05 0.0020854666 -0.0034164833

weight f4 [128, 768]
000000 a9 09 29 3b bd 3e 01 3d 0c 6b ad 3b e0 d6 85 ba
       0.0025793111 0.031553973 0.005292302 -0.0010211132
000010 ac f5 42 3b fb 57 13 9d ff 66 63 3d 82 74 fa 3c
       0.0029748483 -1.9500773e-21 0.055518147 0.030573133
000020 30 49 96 bc 2c 56 ae 3a 8a 6e e8 bc 49 b6 9f bb
       -0.018345445 0.0013300828 -0.028373022 -0.004874025
000030 b0 ff 33 3c e0 6f 02 bd eb a0 1b 3d b0 48 8c 3b
       0.010986254 -0.031844974 0.03799526 0.004281126
000040 fe 80 a4 3c 4f e9 e9 3c 92 fa 60 3d 83 30 46 3d
       0.02008104 0.028553633 0.054926462 0.048386108
000050 4c 60 8b ba 94 b1 ef 3c bc 72 5f 3b 3e 42 6c bb
       -0.0010633557 0.02925948 0.0034095487 -0.0036050226
000060 cb 34 25 bc 14 6d 6f 3c 68 11 85 bc 31 9f 03 3d
       -0.010083388 0.014613409 -0.016243652 0.03213424
000070 e0 63 ed 3b 1b b1 48 bc d3 29 c5 3c 56 0f 25 3d
       0.007244572 -0.0122492565 0.024067795 0.04029783
000080 d2 b9 b1 3c 69 f7 9d 3c 4e 20 57 3d 43 dd 66 3d
       0.021695051 0.019283013 0.052521043 0.056363355
000090 5e 8e 32 3d 93 17 c6 3c 72 54 d3 3c ff 72 1c 9e
       0.043592803 0.024181163 0.025797103 -8.282352e-21
0000a0 e4 b7 0b 3d b4 8f 14 3d 2a 37 05 3d 92 fa c6 3c
       0.03411092 0.03626986 0.03252331 0.024289403
0000b0 b1 cf a0 bc fe 13 d7 3c 36 41 37 3d 62 a5 9a 3b
       -0.019630285 0.02625465 0.044739924 0.004719422
0000c0 26 34 9a 3b dd 7a 01 9d b1 6d 44 3d d3 12 bd 3c
       0.0047059236 -1.7136527e-21 0.047956172 0.023080265
0000d0 0d eb 11 3d 05 57 91 1b 7e 2d d5 3b 00 0e a9 3c
       0.035624553 2.4044473e-22 0.006505667 0.020636559
0000e0 85 a3 48 3d ff 9f 45 bc 4d ee aa 3c 8d 48 2f bc
       0.04898407 -0.012062072 0.020865584 -0.01069845
0000f0 76 f6 62 3b c8 df 91 ba 0e ae c8 3c da 8b f0 9b
       0.0034631765 -0.0011129314 0.024497058 -3.9795046e-22
000100 0a 3d eb 3b 22 ee 00 9b 54 53 25 3d 21 5d 59 3d
       0.0071789073 -1.0664857e-22 0.04036267 0.05306733
000110 25 e6 0c 3d ed de 12 3d dd 05 28 3d 92 6c 4b 3d
       0.03439917 0.03585713 0.041021217 0.049664088
000120 46 bc 0e 3d 25 4b e0 1b 80 53 de bb ec a6 78 3c
       0.03484752 3.7106252e-22 -0.0067848563 0.015176516
000130 92 15 9b 3c d1 a3 b3 1b 7e bc 96 bc c2 65 bf 3c
       0.018931184 2.971893e-22 -0.018400427 0.023363952
000140 61 29 9e 3c b9 2c 29 3b c2 18 cd 3c 4e 0d d6 3b
       0.01930684 0.002581401 0.02503622 0.0065323478
000150 1b db ea ba 54 9d ba bc 0a f1 06 3d d8 67 9c 3c
       -0.0017918082 -0.022780098 0.032944717 0.019092485
000160 37 72 5a bc 79 15 99 3a f8 c5 0e 3d 53 65 38 ba
       -0.013332895 0.0011679373 0.034856766 -0.00070341415
000170 ae 05 64 3c c4 5f a0 bc 8d 1c a6 bc 5a 9c 36 3d
       0.01391737 -0.019576915 -0.020277286 0.044582702
000180 de 8f 8e 3c 40 59 a0 bc 06 f7 34 3d 8d 1d 24 3d
       0.017402586 -0.019573808 0.044180892 0.040067244
000190 6d 9e 84 1b f9 98 b1 bb c7 04 c7 ba a7 be 22 3d
       2.1939948e-22 -0.005419847 -0.0015183919 0.0397326
0001a0 ff 3e f4 3c e4 64 ad 2e e7 d7 2d 3d ac 02 45 bb
       0.029815195 7.885051e-11 0.04244223 -0.0030061407
0001b0 3a d3 3a bb 2d 60 33 3d c2 b0 1f 3d 2e 2b 2a 3d
       -0.0028507248 0.043792892 0.03898693 0.041545086
0001c0 97 32 29 3d 22 c8 43 3d 32 6f 94 3a ab b3 bf 3b
       0.04130801 0.047798283 0.0011324643 0.0058502755
0001d0 fd 1f 48 3d d7 eb 30 3d ba 10 05 3d af ab ea 3c
       0.04885863 0.043193664 0.032486655 0.028646318
0001e0 a7 8c ec 3c d7 75 f4 30 db ec 61 3d b9 d0 30 3d
       0.028875662 1.7786829e-09 0.055157524 0.043167803
0001f0 77 2e 61 3c 73 96 f9 bb 6e 65 09 9c ee 1f 85 3c
       0.013743988 -0.007616812 -4.546059e-22 0.016250577
000200 8a 26 ec bc 5f 4d c6 3b 24 d5 58 3d 28 15 fd 3c
       -0.02882697 0.006051704 0.05293764 0.030893877
000210 f5 4d ed 3c f6 34 6b 3c 75 48 8a 3d 37 77 81 3c
       0.028967837 0.014355889 0.06752101 0.015803916
000220 74 a6 f6 bb b3 d9 0f 3d 9e fe 1f 3b 84 7a 1f bc
       -0.007527167 0.035119724 0.0024413238 -0.0097338
000230 f9 7c c9 23 4a d6 e8 ba 9d e9 0e b9 5b 7b f0 3c
       2.1845392e-17 -0.0017764058 -0.00013629203 0.029355695
000240 9d 60 2e bc 66 f6 ce 3b 14 0b 30 3d b7 c7 c6 ad
       -0.010643152 0.006315994 0.042979315 -2.2598685e-11
000250 64 4c a3 ac bb 2f 23 bc 83 f9 65 b9 ea f9 80 3c
       -4.6412197e-12 -0.00996011 -0.00021932092 0.015744168
000260 de 69 13 9c 83 df 9c 3d aa 0c 72 9b bf 67 13 33
       -4.877505e-22 0.07659819 -2.0021863e-22 3.432046e-08
000270 29 5e 97 3a 6a 44 ec 3a 16 6e 1c 3d 6b db d0 bb
       0.0011548448 0.001802576 0.038190924 -0.006373813
000280 73 f5 0a 3d be 94 19 3c c9 03 8d bc 82 dd 57 3d
       0.033925485 0.009373842 -0.017213719 0.05270148
000290 4f b7 c2 bc 2b cd 34 3d c8 62 94 bc 15 f6 90 3c
       -0.023769049 0.044140976 -0.018113509 0.017695466
0002a0 95 0e 0a ad fc 86 e2 3c 8e ee 83 b5 01 a1 10 3d
       -7.84763e-12 0.027652256 -9.829689e-07 0.035309795
0002b0 d4 1e 70 1c a5 5b a1 3c 92 ee a7 bc dd cb 17 ba
       7.9449183e-22 0.01969702 -0.020499501 -0.0005790571
0002c0 c0 cb 69 3c 38 0b 7b 3c 79 63 35 bc 0a 81 0a 3c
       0.014269769 0.015322499 -0.011071079 0.008453617
0002d0 09 4d 23 3d 12 c3 05 bd 30 ec 21 3c fa ff cc 3c
       0.03986839 -0.032656737 0.009882972 0.025024403
0002e0 79 e6 c6 9c 68 2c 7f 3c 50 45 9e 3c 8b 8e 6b bc
       -1.3162117e-21 0.015574552 0.01932016 -0.014377247
0002f0 b5 fd 31 1c 05 d7 58 9b 13 6e 64 ba c1 53 88 bc
       5.8892296e-22 -1.7936578e-22 -0.0008713912 -0.0166415
000300 ac bd 8e 3b 48 24 f1 3c 55 29 57 bb ff f3 a7 bc
       0.0043561067 0.029436246 -0.0032831032 -0.020502089
000310 da f2 b0 bc 96 de f0 3a d3 34 98 3d 2c 43 59 3d
       -0.021600176 0.0018376883 0.074319504 0.053042576
000320 79 f0 4a aa d7 4f 92 bb eb 9c e3 bc e3 25 09 3d
       -1.8024635e-13 -0.004465084 -0.027784785 0.033483397
000330 4e fd cb 3c 2a 5d 0b 3d 1a 38 92 3c 56 81 7f 3c
       0.024901059 0.034024395 0.017849017 0.015594801
000340 ad 9f 85 bb f5 f1 42 bc 27 47 d6 3c d8 c6 82 3d
       -0.0040778727 -0.011898507 0.026156975 0.06385583
000350 c1 87 28 bb 55 90 f9 1a 7d 2c cf 29 10 59 14 3c
       -0.0025715681 1.0321717e-22 9.200364e-14 0.009054437
000360 d6 a7 e9 3c 02 7f 33 bc 8a 24 94 3c 95 ae b6 bb
       0.028522413 -0.010955574 0.01808383 -0.005575011
000370 2f 84 d6 3c 9a 81 a5 3c da af 1f 1c 7b e3 10 3d
       0.026186077 0.0202034 5.283597e-22 0.035373192
000380 e8 11 b7 3c fa e0 cb 3c 4a 9b 56 3c 57 f5 1d 3c
       0.022347406 0.02488755 0.013098547 0.009641013
000390 b0 47 51 3d d3 ff b8 39 8a 0d 37 39 89 dd 00 3d
       0.051093757 0.0003528582 0.00017457284 0.031461272
0003a0 9e 0b 2a 3c 3e d9 cf 9b 09 dd 72 3d 8c 01 fc 3c
       0.010378746 -3.4385667e-22 0.059292827 0.030762456
0003b0 2f 1c 6d 3b cb b7 49 3d 77 03 f7 1c 43 d9 0c b4
       0.0036180129 0.049247544 1.6345985e-21 -1.3117555e-07
0003c0 25 de 1c 3d cd 9c aa bb 2f 08 86 3d 32 e4 ba 99
       0.03829779 -0.0052066804 0.0654453 -1.9324117e-23
0003d0 17 20 f7 1a 91 54 4f 3d 8e ad 1f b8 40 d7 7f 9a
       1.0220865e-22 0.05061776 -3.807019e-05 -5.2906642e-23
0003e0 d5 51 04 bd 09 58 9d 3d c1 db 58 3c d9 66 3e 3d
       -0.032304604 0.07682807 0.013235987 0.046484802
0003f0 07 92 53 3d 69 b2 c1 35 8e 79 2d 3d e1 e5 9c b4
       0.051652934 1.4431545e-06 0.04235225 -2.9224523e-07
