outputs/MUTAG_Glo/model.pth (torch, 583638 bytes, 13 tensors)

bias f4 [128]
00000000: c2a1 043c 5b41 113d d7df 213b a15c 283d
00000010: 0000 0000 e7ab e8bb f998 3bbc c67e 933c
00000020: 2a64 733b 9cb3 e33c 0000 0000 7d05 f23c
00000030: 9d1f 293d 45da ea3c 53c0 513c f98b fb3b
00000040: 44bb 4e3d 6017 f33c 8de4 4e3b 221b 1b3d
00000050: be92 8b3b 0058 343d c7df 903b e09b 873c
00000060: 1a46 073c 7de0 3dbc d2a9 c43b 0d7e 003c
00000070: 4abf a93b 49c1 a33b e46f 04ba 342b 473a
00000080: c6be a4bc 3993 573d 2d60 0c3c 0000 0000
00000090: 2ff5 5a3d 3bc5 3f3c dd13 7d3c 0a5d dd3b
000000a0: a2b0 c83b 36a2 8aba 0500 e63b ac06 f33b
000000b0: 485b 543b 7eb4 79bc 14b0 0e3c 3220 8fbc
000000c0: 0955 2d3c 18fe 733c 8e2c 33bb 1a08 fc3b
000000d0: a918 1b3d 9328 893d 668a 523c abe7 c2ba
000000e0: f85e 813c 7411 30bb 571e 473d a4a9 9f3c
000000f0: 8b5d 82ba 1d97 f63b 9760 f43c df8e aa3c
00000100: adc7 ce3b c1a3 e2bc 273d 833d 982b 073c
00000110: 6b44 9a3d 98b5 a2bb 20d0 013d 11ee b43b
00000120: 3971 0c3c a5a7 a93b 99e0 5d3c 616b d53a
00000130: 711e 383d d155 33bc 9301 213c 8fb5 ab3b
00000140: 0d2f 2f3c df29 1bbc 41b1 503c 2401 4dbc
00000150: b770 a43b e1dc ebbb abcf 19b9 26a4 583d
00000160: 9935 a73b da5e 013c 971e b43b a88c fc3c
00000170: 04c0 b63c e369 74ba 1182 6c3d deb4 763d
00000180: 5a76 d33c 1ed0 953d 6a64 e73b 140d 203b
00000190: 4aed 173d c13b 48bc 6e87 de3b 0d62 833d
000001a0: 0000 0000 4284 343c 7629 343d a33e b13b
000001b0: a7c6 0b3c 4307 c43b 9570 a7bc ad1a 633d
000001c0: 08d4 053d 56b4 5bbc d3c0 a63b fd6d 403d
000001d0: c1ba 5c3c 1d3e 303b b4d9 1c3c 28a2 e33c
000001e0: ca5d ba3b 8237 ed3b 69ab 5f3c 1455 403d
000001f0: e27f b03c b8e2 d53c ba5e 6a3d d5c5 253c
0.008095207 0.03546272 0.002470007 0.041103963 0.0 -0.0071005705 -0.011450046 0.018004786
0.003713856 0.027795605 0.0 0.029543633 0.041289914 0.028668532 0.012802201 0.007676598
0.05047156 0.029674232 0.0031569332 0.037867673 0.0042594364 0.044029236 0.0044212076 0.01655382
0.00825646 -0.011589167 0.0060016895 0.007842553 0.005180274 0.0049974066 -0.00050520734 0.00075976853
-0.0201105 0.052630637 0.008567852 0.0 0.05345648 0.011704738 0.01544663 0.006755476
0.006124572 -0.0010576907 0.0070190453 0.007416567 0.003240304 -0.015240787 0.0087089725 -0.017471407
0.010579356 0.014892124 -0.002733979 0.0076913955 0.037865315 0.06697192 0.01285038 -0.0014870068
0.015792355 -0.0026865872 0.04861292 0.01949007 -0.0009946091 0.0075253383 0.029831214 0.02082008
0.0063104243 -0.027665975 0.06408148 0.00825014 0.07532581 -0.0049654953 0.031692624 0.005521544
0.008571916 0.0051774555 0.013542318 0.0016282612 0.044950906 -0.010945753 0.0098270355 0.0052401493
0.01069237 -0.009470432 0.012737573 -0.012512479 0.0050183195 -0.0071979617 -0.0001466858 0.05289092
0.005102825 0.0078961495 0.0054968107 0.030828789 0.022308357 -0.00093236397 0.05774123 0.060231082
0.02581327 0.07315086 0.007061531 0.0024421858 0.03709153 -0.012221278 0.006791047 0.06415186
0.0 0.011017861 0.043984853 0.005409078 0.008531249 0.005982311 -0.020439425 0.055445362
0.032672912 -0.013409695 0.0050889044 0.046979893 0.01347226 0.002689249 0.009573389 0.027787283
0.00568745 0.007239283 0.013651707 0.046956137 0.021545354 0.026109084 0.057219245 0.010117968

weight f4 [128, 7]
00000000: 2e3f fa3d 6bde 80be a56d 013e 932b 3f3d
00000010: ce76 ac3d fe51 e5bd ab6a 113e 6496 74bd
00000020: 21ac 323e a979 b13c 11a3 ce3c bfda 04bd
00000030: 6343 e9bd 3ccc 30bd bfd4 273e 8b3a b9bc
00000040: f162 5cbc 9a19 58be 6d1b 15bd 3622 d6bd
00000050: 6004 033d 1bfb 11bd 6797 2c3e 2d90 33bb
00000060: c96b 183d 830d c73d 8699 b83d 3e41 9ebd
00000070: 60df 6abd 303e fabc 335b 0cbd 65bd 3aba
00000080: 1c7a e03c 6a27 ee3a f61e a135 4b46 b33d
00000090: b036 d9bd 73ba 50bd cc95 dc3d 2ae6 d63b
000000a0: 4175 42be 18f7 3c3b 77e1 483e 9c10 9e3d
000000b0: ff0c cfbd e3c9 fa3d c641 8cbd 268c f6bd
000000c0: e6f8 083e e58d 36bc 51d9 853e 59f2 22be
000000d0: f6a8 0e3d 0201 e9b4 bbea a73b 9362 5e3d
000000e0: b063 a9bd adb8 b8bd 6441 f03d ea4d eeb5
000000f0: f214 9a3c c6a5 ee36 f437 f0bc 8846 f8bc
00000100: 8421 7c3e 5b03 f53a d82c c5bd 8cd9 6c3d
00000110: 9c42 563d 63d8 663d 1206 abbc fcf0 d8bc
00000120: 2695 b7b4 6420 d135 10f9 01bd 4d90 9fb5
00000130: 602f adba 0185 74bc 67bf 803e 4c20 133e
00000140: 6200 e63d 2ee2 1cb8 9646 1f3d efd8 aa3d
00000150: d632 cebc c507 d03c 1a43 ea3d 9a39 2c3d
00000160: 2038 fcbc 9004 a53b 1c47 d3ba b629 e8bc
00000170: 75e9 103e 3477 78bd 025c b2bd 277d 2ab2
00000180: 404b 843d b3bb 943d dc36 6fbc 46ae eebd
00000190: 91e7 6c3e 226b 4b3d 64b3 c9bd 09b7 833e
000001a0: a67d 0abe 0c8d e73c ccad a6bd 8245 e3bd
000001b0: f782 d4bd 15fa c23d dd80 a8bd eb8a 083d
000001c0: 27c6 bbbd 70bf 323e bcc8 033d 1368 fb3c
000001d0: 1362 dd3d 47a2 283e 0c7e a93d 7e35 02bd
000001e0: 1578 edbd 9c18 1a3e 82ac ac3c 86a2 27bd
000001f0: a791 693e bfa6 ab3c 2001 ac3d 02f0 5abe
00000200: c5d4 5f3d fad6 4a3c c28a 95bb 6a25 44bd
00000210: cd89 21bd ab44 c2bc b2db 513e c0be 4bbc
00000220: fc89 223c 9a84 f83b c6bb 823d 4b66 43bd
00000230: aa27 133e d686 0a3e dff9 75bc 40ca 78bd
00000240: b260 2136 5666 9d3b cc3b 0b3e 5af9 0bbd
00000250: a111 f03d a454 08be 92eb f53c 453a c93d
00000260: 0ac2 cd3d 7e48 223c ae43 633b b78c 353e
00000270: 1d3f 6d3e 87e4 01bd d14b 9dbd aca6 51bd
00000280: c4c3 77bd 595b 483e e029 183e e2cc 163e
00000290: 3d7b f2bc db4a ffbc f2ba 373e 8e2a fa3d
000002a0: 4512 3e3e ac2b 46be cd21 88bd 8ee6 e9bd
000002b0: 4037 063e 5c76 2bbe e6f9 fdbd d950 54bd
000002c0: 6050 aabd 99f9 aabc 6d90 bdbd 00e6 8c3d
000002d0: a46d 503d b7d4 0bbe 724f 333e 47a7 713d
000002e0: 0247 0cbe f397 c4bd 21ef 383b f5b2 f7bd
000002f0: 5fe8 13be c0bd 693d 5a22 edbd cee4 e93b
00000300: ce88 1e3e 3ee5 e83d 88dc 493d cc52 143e
00000310: da62 0e3e 353a cbbc cadd 27be d0c3 3fbe
00000320: f946 0836 efa4 5fbc f8bb 17be 1002 d63d
00000330: 72c8 32bb 7328 0c3e c06e 4fbd fd8b 8c36
00000340: 7180 52be d8fe a5bd 8226 3a3c 515f 0b3e
00000350: ea53 d6bd 3099 ec3d af01 6ebd 779c 82bd
00000360: ab96 bfbd 1710 e23d bb03 863c 684c 27be
00000370: feb7 10be 1f76 b6bc 6ed9 023e fc65 14bd
00000380: 8c92 ec3d ec55 dcbb 58a8 24be 112c 18be
00000390: 2ce5 a6b6 b8cd fcbc 7269 79bc 0f2c a2bd
000003a0: 577a 063e b2e5 323e d636 223e 3c9c 513d
000003b0: d6e8 eb3c 94ed 223d 989e 2c3e 372a 48bd
000003c0: 8a25 23be 3470 bb3d f85e 4a3d f6a9 bebd
000003d0: 1918 d1bd 389e debd 259b c2bd 11ff 0d3d
000003e0: 1d4b babd d126 f0bd 009b 283d d58f e6bc
000003f0: 8976 cabd 79aa 09be e73a 6a3a fcf3 453e
0.12219082 -0.2516969 0.12639482 0.046672415 0.08421098 -0.111972794 0.14200847 -0.059713736
0.17448474 0.021664457 0.02522424 -0.032435175 -0.11389806 -0.043163523 0.1638975 -0.022610923
-0.013451324 -0.21103516 -0.03640311 -0.10455744 0.031986594 -0.035639863 0.1685463 -0.0027399168
0.037212167 0.09719374 0.09013657 -0.07727288 -0.057341933 -0.030547231 -0.03426666 -0.0007123559
0.027401976 0.0018169705 1.2004446e-06 0.08753642 -0.10606134 -0.05095906 0.10770759 0.0065581994
-0.18990041 0.0028833803 0.19617258 0.07718012 -0.10109901 0.12245538 -0.06848483 -0.1203845
0.13376197 -0.011142229 0.26142362 -0.15912761 0.034829102 -4.3400365e-07 0.0051244176 0.054293226
-0.08270967 -0.09019599 0.11731222 -1.7755058e-06 0.018808816 7.1122513e-06 -0.029323556 -0.03030707
0.2462216 0.0018693017 -0.09627694 0.057824656 0.052309617 0.056358706 -0.020876918 -0.026482098
-3.4194926e-07 1.558114e-06 -0.031731665 -1.188842e-06 -0.0013212971 -0.014924289 0.25146028 0.14367789
0.11230542 -3.7403945e-05 0.038885675 0.08342158 -0.025170725 0.02539433 0.1143858 0.04204712
-0.030788481 0.0050359443 -0.0016119215 -0.028340202 0.14151557 -0.060660556 -0.08708955 -9.923759e-09
0.06459665 0.07262363 -0.014600482 -0.11654334 0.2313521 0.049662717 -0.09848669 0.25725582
-0.13524494 0.028265499 -0.08138618 -0.11097242 -0.10376542 0.095203556 -0.08227704 0.033335607
-0.09168654 0.1745584 0.032173857 0.030689275 0.10809722 0.16468154 0.08275995 -0.031789295
-0.115951695 0.1504845 0.021078352 -0.04092648 0.22809468 0.020953534 0.08398652 -0.21380618
0.054646272 0.012380356 -0.0045636604 -0.047887243 -0.039438058 -0.023714384 0.20493963 -0.012435615
0.009920593 0.0075841667 0.06383471 -0.047704976 0.143706 0.13527998 -0.015013187 -0.060739756
2.4047154e-06 0.004803459 0.1359703 -0.034173347 0.117221124 -0.13313538 0.030019555 0.09825567
0.10046776 0.009904979 0.0034677791 0.1772946 0.23168607 -0.03171208 -0.076804765 -0.05118434
-0.06048943 0.19566096 0.14859724 0.14726594 -0.02959978 -0.031163624 0.17942408 0.12215148
0.18561657 -0.19352597 -0.06647072 -0.11420928 0.13107014 -0.1674437 -0.1240118 -0.051834915
-0.083161116 -0.02087097 -0.09256063 0.068798065 0.05088581 -0.13655363 0.17510775 0.05899742
-0.13698962 -0.095992945 0.0028218704 -0.1209468 -0.14444111 0.057065725 -0.11578818 0.0071378713
0.15481874 0.113718495 0.04928258 0.1448471 0.13904896 -0.024808029 -0.163932 -0.1872704
2.030689e-06 -0.013650163 -0.14817798 0.10449612 -0.002728012 0.13687305 -0.05064273 4.188622e-06
-0.20556809 -0.08105248 0.01136172 0.13610579 -0.10465224 0.11552656 -0.058107074 -0.063774996
-0.093549095 0.11038225 0.0163592 -0.1633774 -0.14132687 -0.022273121 0.12778255 -0.036230072
0.11551389 -0.00672411 -0.16079843 -0.1486056 -4.9738646e-06 -0.030859813 -0.015222894 -0.0791856
0.13132606 0.17470434 0.15841231 0.051174387 0.028797548 0.039777353 0.16857374 -0.048868384
-0.15932289 0.091522604 0.049406976 -0.09309761 -0.102096744 -0.108700216 -0.09502248 0.03466708
-0.09096358 -0.11726154 0.041163445 -0.028144756 -0.0988589 -0.13443936 0.0008935169 0.19331354

bias f4 [128]
00000000: b664 6b3c 7a54 ab3c c6d6 ef33 fbce b43b
00000010: 533b f43b 2847 e23b eabc c33b 199b c33b
00000020: 876a 98b5 24c6 8e3c f1c2 b53c 519d c73b
00000030: d600 073d 0d52 d83b 3a8c 293c 8ee0 163c
00000040: ff67 a83c a82e 1f3b 0000 0000 fe44 a9bb
00000050: 8c80 693c c704 8b3c f928 91ba 874f 51bb
00000060: 667b 1c3c 1858 44ba d344 ec3b fad8 493c
00000070: a1f0 813c f4db 683b 3931 63bb e0ad af3b
00000080: 638a 103c e138 193c af70 c33b e152 813c
00000090: 50f3 8eb3 4898 1e3c 0120 433a 06b4 ad3b
000000a0: 29eb f33b afe1 6bbc f343 2fbc 3fa0 413c
000000b0: 3590 39bc 2091 883c d4c5 733c 7f77 de3b
000000c0: ba92 da3a 2ccd 433c e068 8f3c 5a01 ae3c
000000d0: 9c3d 433c 852a 9b3b 10e0 223c 0000 0000
000000e0: 8e2a c43c 7609 353c 9796 003c aecd 473c
000000f0: 0430 12bc fee5 093c 073d b63a 1e24 503c
00000100: 6edf 88bb 82fd a43b 2cd1 683c 53f1 113c
00000110: 339e 253c ff1f aab5 0095 41bc f45b 60ba
00000120: 47dc 83bc 0000 0000 773f d53b b237 c03b
00000130: 239e 9cbb 4680 a4bc 696a 5abb 0000 0000
00000140: 2317 303c 3789 c63c 0680 203b 56ce 9b3b
00000150: 45dd 3fb8 db14 3d3c 1fee b23b 8470 793c
00000160: bfe8 51bc 9b2e c33c a832 09bc 4dc2 8d3b
00000170: ded9 aaba 0000 0000 6a57 9f3c afa9 e63b
00000180: b26b 2b3c e0f2 b13b 46df 4e3b 9059 75bb
00000190: 8032 a13c fbb5 933c 8dd5 4b3c 9c06 c33b
000001a0: 0de8 8037 21ce e7bb 6729 37bc 2799 823c
000001b0: 6377 a73c b91f 483c 97ce a03c d4aa e53c
000001c0: c04e 8f3b 4323 a43b 189f 0f3b 0000 0000
000001d0: dec0 9b3c 3669 00bc 936c f1bb 5a05 093c
000001e0: 1a42 433c 20e1 a63c 0ed7 893b 320f d93a
000001f0: 161b d93c 4f97 a63b 5d31 963b 5a58 163c
0.014367273 0.020914305 1.1168372e-07 0.005517838 0.007453361 0.006905455 0.005973448 0.005969417
-1.1355886e-06 0.017428465 0.022187682 0.0060917516 0.03295978 0.006601578 0.010348374 0.009208811
0.020557402 0.0024289284 0.0 -0.005165695 0.014251839 0.016970051 -0.0011074833 -0.003193827
0.009550905 -0.00074899336 0.007210353 0.012319798 0.015861811 0.0035531493 -0.003466679 0.0053613037
0.008822056 0.00935194 0.0059643607 0.01578659 -6.6566486e-08 0.009679861 0.00074434286 0.0053010015
0.0074438048 -0.014397069 -0.010697353 0.011817991 -0.011325886 0.016670763 0.014878709 0.0067891474
0.0016675808 0.011950772 0.017506063 0.021240879 0.011916544 0.0047352933 0.009941116 0.0
0.023946073 0.011049619 0.007848403 0.012195034 -0.008922581 0.008416651 0.0013903686 0.0127039235
-0.0041770255 0.0050351033 0.014210027 0.008907634 0.010108518 -1.2675299e-06 -0.0118153095 -0.0008558624
-0.016096247 0.0 0.0065078097 0.0058660144 -0.0047795936 -0.020080697 -0.0033327586 0.0
0.010747704 0.024235351 0.002449037 0.004754822 -4.5744022e-05 0.011540617 0.005460515 0.01522458
-0.012811839 0.023825934 -0.008373894 0.004326141 -0.00130349 0.0 0.019450862 0.007039271
0.010462688 0.0054305643 0.0031566187 -0.0037437417 0.0196774 0.018031111 0.012441051 0.0059517156
1.5366846e-05 -0.007074133 -0.011179305 0.01594217 0.02044267 0.0122145945 0.01962976 0.028035559
0.0043734014 0.0050090863 0.0021914896 0.0 0.019012865 -0.007837584 -0.0073676794 0.008363092
0.011917615 0.02037102 0.0042065447 0.0016560315 0.026502173 0.0050839554 0.0045835213 0.009176338

weight f4 [128, 128]
00000000: bdec 59bd de3e cc3c 9e79 2fbd 003f aa3d
00000010: e77f 2b3d 3f9a 953d 4a80 093d 0713 293e
00000020: 6a0e ecba d340 283d fd7e cd3b a7a4 0d3e
00000030: faf9 90bd c1f8 023d c38a 1f3e 3372 96bd
00000040: 0dfa 68bd 70e7 843c 0522 19be f005 c43d
00000050: a962 823d bebd 163e cda0 173c 5c3e ea3d
00000060: bbb5 bfbd f8e4 183d b841 e93c 8242 cb3d
00000070: 43df e73c 4c1f 183e b5dc 0a3e cddf f63c
00000080: e119 cbbc dfbd b23d efac 963d 9110 d4b7
00000090: 6860 cb3d 5cb1 a3bd 5fb1 91bb bfd0 b3bd
000000a0: a0a2 debd d565 4e3c e80a d3bd 06d0 1c3e
000000b0: ccbf 61bd 3d40 d13b c476 9b3d 9186 a03b
000000c0: a783 0cbe 789c 48bd 701f b23d 3d0c aebd
000000d0: ebc8 823d 97be 143d 6171 033e b9ac 72bd
000000e0: 01bd 063c a355 cebd ddda da3d e07b d03d
000000f0: 673a cbbc e18c a63d 8ef1 973d 94bf be3d
00000100: 26f9 963d 1414 15bd 2869 303e 3aa4 b23d
00000110: b44b 77bc a63a d13b b1cc b7bc 0cee 0c3b
00000120: 63ef be3d a8b9 06be 5f0d 30bd e15b b6bd
00000130: 7a34 3a3e 8e8b c9bd 8568 bb3b 8042 3dbc
00000140: a8c5 8dbc d0d7 243e 9b5b 92bd 5dfa 393d
00000150: e78a e8bd 9265 42bd 6aa8 d737 0379 f53c
00000160: 38c7 cc3c a302 abbc c344 153c db35 ed3d
00000170: 7f84 ef3d 8682 063e dc18 dcba 933c 303e
00000180: f172 10bd ec90 063d 4f18 b73d 2c40 c23d
00000190: c304 d93b a3b1 16be 957f 3c3e 37bd d33a
000001a0: 85f1 0f3d 8ef9 a03d 4d1b 68bc 5872 ec3d
000001b0: 971e e7bd 3d7e 07be 8f39 51bd c906 c23d
000001c0: 8f7c 10bd 4197 a33c e693 fbbd c5e5 fc3d
000001d0: 4b9e 82bc 08ad 153e fa7b 793d 0821 1b3e
000001e0: e7a8 5ebd a120 123e 1d91 83bc cca7 40bd
000001f0: d2c2 763d 4c7a a23c 0767 183e 4c39 efbd
00000200: ec15 17bd ca6e 0b3e 4691 df3c bf1d 2e3d
00000210: b291 4137 16d4 0ebe 4be5 033c 329a 423e
00000220: feb1 01bd 5f6c 773b 39de 8fbd 7f7f e13d
00000230: 886c b33d 519e 823c 9f47 c73c b57d ffbd
00000240: ab05 42bc 30df 253d e768 42bb 788e de3d
00000250: 0274 943c 4751 85bd a0d0 dd3d cb01 313c
00000260: 9144 59bd 9ebf c7ba 9fa4 c9bd 2547 bb3d
00000270: e720 e23c 0713 0237 9b55 8fbd 7bee 33bd
00000280: cacb d3bd 50dc 013e 3ba7 713c 9b4a a1b6
00000290: 9727 c4bb 49ff 0d3c 05c0 823b 1bba b73d
000002a0: e70f ae3c 5419 7f3d ae20 f13d 6537 263d
000002b0: f5d5 963d 608c 073d 720d 8e3d bc08 923d
000002c0: b0a3 fabd 6238 6f3d c216 d23d da06 70bd
000002d0: 519a d83d b297 d83d 211a ddbd ec08 adbb
000002e0: 5568 e2bc 5c75 053d 8745 233c 23a2 aebd
000002f0: 683b 8abd 6d69 f13d 40f8 7e3c 89d1 823c
00000300: f252 75bd be46 fcbc c856 d33d 7eec c63c
00000310: fbdf 5c3d da44 19bc 172d 3e3d abd8 dbbb
00000320: 05d1 d33c 82ae d93d 1c07 f5bd b0e8 563c
00000330: 351b 5dbd bf96 c5bb fc8d 183e ee78 e2bd
00000340: d370 f53d 0e4c 1dbd 0796 d6bb 685d 153c
00000350: 9d18 143d 37f2 c83b 25f1 17bd 0a74 123d
00000360: 0ef3 163e 05ae c93d a6fc 043b 4916 1b3e
00000370: 1019 043d 47c2 813d 51a0 a3bc 3b26 4abc
00000380: 6ba8 063e c635 1f3e 0daa e6bd 2a96 f93c
00000390: 93f5 083b e6a1 01be bb97 f83b ea67 b53d
000003a0: 8454 443d a396 cfbc 7bf1 ee3d 4a4d f4bc
000003b0: 2e30 d73b 47f6 ad3d f04b a3bb fc64 de3c
000003c0: 4f0a 04bc 6be7 e43c 2af0 e43d e88b 9d3d
000003d0: b5d6 16bd d091 233d 5325 8e3d 3d65 2e3c
000003e0: bdc2 293b fa2e 9fbd 1651 fb3d 6b96 f33d
000003f0: cb36 91bd 1955 2a3d d75a 953d 3417 af3d
-0.053204287 0.024932321 -0.042840593 0.083127975 0.041870024 0.07304811 0.03356961 0.16511165
-0.0018009667 0.041077446 0.0062712417 0.13832341 -0.07078929 0.03197551 0.15580277 -0.073460005
-0.056879092 0.01622364 -0.14954384 0.09571445 0.06366474 0.14720818 0.0092546465 0.11437675
-0.09360834 0.037327737 0.02847372 0.09924795 0.028304702 0.14855689 0.13560756 0.030136013
-0.024792613 0.08727621 0.07357203 -2.5280084e-05 0.099304974 -0.07992813 -0.004446193 -0.087800495
-0.10870862 0.012597521 -0.103048146 0.1531373 -0.055114552 0.0063858316 0.07591012 0.004898854
-0.13722096 -0.048977345 0.086974025 -0.08498428 0.06385978 0.036314573 0.1283622 -0.059246752
0.008223773 -0.10074928 0.10686276 0.10179877 -0.024808122 0.08132339 0.0741912 0.093138844
0.0737174 -0.0363961 0.17227614 0.0872273 -0.015093733 0.0063851653 -0.022436472 0.0021504192
0.09323003 -0.1315676 -0.0429815 -0.08904243 0.1818408 -0.09841071 0.005719247 -0.011551499
-0.017306164 0.16097951 -0.071463786 0.04540478 -0.113546185 -0.047460146 2.5708421e-05 0.02996493
0.024997339 -0.02087528 0.009110632 0.11582538 0.116951935 0.13135728 -0.0016792077 0.17210607
-0.035265867 0.032853052 0.08940183 0.09484896 0.006622882 -0.147162 0.18408044 0.0016154413
0.03514244 0.07860099 -0.014166665 0.11545247 -0.112851314 -0.1323175 -0.051080283 0.094739504
-0.03527504 0.019969584 -0.12284069 0.123485126 -0.01594462 0.14616787 0.06090925 0.15149319
-0.054360297 0.1427026 -0.016060406 -0.047035024 0.06024439 0.019833706 0.14883052 -0.116808504
-0.03688614 0.13616481 0.027290951 0.042508837 1.1537619e-05 -0.13948092 0.008050273 0.19004133
-0.031663887 0.0037753803 -0.070248075 0.11010646 0.08760935 0.015944632 0.024326144 -0.124751486
-0.011842172 0.04049605 -0.0029664577 0.108670175 0.018121723 -0.06509643 0.10830808 0.01080365
-0.053043906 -0.0015239601 -0.09845852 0.09144429 0.02760358 7.753034e-06 -0.0699875 -0.043928605
-0.10341604 0.12681699 0.0147493435 -4.806859e-06 -0.005986165 0.008666822 0.0039901757 0.08971044
0.021247817 0.062280014 0.11773811 0.040580172 0.07365028 0.033092856 0.06936158 0.07130572
-0.12238252 0.05840338 0.10258247 -0.058600284 0.105763085 0.105758086 -0.10795999 -0.0052806046
-0.02763764 0.032582626 0.009965307 -0.08527019 -0.06749612 0.117876865 0.015562117 0.015969055
-0.059893556 -0.030795451 0.103192866 0.02428269 0.053924542 -0.009354794 0.04642972 -0.0067091784
0.025856504 0.10628988 -0.11964247 0.013117 -0.053981025 -0.006029933 0.14897913 -0.11058222
0.1198441 -0.03840261 -0.0065486464 0.009116508 0.036156286 0.00613239 -0.037095208 0.035755195
0.14741156 0.09847645 0.0020292192 0.1514522 0.032250464 0.063358836 -0.019973906 -0.012338216
0.13150184 0.15547857 -0.11262903 0.030467112 0.0020898327 -0.12659416 0.007586447 0.08857711
0.047932163 -0.025340384 0.116671525 -0.02982201 0.0065670228 0.08494239 -0.0049834177 0.027147762
-0.008059098 0.02794238 0.1117862 0.076927006 -0.036825854 0.03993398 0.06940713 0.010644254
0.0025903427 -0.07772632 0.12271325 0.11893924 -0.07090529 0.04158506 0.07292717 0.085493475

bias f4 [128]
00000000: 0000 0000 7b89 5f3b 4f0c b43c 0000 0000
00000010: 0554 9a3c 6125 c1ba 97cc bcbb 17ad 1fbb
00000020: 0000 0000 329f 853b ce2f 8f3b 3b15 9d3c
00000030: 0b4e 483c 3e50 0e3c 7c67 adbb 9650 9fb7
00000040: 0000 0000 6c10 913b f2a9 e5b9 5bbb ed3b
00000050: 0c6b 443c 0000 0000 4b19 823c aed2 ab3c
00000060: 0000 0000 8406 8f3c 5c16 b53c 1d89 e43b
00000070: c6cf 6c3c 1b8e cc3b 889b ac3c 59a6 47bc
00000080: c28c cb3c d75b b4bb 6105 233c 53fe 373b
00000090: 0000 0000 ea46 8abc 8dbe a23c 5597 6ebb
000000a0: e7f9 0d3c 4f75 b03c 4a19 3b3c 7ead cf3b
000000b0: 0afe 323c f407 f8bb 8939 163c d907 963b
000000c0: 08de 66bb 0000 0000 d6fd a9bb e5f6 083c
000000d0: e0eb 6d3c fd8e c33a 1c85 09bc f8e4 b43c
000000e0: a18d 6c3c 8ab4 823a b505 0e3c b32d 153d
000000f0: f0b2 b73b deea e93b 4013 ab3c 44bd 8c3c
00000100: cdb6 853b 1644 713b 0000 0000 29a5 e63b
00000110: 56b0 023c 7336 1e36 6d07 9d3b 5ee9 953b
00000120: 7ce1 7a3b 3a74 d7bb f21c ba3b 0000 0000
00000130: 2285 d63b 3824 623c 1118 253c 7da1 d23b
00000140: f8ea fc3b 4d73 793b 4d51 033c e654 1bbb
00000150: a836 663c c164 b93c 20ce b0bc 6edc dd3c
00000160: 0000 0000 edb0 beba d0a4 003c 0000 0000
00000170: 586c 5b34 6021 253b 0022 9bb8 fc83 bc3c
00000180: 42df bd3b 0984 ab3b 185f 84bb b023 d23a
00000190: 847c 163b dc29 bf3b db86 1bba 5da5 2b3c
000001a0: 944a 74ba 0000 0000 a6b7 f43b 4836 1d3c
000001b0: b04e cc3c 61a3 5dbc 4197 cbbb 1e40 ea3b
000001c0: 5743 a13c 4de6 883c 9827 183d 5b08 d73c
000001d0: a6b7 393c 0362 cf3b 0000 0000 70d0 36bc
000001e0: e9da d63b 0b59 d23c 5c35 e03b d161 4cbc
000001f0: 0e50 da3b f5d9 c33b 7d20 193c 4f6e 183a
0.0 0.0034109044 0.021978525 0.0 0.018838892 -0.0014735871 -0.0057616937 -0.0024364644
0.0 0.0040778155 0.0043697124 0.019175163 0.012225638 0.008686123 -0.0052918773 -1.8991803e-05
0.0 0.0044270065 -0.00043804903 0.0072550005 0.011988413 0.0 0.015881201 0.020974483
0.0 0.017459162 0.022105388 0.006974353 0.014453834 0.006242526 0.021070257 -0.012185656
0.024847392 -0.005504112 0.009950013 0.0028075173 0.0 -0.016879518 0.019866252 -0.003640612
0.008665538 0.021540312 0.011419604 0.0063378206 0.010924825 -0.0075693075 0.009168991 0.004578572
-0.0035227556 0.0 -0.0051877303 0.0083596455 0.014521569 0.0014919933 -0.008393552 0.022081837
0.014438064 0.0009972018 0.008668353 0.036420535 0.005606048 0.007138594 0.020883203 0.017180093
0.0040806294 0.0036814264 0.0 0.0070387316 0.007976612 2.3575528e-06 0.004792145 0.0045749387
0.0038281372 -0.0065751346 0.00567972 0.0 0.0065466324 0.013802581 0.010076539 0.0064279423
0.00771844 0.003806311 0.008014989 -0.0023701726 0.014051117 0.022631051 -0.021582663 0.027082648
0.0 -0.0014548578 0.007851794 0.0 2.043538e-07 0.0025196895 -7.397309e-05 0.023012154
0.0057944367 0.0052342457 -0.0040396564 0.0016032364 0.00229624 0.0058338474 -0.0005932876 0.010476437
-0.00093189743 0.0 0.0074681817 0.009595461 0.024939865 -0.013527722 -0.006213099 0.0071487566
0.01968543 0.016711378 0.037147135 0.026249101 0.011335289 0.0063288226 0.0 -0.011158094
0.006556858 0.025677225 0.0068422984 -0.012474493 0.0066623753 0.0059769102 0.009346125 0.0005814777

weight f4 [128, 128]
00000000: 8489 553c 4487 643d 9236 963c c0d2 26bd
00000010: 0075 4e3d 15dc e3bc 41f2 68bc fadc 7d3d
00000020: b6c5 d63a ca43 6ebd d827 38bd 4b4b 61b5
00000030: fb8a adbc cf60 dcbc fb72 26b6 2401 49bc
00000040: c1d8 9a35 6269 163d fae7 093c b33c 45b9
00000050: 27ba 6dbd 67b3 26bc 4fbf 4b3d 08b4 973c
00000060: 7031 063d f716 e235 1075 453c 5c84 77bd
00000070: 3030 84bd 6866 523b f0cf 303d 287b f7b5
00000080: ec43 7635 fd84 ebbc 8220 30bd dc2d 4abd
00000090: 554b 033a ddf6 1abd 3121 13b8 c270 de3b
000000a0: 5611 a63d fed3 11bd c368 06bd c46e 2536
000000b0: 9149 ca34 5e41 223c 0111 f6bc de3a 97bc
000000c0: 7dbd 8a3b 9827 4039 88b3 7bbc 4b30 e3bc
000000d0: 913e f235 7eca 5db3 1531 a43d 8874 f235
000000e0: a581 883d e0c9 3d39 3f20 4abd a2e0 9d3d
000000f0: b592 d6bc 36e1 fc3a 434c b53c 1255 7ebd
00000100: deac c1bc c61b 27bd e7cd aabc 4cdc 883d
00000110: 237c 2cbd 5f97 913c 09f7 233c eb94 1638
00000120: 5d07 843d e4d6 46bc 4329 a03b e074 843d
00000130: 63ba 72bd 0629 3d3c d67e c1bc 7e36 5535
00000140: b1b2 ddbc e8aa 58bd 2cf1 3fbc 59c8 0cb8
00000150: 6f8e 3b3b 63b9 3e3c f482 36bc 2f56 1bb5
00000160: 2843 ed3b 7b24 1abd 42c9 61bc 7a05 3c3d
00000170: c535 be3c 84e0 b6b9 fdfe 13bd bed4 633d
00000180: 472b 06bd 9be2 a4bc 8ade 7c3d 00ac 843d
00000190: e9a7 a5bd 946e 76bc f236 62bd 8022 12b8
000001a0: 79ae b6b4 ecd2 203d ebc1 143c eb58 873d
000001b0: 8738 97b9 2ad9 efb5 0410 47b7 9e4d 8bbc
000001c0: e521 45b7 4125 b83c 3641 9fbc 523c 303d
000001d0: 9552 74ba b53c 0635 017a f9bc 05ec 9bbc
000001e0: 5229 33b6 5da7 ccbc c6ce 2dbd ebb4 a73d
000001f0: 0c0d c2b4 48e3 b9bb 4253 3abd f22d 19b7
00000200: 35a6 d43c 13f6 393d fe1e 943d 8bbc bebc
00000210: 3a06 f63d 56e0 a13d 6aad a63c d021 b8bd
00000220: e045 38b7 7006 ffbb fd5a 13bb f8ac b73d
00000230: 3cf7 513d 8d81 bb3c 0b75 463d e8dd 0e3b
00000240: 7d36 9c3d d7ed 663d c5a0 793d a2cf 013b
00000250: a1a2 0c3d 0f40 c93c fb6b 743d 0c0d 2b3d
00000260: 0476 cf3d 5e01 43bd c153 be3c 1efe 2c3d
00000270: 5285 6cbd ec92 aa3d 528a 1ebd dc6f 08be
00000280: d9e7 eabc 2bc2 583d 32d6 cebd 139b 523d
00000290: 367a 44b7 99e3 c73c 7dca 4d3d 25c5 b33d
000002a0: 8c3b f83c a58f afbc 5653 813d 120b f13d
000002b0: cd16 4d37 20ba ec3c 82a7 8cbd a88d 273b
000002c0: 3cd6 8f3d 6d90 0b3e 8fbf 963d abb0 523d
000002d0: d333 203d c8bb 093e 4597 873d 27b8 dabb
000002e0: cc5d a7bc d150 cf3c d9c9 243d aa7b a03c
000002f0: 711f 5b3d be1b 6d3d ad17 82bd 41c2 c43c
00000300: b1d1 a2bc 246d efbc d9f2 d3bc 81fc 22bd
00000310: 04a0 833c 7dee adbc 4a9c 743b 3433 babd
00000320: e810 b134 e179 4dbc 9f7f f7bc e9e3 e73d
00000330: c68b deb9 484f c4b9 76dd 2e3d 88cd 05bd
00000340: 8fe6 253d 2d0e 2bbd 1117 7b3d 3f10 08be
00000350: 6374 4bbc e5de ad3c 431d 61bd 2adb 3ebd
00000360: 88aa 62bc 2703 023d 816c 48ba a87c b9bc
00000370: 249d 143c 4b4d 003d 9c1a f63d 85ae a03d
00000380: ac3c 9fbd abaf 2c3c 5223 063d 8996 debc
00000390: 4fea a53d 42e0 753d a989 45bb abcb 233c
000003a0: 24ca 9436 89dc c43b 9d95 933c b265 a53c
000003b0: caee 67bb 1440 b13d 9aaf c53a 957f 67bb
000003c0: d6dc b6bd bc9f 7f3d b707 293b 0eed 7bbd
000003d0: 3aa8 eb3c 6564 8637 d2c8 c73c 18df 863c
000003e0: 9841 043e 0a85 07bc d060 103d b1df 92bd
000003f0: a0e6 c03c 154c c13c 867d bcbc db16 79bc
0.013033275 0.05579306 0.018336568 -0.04072833 0.05040455 -0.027814904 -0.014217914 0.061978318
0.0016385827 -0.058170117 -0.044959873 -8.39286e-07 -0.021184435 -0.02690163 -2.4802855e-06 -0.012268338
1.1536978e-06 0.036721595 0.008417124 -0.00018809996 -0.058038857 -0.010174609 0.049742993 0.018518463
0.03276199 1.6844996e-06 0.012051836 -0.060428962 -0.064545035 0.0032104496 0.043167055 -1.8438777e-06
9.174098e-07 -0.028749937 -0.042999752 -0.04936014 0.0005008479 -0.037833083 -3.5078443e-05 0.006788344
0.08108775 -0.035602562 -0.032814752 2.465139e-06 3.767896e-07 0.00990328 -0.030037405 -0.018460687
0.0042340145 0.00018325297 -0.015362628 -0.027732989 1.8048614e-06 -5.1639738e-08 0.08017174 1.806432e-06
0.06665353 0.00018099649 -0.04934716 0.07708861 -0.026193002 0.0019293192 0.022131091 -0.062092848
-0.023642 -0.04079797 -0.020850135 0.06682643 -0.042110574 0.017772375 0.010007628 3.5901478e-05
0.06446717 -0.012136195 0.0048877313 0.06467605 -0.059259783 0.011545425 -0.02362005 7.942798e-07
-0.027062746 -0.052897364 -0.011715215 -3.356519e-05 0.0028618833 0.011640879 -0.01113962 -5.7867413e-07
0.0072406717 -0.037632447 -0.013780894 0.04590366 0.023218999 -0.00034881022 -0.036131848 0.05562281
-0.032756116 -0.020127585 0.061735667 0.06478119 -0.08088667 -0.015041012 -0.05522818 -3.4841243e-05
-3.4027087e-07 0.03926365 0.009079437 0.06608757 -0.0002884308 -1.7870091e-06 -1.1865053e-05 -0.017004784
-1.1750007e-05 0.022478702 -0.019440275 0.043026276 -0.0009320167 5.000723e-07 -0.030453684 -0.019033441
-2.669713e-06 -0.024982149 -0.042433523 0.08188804 -3.614481e-07 -0.005672846 -0.045489557 -9.130208e-06
0.02595816 0.04540069 0.07232474 -0.023283264 0.120129064 0.07904117 0.020346362 -0.08990824
-1.0983524e-05 -0.00778275 -0.0022484653 0.08968538 0.05126117 0.022888923 0.048451465 0.0021799747
0.0762758 0.056379166 0.060944337 0.0019807597 0.034334783 0.024566678 0.05967329 0.04176049
0.101299316 -0.047608726 0.023233296 0.042234533 -0.05774433 0.083288044 -0.03870613 -0.13323921
-0.028675007 0.052919548 -0.10099448 0.05141742 -1.1710965e-05 0.02440052 0.050241936 0.08777837
0.030301832 -0.0214308 0.06314723 0.117696896 1.2224261e-05 0.028897345 -0.06867887 0.0025566611
0.07023284 0.13629313 0.07360756 0.051438015 0.039111923 0.13450539 0.06620649 -0.0066747847
-0.020430468 0.025307091 0.04023156 0.019590218 0.05349678 0.057887785 -0.06352172 0.024018409
-0.01987538 -0.029226847 -0.025872635 -0.039791588 0.016067512 -0.021231884 0.00373246 -0.090917975
3.298112e-07 -0.012541265 -0.030212222 0.11322767 -0.0004244728 -0.00037443102 0.04269167 -0.032666713
0.04050308 -0.041761566 0.061301295 -0.13287447 -0.0124178855 0.021224448 -0.054959547 -0.04659573
-0.013834603 0.031741288 -0.0007645563 -0.022642449 0.009070668 0.031323712 0.12016794 0.07845787
-0.07775244 0.010539929 0.032748528 -0.02717139 0.081013314 0.060028322 -0.0030141866 0.009997289
4.434276e-06 0.006007735 0.018015677 0.020190094 -0.0035390132 0.086548 0.001508224 -0.0035323848
-0.0892884 0.062408194 0.0025791952 -0.06150537 0.02876674 1.6020795e-05 0.02438775 0.016463801
0.12915647 -0.008271465 0.035248578 -0.07171572 0.02354747 0.023595849 -0.023009073 -0.015203203

weight f4 [1, 384]
00000000: d4ba 983d a0d3 91bd b9b9 bbbd ffc2 cebd
00000010: 174f be3c 7263 39bd c6e2 0dbd aacd 2ebe
00000020: f2b1 513d c14c 8b3c ed3b d43b 2200 cdbd
00000030: f2a8 f1bd 527c eabd 33a8 26be f632 e23d
00000040: d45a a1bd dddc 12be 2c16 8a3d e91e 113d
00000050: 4e0f 9ebd d869 063d 23d8 96bd 5cd2 abbd
00000060: d97d 9b3d de5d f137 18d3 d3bc e754 923d
00000070: a314 08bd 822f dc3d 9224 fa3c 9d6f a1bd
00000080: 2b47 3ebd c45d 2fbc a0a0 cebd 464a 5fbd
00000090: 990a a7bb 2603 bbbd b3e9 aa3d f41e 293c
000000a0: b836 f33d 6768 983d 511b 0d3d 641e bd3d
000000b0: 1de3 053e 22f1 83bd e499 b13c 3e82 a9bc
000000c0: f3cd 09bd f4c9 febc 38e7 4abc 160b bdbd
000000d0: c725 c639 e13f 01be 277d 95bd 08ce 863b
000000e0: 7206 0abe 98c7 8fbd 2a87 a8bc 6c9b a1bd
000000f0: f6d5 21bd 5b3e 6fbd cc23 4f3c cdb6 b63c
00000100: 9fd0 9ebd cce6 4e3a 1ed9 99bd 1305 ad3d
00000110: adc8 f7bd 09e7 ea3a 9ded fabd f892 053e
00000120: 2ce3 a9bd 3eb9 e43b 6b2f ac3d edef 303d
00000130: f851 08bc 4fe0 02bd 1397 de3d b40b bb3c
00000140: 3652 b83d 9011 6fbd 396a 023e 2db9 2abd
00000150: ff15 943d b1ad c73b 257d 693c bc94 bfbd
00000160: 583a 90bd f3e2 973c 0de3 a1bc 9205 bebd
00000170: 8205 463d c103 b8bd 668c b7bd 2a43 fbbc
00000180: abe2 8dbc 53ff 87bd 4f7b 79bd 03f2 2b3a
00000190: 423c 22be 88e4 d4bd 2f1c b4bc d53d e2bd
000001a0: 665f 073c 38d8 92bd a227 bbbd fd86 493d
000001b0: 162f 4d3d f584 0c3d af4b 3abd 416b 12be
000001c0: c6e4 2cbe 847b b7bc 6f5c 5bbd 6ec9 833c
000001d0: 63ed 87bd ab0d cabd b9a2 7f3d b57c bcbd
000001e0: 9a06 ce3d 226a a73d 1026 c03d 19c6 4cbd
000001f0: c7e5 c9bc 7fe8 98bd 7c67 013d 2781 873d
00000200: 9a78 21be e9e9 d2bd c483 9b36 330a c43d
00000210: 36c3 fcbc f5ea 283c 6b19 603a 0826 58bd
00000220: 401f 0ebd 5c9a 12be e90a 1bbe eef3 dc3d
00000230: e53f 1fbd 99ae 013c 4553 92bc e880 6abb
00000240: 14ca 0bbd 529b c83d ec61 56bc cc5b 7fbd
00000250: 2039 6dbd f4b6 9c3c 5090 88bb 5fc4 36b9
00000260: 8f57 babd 6a5e 1b37 f521 dd3c 36c6 23bc
00000270: 059c b7bd 83c0 083e eb4d 043d 3632 8c3d
00000280: 1d4c 9c3c 5188 79bd 88ae 8d3d 3c2c 9ebd
00000290: bf54 493c 6aae 293d 76d7 94bd 1223 3cbc
000002a0: 714d bfbc c474 743c d57b 27bc b374 e9bd
000002b0: d828 b43b 4eeb 2a3d 18f3 d9bd ba65 ec3c
000002c0: e404 63bc 99ac 92bd b071 cdbd fbbb a1bd
000002d0: 9d25 f9bd 3616 d43d 75e5 1cbd 0f20 bcb5
000002e0: ebe7 cfbd 6252 1ebc b0d4 eabc 2ff4 3bbd
000002f0: eb7e ae3d 0565 613d e73c 003e b368 f9bd
00000300: 69fd c7bd 87ac ab3d b3b5 0bbe c4f8 5c3d
00000310: 7494 3a3c aa4b 52bd ccaf 4fbd 363d e03d
00000320: 9703 4dbb 27ec e93a c667 903b c453 b2bb
00000330: 47f5 4abd 18cf 053b f322 e33a 643b 3f3d
00000340: 3093 b1bd ebaa d5bd 9e88 dc3d cb7c 3e3d
00000350: 8d70 6f37 4f07 b1bd 22a6 a9bd 0818 c9bd
00000360: 6f57 833d e885 c1bd 6ed8 7bbd e337 023e
00000370: 914c 1d3d dd13 19bd ae23 cebd b773 673d
00000380: f8b6 9e3c a5d1 233d 1163 21be 7cba 75bc
00000390: 9e5b 0abd 957a cfbd b166 c5bd 7917 b33d
000003a0: 535c 633d 02bc 79bd 457f 61bd ad92 a7bd
000003b0: 87a7 b83c d614 f9bd c7e9 03be e0d1 bcbd
000003c0: 7472 6b3c 5ace d83d 10bf 03bd a517 453c
000003d0: ed19 9cbd 15a5 8fbd 18e8 65bd 6fbf b33c
000003e0: 28aa 0f3c d736 05be 78f2 833d 55da 7cbc
000003f0: dd98 e5bd c9ce d6bc 3aee c33d 57fb 74bd
0.0745751 -0.071204424 -0.09166283 -0.10095786 0.023231072 -0.045260854 -0.034640096 -0.17070642
0.051195092 0.017004373 0.0064768703 -0.10009791 -0.11799802 -0.114494935 -0.162751 0.11044876
-0.07878652 -0.14342065 0.0674251 0.03542987 -0.07717763 0.032815784 -0.073654436 -0.08389732
0.07592363 2.877315e-05 -0.025857493 0.071451 -0.033222806 0.10751249 0.030535016 -0.07882617
-0.04645459 -0.010703508 -0.100892305 -0.054514192 -0.005097699 -0.0913146 0.08345356 0.010322321
0.11875671 0.07441788 0.03444988 0.09234312 0.13074918 -0.06442477 0.021679826 -0.020691987
-0.033643674 -0.031102158 -0.012384228 -0.0923063 0.0003779365 -0.12622024 -0.072992615 0.0041139163
-0.13479021 -0.07020491 -0.020572264 -0.078909725 -0.03951069 -0.058409076 0.012642812 0.022303963
-0.07754635 0.0007892668 -0.07512115 0.084482335 -0.12098823 0.0017921637 -0.122523524 0.13044345
-0.08295283 0.0069800904 0.08407482 0.04319756 -0.008320324 -0.0319522 0.10868659 0.022832729
0.090000555 -0.05836636 0.12735833 -0.041680504 0.07230758 0.0060937037 0.014251028 -0.09354541
-0.07042378 0.018540835 -0.019761587 -0.09278406 0.048345096 -0.08985091 -0.08962326 -0.030671675
-0.017319998 -0.06640496 -0.060908612 0.0006559195 -0.15843299 -0.103951514 -0.021986095 -0.1104695
0.008262491 -0.07170147 -0.09138419 0.049201 0.050093733 0.034306485 -0.045482334 -0.14298727
-0.16884145 -0.022397764 -0.05355495 0.01608726 -0.06637075 -0.09865888 0.062411044 -0.092034735
0.10059853 0.0817454 0.0938226 -0.04999361 -0.0246457 -0.0746622 0.03159283 0.06616431
-0.15768662 -0.10298521 4.6346995e-06 0.09572258 -0.030854803 0.010309924 0.00085487094 -0.052770644
-0.03469777 -0.14316696 -0.1514088 0.107887134 -0.038879294 0.0079151625 -0.017861972 -0.00357824
-0.034128264 0.0979525 -0.01308487 -0.062343404 -0.057915807 0.019130208 -0.004167594 -0.00017430026
-0.09098732 9.260702e-06 0.026993731 -0.009995988 -0.08965305 0.13354687 0.03230087 0.068455145
0.019079262 -0.060921017 0.06918055 -0.07723281 0.012288271 0.0414261 -0.072676584 -0.011482971
-0.023352357 0.014920417 -0.010222395 -0.11399212 0.005498033 0.04172831 -0.106420696 0.0288571
-0.0138561465 -0.07161827 -0.1003145 -0.078971826 -0.12165377 0.10355799 -0.038304765 -1.4016422e-06
-0.10151657 -0.009663196 -0.02866587 -0.04588717 0.085203014 0.05502798 0.12523232 -0.12178173
-0.09765131 0.08382516 -0.13643532 0.05394818 0.011387933 -0.05134169 -0.050704762 0.10949175
-0.0031282657 0.0017846868 0.004406902 -0.0054421145 -0.04955032 0.0020417627 0.0017329141 0.0466875
-0.08670652 -0.10432991 0.10768245 0.04650573 1.4271715e-05 -0.08643972 -0.082836404 -0.09819037
0.06413161 -0.09449369 -0.0614857 0.12716632 0.038403098 -0.03737246 -0.10065399 0.05650684
0.019374356 0.039994854 -0.15760447 -0.014998075 -0.03377878 -0.101308025 -0.096387275 0.087447114
0.05550797 -0.060970314 -0.055053014 -0.08182273 0.02254082 -0.12162177 -0.12882148 -0.09219718
0.0143705495 0.105862334 -0.032164633 0.012029563 -0.076221325 -0.07013909 -0.056129545 0.021941869
0.008768596 -0.13009201 0.064427316 -0.015432914 -0.11210797 -0.02622165 0.095669225 -0.05981001

weight f4 [128, 768]
00000000: 9068 25bc af9d 82b3 ffe4 f8bc 5121 00bd
00000010: ff5e 5335 a607 a8bc 8c89 efbc 0932 bebc
00000020: c3a8 14b5 a6c2 1bbc af42 1eb8 98e2 08bd
00000030: 6060 1abd c3d4 71bb 8dde 04bb 8a6b 91bc
00000040: 2af5 f332 f5ab acbb ee6c febb 91b0 09bd
00000050: 0199 16bd 7694 dcbc 966c 9abc 466a 12bd
00000060: c2b3 adbc 2b0a e934 09a7 e7bc 13d9 a4bc
00000070: 5756 04bd 9ca9 fbbc a31d 89bc 2a6a fdbc
00000080: 8d47 dabc 6742 0fb8 9f10 d7bc 9069 7b36
00000090: 2109 9835 e9ba 9ebc 0b3b 4bbc 9c38 c4bc
000000a0: 1859 e3bc 1797 09bd a275 a3bc b2b7 e8bc
000000b0: 787e 9abc e606 cebc aac3 d2bc ef14 e9bc
000000c0: afea e1bc 0ad7 21b5 ccba 93bc f0c2 eebc
000000d0: f190 03bc 52a7 21bb 4f3e 96bc 28aa 19b6
000000e0: 5098 14ba fe83 0abd d41d 16bc 41d5 1dbd
000000f0: 0b77 bab5 5fb9 39bc 6239 eabc 28d6 15bd
00000100: 83b8 6dba fde8 bcb4 1dd9 bebc 7296 0fbd
00000110: 2104 3fbc 521e 19b6 f857 0abd bd44 d4bc
00000120: 91e8 01bd cd12 ebbc 56df e1bc b981 afbc
00000130: 723d a4bc 2885 5036 bd56 0bbd eea7 e9bc
00000140: 7be3 81bc 7220 03bd 3cdd 97bc a660 70bc
00000150: 39fb f4bc bb14 46b7 fa02 1a38 68ce dbb9
00000160: 06ae 13bd bbce a7bc 4115 fab5 35fb 4abc
00000170: fe24 9a38 3bb9 cabc e8b5 8ebc e3af 6936
00000180: c0b1 e5bc 8e87 0abc 043a f7bc 7a1f cebc
00000190: a746 9fbc 1bfb a3bc cf2c 29b8 ee79 8937
000001a0: 060e 2937 acb9 a8bc 504a 2837 56af ecbc
000001b0: d881 7ebc 0114 b5bc 55df cabc 193e 94bb
000001c0: 0e35 f3bc 061c ccb4 0ab7 8dbc eee1 bcbc
000001d0: 2f06 25bd 6322 15bd 6627 30b7 70a8 ecbc
000001e0: 1e83 c5bc 0784 f8bc 004f 0abd db61 b2b9
000001f0: 8327 caba 3f0f 0cb7 ac32 ae36 a936 51bc
00000200: 4eda 3dbd 85fe 36bd ec1c 9c35 77b6 d8bc
00000210: 916b 35bd 89a1 1fbd d990 2dbd b176 e3bc
00000220: 369a 1db2 8577 37bd 212d 34bd b4a1 e4bc
00000230: 92cd 3bbd 27fe ccbc bef7 a239 5ac9 e9bc
00000240: e479 32bd 3a4c dfbc 74c1 30b7 6e42 87bc
00000250: 2689 40bd f12e 42bd 7076 aebc 55ea 1d38
00000260: 4038 37bd c5ad 8b36 7de9 79bc 1813 ffbc
00000270: 7c0b 39bd 687a 96bc 6d4e b9bc 1764 b9bc
00000280: ec3c bebc ac1a e6bc 2e70 c7bc 8363 31bd
00000290: 2a9b d537 a128 a1bc dab5 debc 0ca3 2bbd
000002a0: b40f c5bc 0678 b534 6580 4437 2206 39bd
000002b0: a001 cab7 d7d3 37bd eff9 38bd f13b 06bd
000002c0: 5c36 52bb 019c 26bd e48d 43bd a89e 34bd
000002d0: a280 1dbd 1bb4 bebc 5a13 d7bc 1f14 bb37
000002e0: 1a1d 25bd 6237 39bd 3d3e 92bc 9aab 36bd
000002f0: bcd2 36bb 0000 aabc 39a7 b7bc d307 25bd
00000300: 4f89 dfbc 1b42 a2bc a14b 2ebd 742d c8bc
00000310: e1b3 b8bc d32e 0db6 46bc e2b4 efd6 21bc
00000320: 27b3 2c37 9541 e7b5 052e c3bc 245d dbbc
00000330: 4aed 16b7 251b 0cb8 f623 9fb5 30fb 12b5
00000340: f2b0 ffbc 2507 1fbd 96bd 8cbc 60d6 13bd
00000350: 6fcd e4b7 5111 bbbc 31a4 e5bc 668d 39bd
00000360: 503a ebb5 85f4 26bd dadb 9838 211f 99bc
00000370: f76b 03bc 9c8d 95b5 4706 3dbd ab69 04bd
00000380: 31b8 d0bc 36db 8cbc d77a 05bd fbfb 5db3
00000390: a861 2fbd a9b4 34bd e126 3cbd 8670 1abd
000003a0: 8d84 a236 2a0d 4437 eb54 81bc 2cef 09bd
000003b0: cb62 3ebd e63f 35bd 6c96 31bd 7e88 3abd
000003c0: ab9a dcbc f7d1 b2bc 65f5 8cb6 5b82 47b7
000003d0: 0b02 31bd 6f5f a836 7ee1 7d35 f579 8abc
000003e0: 9afa 00bd 9a53 3cbd fce3 9dbc 7e56 1fbd
000003f0: 1c13 33bd c269 2ebd 3c71 fcbc 7962 37bd
-0.01009573 -6.082279e-08 -0.030382631 -0.031281773 7.874186e-07 -0.02051146 -0.029240392 -0.023217218
-5.5379877e-07 -0.009506857 -3.773224e-05 -0.03341922 -0.037689567 -0.0036900498 -0.0020274252 -0.017751474
2.8400411e-08 -0.0052695223 -0.0077644503 -0.033615652 -0.03676701 -0.02692626 -0.018850606 -0.03574588
-0.02120388 4.340703e-07 -0.02827789 -0.02012304 -0.032308903 -0.030720524 -0.016737765 -0.030934412
-0.026645446 -3.41557e-05 -0.026253043 3.746336e-06 1.1327539e-06 -0.019376235 -0.012404214 -0.023952775
-0.027752444 -0.033591356 -0.019953553 -0.028407905 -0.018859133 -0.025149774 -0.025728066 -0.028452365
-0.027577726 -6.0290097e-07 -0.018033408 -0.029145688 -0.008030162 -0.002466638 -0.018340258 -2.289782e-06
-0.0005668448 -0.033817284 -0.009162385 -0.038533453 -1.3892726e-06 -0.0113357 -0.028591815 -0.03658119
-0.0009068327 -3.518725e-07 -0.023296887 -0.035055585 -0.011658699 -2.2816425e-06 -0.0337753 -0.025911683
-0.031715933 -0.028695488 -0.027572315 -0.021424161 -0.02004883 3.1071922e-06 -0.034018267 -0.028522458
-0.015855541 -0.032013364 -0.01853811 -0.01467148 -0.029904949 -1.1806546e-05 3.6719233e-05 -0.0004192472
-0.036054634 -0.020484319 -1.8632637e-06 -0.012388994 7.3501826e-05 -0.024746528 -0.017420724 3.4822085e-06
-0.02803886 -0.00845517 -0.030179031 -0.025161494 -0.01944287 -0.020017197 -4.033447e-05 1.638845e-05
1.007645e-05 -0.020596348 1.0030883e-05 -0.0288922 -0.015533887 -0.022104265 -0.024764696 -0.004524004
-0.029688384 -3.801835e-07 -0.017299194 -0.02305695 -0.0402891 -0.036409747 -1.0499591e-05 -0.028888911
-0.024110373 -0.030336393 -0.033766747 -0.00034023714 -0.0015423152 -8.3482e-06 5.191503e-06 -0.01276938
-0.04635077 -0.044676322 1.1631323e-06 -0.026454194 -0.044292036 -0.03897241 -0.042374466 -0.027766557
-9.173666e-09 -0.044791717 -0.04398835 -0.027909137 -0.045850344 -0.025023533 0.0003108363 -0.028538395
-0.043573275 -0.027258027 -1.0535459e-05 -0.016511168 -0.047005795 -0.047408048 -0.02129671 3.7649956e-05
-0.04473138 4.1627522e-06 -0.015253422 -0.031137034 -0.045176968 -0.018368915 -0.022620404 -0.022630734
-0.02322241 -0.02808889 -0.024345484 -0.043307792 2.5463833e-05 -0.019672694 -0.027186323 -0.04190354
-0.02405534 3.3801206e-07 1.1712405e-05 -0.045171864 -2.4081033e-05 -0.04487976 -0.04516023 -0.03277201
-0.0032075858 -0.04067612 -0.04774274 -0.04409662 -0.038452752 -0.02327924 -0.026254345 2.2301507e-05
-0.040310957 -0.045218833 -0.017851943 -0.044597246 -0.0027896604 -0.020751953 -0.022418605 -0.040290665
-0.027287154 -0.019806912 -0.042552594 -0.024435736 -0.02254671 -2.1037893e-06 -4.2232767e-07 -0.009877904
1.0293711e-05 -1.7229928e-06 -0.023825655 -0.026777811 -8.995945e-06 -3.340388e-05 -1.1856889e-06 -5.4754764e-07
-0.031212304 -0.038825173 -0.017180245 -0.036093116 -2.727538e-05 -0.022835406 -0.028032394 -0.045300864
-1.7525836e-06 -0.040760536 7.288875e-05 -0.018691601 -0.008021346 -1.1142579e-06 -0.046148565 -0.032327335
-0.025478454 -0.017194372 -0.032587852 -5.1684747e-08 -0.04281774 -0.044117603 -0.045935515 -0.037704967
4.843407e-06 1.1685575e-05 -0.015787562 -0.033675358 -0.046480935 -0.04425039 -0.043356344 -0.045540325
-0.02692922 -0.021828635 -4.200893e-06 -1.1891675e-05 -0.04321484 5.0179e-06 9.457798e-07 -0.016903857
-0.031488992 -0.045978166 -0.01927375 -0.038900845 -0.043719396 -0.042581327 -0.030815713 -0.044771645

bias f4 [128]
00000000: 4947 9d3c 1daa e6bb 00fb 84bc 4d24 0d3d
00000010: df77 d63c d4a0 2cba 678d 153c ea71 8d3c
00000020: 73a8 bdbc ee06 08b9 6716 87bc 94a2 1b3d
00000030: 3822 86bb aae9 7abb 7636 88bb de7c 5fbb
00000040: 433d d33b b220 1ebc f72f 0c3c 7d4b 823c
00000050: 9511 263c f040 79bb 175e 08bc 2f92 863c
00000060: 65c4 6b3c 5ac1 5a3b 7506 623b 2761 6c3c
00000070: b5d7 f33c 389a 293b 564f 63b9 6f6f 433c
00000080: 4054 063d 5239 483c 0075 1ebb 482e ee3b
00000090: 5efe 223c 76d7 b33b b33f e43b efdc 0cbc
000000a0: 0c06 0c3d c46f 6bbc 950d 093d c2e7 613c
000000b0: 207d 9ebb 6822 ee3c d41a 5e3c 7e3c e83b
000000c0: f407 0c3d 5e68 70bb 33c7 39b8 a54e 50ba
000000d0: d0b1 59b8 4af5 813c 138a 4f3b ee37 b03c
000000e0: 38c2 a13c 5efe 58ba 29d9 93bb 10e9 153c
000000f0: c6b5 06b9 d3cc e0bc 0b40 283c e983 b73c
00000100: 8229 8cb8 836c fbb8 0193 163d eccd ddbb
00000110: 5cbc 2b3d b427 1fbc 7dad ff3b 94b5 3fbc
00000120: 06ac 993c eda0 973c 7b82 033d dac3 50bb
00000130: 4d59 b43c a9ce 4c3a 81fb 8c3c e920 173d
00000140: 4547 4f3b 5636 cf3c ff2b a53c 39a2 d6bb
00000150: 028e b6ba 04e7 82bb 7cb3 91bc 0670 023d
00000160: 283c 8f3c b796 133d 013d a33a d4c5 ddbc
00000170: b680 073d bf0f 84bb 3df2 bfbb bab4 28b8
00000180: 5617 e23b 779a 4b3c 4d38 983c c1b8 673b
00000190: 099c 993c 19ca bd3c bf67 a83c 9d14 b03c
000001a0: e5fb 753b 1f4f 853c 877b e03c 4c88 043d
000001b0: 0405 313c 8c56 ef3b 9527 25bc 145f 4abb
000001c0: 4154 d43b e53c 84bb 3f45 a0bc 2863 193b
000001d0: 24c0 603c a0e3 89bc a42d 093d 81c5 333b
000001e0: 57a8 ab3c c4d5 393c 8376 bd3c b943 85bc
000001f0: 8ef6 b53c 63c4 753c aa29 103d ed36 82ba
0.01919903 -0.007039322 -0.016232967 0.034458447 0.026180206 -0.00065852446 0.009127951 0.017266233
-0.023151612 -0.00012972552 -0.016490174 0.037996843 -0.0040934347 -0.0038286247 -0.004156883 -0.0034101526
0.006446512 -0.00965135 0.008556358 0.015905136 0.010136028 -0.003803309 -0.008323214 0.016427128
0.014390086 0.0033379407 0.0034488712 0.01442746 0.029765943 0.0025879275 -0.00021677962 0.011928423
0.03279519 0.0122206975 -0.0024178624 0.0072687007 0.009948341 0.0054883314 0.0069656014 -0.008597597
0.034185454 -0.014369909 0.03346022 0.0137881655 -0.0048366934 0.02906914 0.013556201 0.0070872894
0.034187272 -0.0036683301 -4.4292956e-05 -0.0007946289 -5.1902432e-05 0.015864033 0.0031667992 0.021511044
0.019745931 -0.000827765 -0.0045119715 0.009149805 -0.00012846952 -0.027441418 0.010269175 0.022401767
-6.683452e-05 -0.000119888246 0.036761288 -0.0067689326 0.04192768 -0.009714056 0.007802664 -0.011701006
0.018758785 0.018509353 0.032106858 -0.0031855018 0.022015238 0.0007812777 0.01720977 0.03689662
0.0031628173 0.025294464 0.02016258 -0.0065501 -0.001392782 -0.0039948244 -0.01778578 0.031845115
0.01748474 0.036032405 0.0012454094 -0.02707187 0.033081733 -0.0040301974 -0.0058577345 -4.0222636e-05
0.0068997545 0.012426964 0.018581534 0.0035357925 0.018751161 0.023167657 0.020557282 0.021494204
0.0037534174 0.01627308 0.027402652 0.032356545 0.0108044185 0.0073040184 -0.010080238 -0.0030879425
0.0064797704 -0.0040355795 -0.01956427 0.002340505 0.013717685 -0.016832173 0.033490792 0.0027430954
0.020954294 0.01134247 0.0231278 -0.016267644 0.022212293 0.0150004355 0.035195984 -0.0009934582
