outputs/NCI109_Hie/model.pth (torch, 336342 bytes, 13 tensors)

bias f4 [128]
00000000: 5854 8c3d c469 953d 449c fb3c d0c8 403d
00000010: cd52 bebc 0ef1 823d 486e 8dbd ba5b 9f3c
00000020: 65c7 9c3d 4b61 103d bb40 a53c 720a ea3b
00000030: 1134 193d f65c f93c 28ca d63c 753a 213d
00000040: 37c0 3dbb 5bb8 483c 29b4 babc 8c80 ce3b
00000050: d688 383d d5eb 2f3d 497c 6e3c 53f2 a2bb
00000060: 1537 163d 1ef0 77bc a1f1 aa3c 9a29 aa3c
00000070: 62ce c73c 9a7b 5e3d fc4c 3b3d c041 0c3d
00000080: e3ba a53c 3220 cc3c 55f2 1d3d 06de bb3c
00000090: 3450 bf3c b5bc 283a f629 adbc 0f53 e53c
000000a0: a8e8 0bb9 d233 f7bb 4ff3 23bb 32e7 b93c
000000b0: fdb9 243d a614 8ebc 7a2b a23b a76a 84bd
000000c0: 7095 8e3c 0bfa 86bc c731 34bc d4b1 ff3b
000000d0: 1f5a 763d d989 16bd ad16 a4ba 3439 d13c
000000e0: b2f6 92bc 9e3a 94bc f9d7 1c3c 589b 853c
000000f0: 6b8c 933c 7fe3 d23c 637b d73b f333 c8bc
00000100: 10d5 aa3d 3555 3d3d 75f5 f53c 602b 00bb
00000110: f624 863a 4d4d 29bd 35ee f1bc d86d a83b
00000120: b522 c63c 6dae 5a3c 5be8 f0bc aec8 103c
00000130: 5c68 173c ad96 4a3d 0962 2f3d d4b1 24bd
00000140: 6243 2f3d fda9 82bc 6272 5fbd c582 3fbc
00000150: e49c 593d 8794 b73c 82d3 443c fe6f ce3c
00000160: bd93 7fbd 91d6 0e3d feca 133d 6a71 2e3d
00000170: 3f09 083d 8152 0a3d e491 16bc 78cb eabc
00000180: 04ad 823d d94e 323b 52eb e03c 35d1 733d
00000190: 18b5 a53c da4c b6ba 55e0 d63c bb46 813c
000001a0: 56bd 53bd f2e3 f1bc e173 283d 58a7 1b3d
000001b0: 0fc2 16bd 140d e93c 396b 953d 926c 893c
000001c0: ec47 a53c ce76 633d 9dab 5dbd 0b28 013d
000001d0: 3099 113d acb6 3d3d 43f7 b63c deb7 e33c
000001e0: 1ee6 663d bd36 023c 622d f63a 8926 143c
000001f0: 83b6 9eba bf90 463b 6db4 e4bc c299 fb3c
0.06852025 0.07295564 0.030714162 0.04706651 -0.023232842 0.06393634 -0.069058 0.019452918
0.07655219 0.035249036 0.020172467 0.0071423585 0.03740317 0.030439835 0.026219442 0.03936239
-0.002895368 0.012250985 -0.022790985 0.006301945 0.045052372 0.042949516 0.014555999 -0.004972735
0.036673624 -0.015132932 0.02086717 0.02077179 0.024390403 0.054317094 0.045727715 0.03424239
0.020230716 0.024917696 0.038561184 0.022933017 0.023353674 0.0006436811 -0.021138173 0.027993707
-0.00013342744 -0.0075440193 -0.002501685 0.02269325 0.040216435 -0.01734383 0.0049490305 -0.06465655
0.017405242 -0.016476652 -0.010998196 0.007803181 0.06014454 -0.036752556 -0.0012518965 0.025539972
-0.0179399 -0.018094357 0.009572976 0.016309425 0.018011292 0.025743244 0.006575988 -0.024438834
0.0834142 0.046223838 0.03002427 -0.0019557104 0.0010234404 -0.041333485 -0.029532531 0.0051400475
0.024186471 0.01334725 -0.02940767 0.008836908 0.00924119 0.049460102 0.042818103 -0.040208653
0.04278887 -0.015950197 -0.054552443 -0.011688893 0.05312814 0.02240969 0.012013318 0.025199886
-0.062396754 0.034872595 0.03608226 0.04258863 0.033211943 0.033770088 -0.0091900565 -0.028661475
0.06380656 0.0027207641 0.02745596 0.059525687 0.020227954 -0.0013908402 0.026230017 0.015780797
-0.051694237 -0.029527638 0.041126136 0.03800139 -0.036806162 0.028448619 0.07295842 0.016775403
0.020175897 0.055533223 -0.05411874 0.03153233 0.03554648 0.046316788 0.0223347 0.027797636
0.0563718 0.007947621 0.0018781836 0.009042391 -0.0012108836 0.0030298678 -0.027918065 0.030712966

weight f4 [128, 38]
00000000: a5ae 123e b33b 5f3e d24e 253e 5414 183d
00000010: 2cc8 413c 17fa a4bd 934e f2bd 6d35 e53d
00000020: 397a 0b80 4e6e 49bd 57a2 0000 d9c1 0000
00000030: 8461 0000 2e8a 0000 6c54 0180 2a08 0080
00000040: d65e ef3d 9c03 0280 8695 db2c 710b 9e3d
00000050: d654 123e 2f44 013d 41cb 0080 2318 0000
00000060: 8e08 0000 7a52 0080 d3ce 0000 2e7b ea3d
00000070: e03d 2b3e ad04 0000 fc59 0100 a47c b23d
00000080: 75ee 0000 e5a9 16bd 2b2d 863d 9609 0d3d
00000090: 5135 0000 5076 0000 ebb9 0f3e 92c9 ba3d
000000a0: 77fb 1ebe 2cca 3f3d 62ab 0c3e 7a5c 7bbe
000000b0: ccb7 3fbe 6bcf 483d 461e 0080 1f35 0000
000000c0: b728 0000 bf22 0080 63bc 0080 0197 0000
000000d0: f500 0100 f99b 0080 d63a 25be 30a8 0080
000000e0: 14c6 a830 4439 0080 fcf9 073e 936d 663e
000000f0: 385e 0080 5108 0000 5b51 0080 5cd4 0000
00000100: 323d 0000 70d0 6abe b0bb adbd 8e70 0180
00000110: 2c01 0000 8632 0000 0435 0080 28d2 093d
00000120: 08ef ec3d 0b7d 763d 5792 0b80 82f8 0080
00000130: 9806 493e aed3 df3c a7bb 01be 6eee 97bc
00000140: 3e74 22bc 6035 e53c 8482 92bd 2182 593d
00000150: f47a 0080 d413 0000 a260 1600 8d9e 0080
00000160: e47c 0000 440a 0080 6745 0000 5c21 2a80
00000170: 4954 a5bd 2a0f 0000 b042 0080 1682 953b
00000180: 7bab 303e 78d2 183d e64c 0100 a205 0180
00000190: 4773 0080 53aa 0080 2688 0000 90b5 76bd
000001a0: a17d bfba 3a2d 0000 d117 0000 611c 2a00
000001b0: 3820 0080 0095 13bd 5b31 d83d 81b7 753d
000001c0: 20bc 0000 af60 0280 9e84 353e 5739 803d
000001d0: 26ed c9bc ec3c 3abd a9ed 083e 8b0f e73d
000001e0: b65b fdbd 8b0c 4d3d dcba 0080 fd5b 78bd
000001f0: 09cb 0100 2e44 0080 e966 0000 0249 0000
00000200: d109 0080 30d4 0000 1736 d43d 9d61 0000
00000210: bbb9 ec31 fec4 943d 6ffe 263e 65e6 623d
00000220: 7517 0080 5f8e 0100 ce24 0000 c8f3 0000
00000230: 4255 0080 4f8e 013d 8364 103e 98c1 0000
00000240: 7da4 0080 53ce dd3d 7425 0000 59b5 67bd
00000250: 5be6 693d af0d 113d fdbe 0080 a166 0000
00000260: 10dc 1fbe ed23 ecbd e3fc d93d 04a2 f83c
00000270: dfc8 adbd 018c 36be b10b 5bbc 171c a5bd
00000280: db0d 0080 4543 183c e3d0 0180 d89d 0080
00000290: 3f95 0080 b4e0 0000 6c5d 0100 361d 0100
000002a0: 35a2 8bbc 7e47 0100 077f 0080 e6d7 ca3d
000002b0: b89d 24be d8d1 98bd ca05 0180 0fa7 0080
000002c0: 0418 0180 a7fa 0080 4cf7 0000 1c7f 1abc
000002d0: 50e1 f83b febc 0000 24a6 0080 6611 23bd
000002e0: 564b 0080 dc73 0000 15c1 0080 04ad 0080
000002f0: 72de 0080 c282 0000 193e e33d 3fc0 f13d
00000300: 06dc 06be a654 3f3d 1d2d a43d 1024 90be
00000310: aee9 0bbe 79d9 663d cecc 0180 53a4 0000
00000320: 7f65 0000 3d7b 0080 8b23 0000 8652 0000
00000330: af02 0080 6cc7 0000 56a5 01be b0e0 0000
00000340: 4b74 6637 eabf 0080 50d0 1d3e aebc ab3e
00000350: 81c6 0080 877f 0180 426f 0000 ba62 0000
00000360: b994 0080 a7a0 28be 4338 ddbd 65b1 0000
00000370: 647b 0080 ae22 0000 7312 0000 cbb0 eebb
00000380: 2693 c53d 408d 5e3d 9519 0000 0079 0000
00000390: ac4d adbe fd3f 85be 77d7 343e ca44 9cbc
000003a0: 68a2 133d 6cb6 963d f608 ad3d a32a 40be
000003b0: 86a4 0000 4ab3 e5bc dcc4 0000 0968 0080
000003c0: 5488 0080 8b3c 0000 5ec9 0000 b074 0000
000003d0: 5408 6bbc 5a29 0080 ad0f 0080 f044 dbbd
000003e0: 8548 4dbe 3bc4 833e 6424 0080 b275 0000
000003f0: 6366 0080 7aa8 0100 4232 0180 c670 d2bd
0.14324434 0.21800117 0.16143349 0.03712876 0.01182751 -0.08055513 -0.11831393 0.11191831
-1.054036e-39 -0.04917746 5.8237e-41 6.954e-41 3.4982e-41 4.957e-41 -1.2212e-40 -2.929e-42
0.116880104 -1.84966e-40 6.240955e-12 0.07717026 0.14290175 0.031559166 -7.2914e-41 8.659e-42
3.069e-42 -2.9587e-41 7.4195e-41 0.11449276 0.16722822 1.677e-42 1.24116e-40 0.087151796
8.5542e-41 -0.036783118 0.06551584 0.03443297 1.9126e-41 4.2443e-41 0.14035766 0.09120478
-0.15525614 0.046823665 0.13737252 -0.24546996 -0.18722457 0.049025934 -1.086e-41 1.9056e-41
1.4606e-41 -1.2465e-41 -6.758e-41 5.417e-41 9.2179e-41 -5.5952e-41 -0.16135725 -6.0334e-41
1.2279906e-09 -2.0543e-41 0.13278955 0.22502737 -3.38e-41 2.983e-42 -2.9185e-41 7.618e-41
2.1953e-41 -0.22931075 -0.08483064 -1.32213e-40 4.2e-43 1.8124e-41 -1.9018e-41 0.033647686
0.11569029 0.060177844 -1.062687e-39 -8.9148e-41 0.19631422 0.027322616 -0.1266924 -0.01854631
-0.00991541 0.027979553 -0.071538 0.053102616 -4.4107e-41 7.113e-42 2.055046e-39 -5.6877e-41
4.4802e-41 -3.683e-42 2.4897e-41 -3.869058e-39 -0.08072717 5.44e-42 -2.3923e-41 0.0045626266
0.17252915 0.037310094 1.19421e-40 -9.3856e-41 -4.1354e-41 -6.1101e-41 4.8841e-41 -0.060231745
-0.0014609584 1.6224e-41 8.544e-42 3.867271e-39 -1.1558e-41 -0.03603077 0.10556289 0.059989456
6.7487e-41 -2.18355e-40 0.1772637 0.06260937 -0.024649214 -0.045468256 0.1337191 0.112822615
-0.12371008 0.05006079 -6.7033e-41 -0.0606346 1.64671e-40 -2.4458e-41 3.6917e-41 2.619e-41
-3.521e-42 7.6119e-41 0.10361879 3.5017e-41 6.889619e-09 0.07264136 0.16307996 0.055395503
-8.415e-42 1.42909e-40 1.3203e-41 8.7452e-41 -3.0585e-41 0.031629857 0.14100842 6.9448e-41
-5.9007e-41 0.10830369 1.3436e-41 -0.05656943 0.05710445 0.03541344 -6.8514e-41 3.6816e-41
-0.15611291 -0.1153029 0.106439374 0.030350693 -0.08485579 -0.17826845 -0.013369487 -0.08061998
-4.97e-42 0.009293382 -1.6677e-40 -5.6624e-41 -5.354e-41 8.0608e-41 1.25349e-40 1.02314e-40
-0.01704512 1.17482e-40 -4.5569e-41 0.099044606 -0.1607579 -0.074618995 -9.3912e-41 -5.993e-41
-1.0045e-40 -8.9917e-41 8.8713e-41 -0.009429719 0.0075952187 6.7798e-41 -5.96e-41 -0.039811514
-2.7025e-41 4.1563e-41 -6.9265e-41 -6.2066e-41 -7.9798e-41 4.6907e-41 0.110958286 0.11804246
-0.1316987 0.046711586 0.08016417 -0.28152514 -0.1366336 0.05635974 -1.65306e-40 5.8948e-41
3.641e-41 -4.421e-41 1.275e-41 2.9604e-41 -9.63e-43 7.1539e-41 -0.12660727 8.0603e-41
1.3736145e-05 -6.8846e-41 0.15411496 0.3354239 -7.121e-41 -1.37584e-40 3.9912e-41 3.5416e-41
-5.3352e-41 -0.16467534 -0.10801747 6.3637e-41 -4.4264e-41 1.2441e-41 6.618e-42 -0.007284259
0.09647207 0.054333925 9.177e-42 4.3407e-41 -0.3384832 -0.26025382 0.17660318 -0.01907577
0.036043555 0.07359013 0.08448975 -0.18766265 5.902e-41 -0.028039593 7.062e-41 -3.7321e-41
-4.8905e-41 2.1719e-41 7.2237e-41 4.186e-41 -0.014345247 -1.4834e-41 -5.623e-42 -0.10706508
-0.20047195 0.2573565 -1.3054e-41 4.2221e-41 -3.673e-41 1.52273e-40 -1.09865e-40 -0.10275416

bias f4 [128]
00000000: ea82 12bc 98d7 f63c eebe 7c9b aeb8 2fbc
00000010: f748 fe3b 5202 203c 1856 6b3d 57d4 3ca7
00000020: 1972 6c3c e3f6 b8bc 0a53 093d ac88 03bd
00000030: a852 ed99 2e1a 303e 01d8 ea3b 0dd1 3b3d
00000040: 4af2 f58e 6763 c63b 9b3e 8bb1 8264 353b
00000050: 8179 493a dd9f a43b ffe0 9d3d 29bf 96ac
00000060: 77af 4dbc 70ad c23c ad9e 39a2 8f34 573c
00000070: b17e d1ad f598 1abc 144f 7e3c b951 c8ba
00000080: eedf 9b3c 0b6b 91bc 8d2c 333d a0a7 253d
00000090: 8c8e 753d c07c 5c3d d33d 553d 63dd bc3c
000000a0: 2123 1abc 154d d43c 6caf f1bc a380 e8bc
000000b0: 39a1 4c3d c3ee 993c 5204 d53c 6997 d53c
000000c0: c253 01bc 98fd c73c da12 93b7 e109 913c
000000d0: 0709 273d 9edc 44bc f08c 58a3 85e9 4a3c
000000e0: ebb5 43ab da81 02b6 4564 7bae d3db 8abc
000000f0: a52b db3d b8cc b9bb 224c 053d 071d 0b3d
00000100: 3965 2eb5 275a 16b8 7235 ec3c 1b5b a6bc
00000110: 4620 91bc ddf9 953d 749e 55a8 f576 b63c
00000120: 9792 9b3c dc4c 91bb 8fd6 1cb6 1a72 85b0
00000130: 1801 323c cf7d 0e3d 3e4a a83b d2ae 323d
00000140: e255 04bc 7317 243b f17d 093d 502e f7bc
00000150: 2fd2 c83c 5636 943c 6977 ef3b bf03 d3bc
00000160: 2efb 293d 302a 0f3c 2052 49bc 97fe e43c
00000170: 4fe3 f0b7 b67a 89bb 7321 5d3c 82a3 51a2
00000180: 45b7 8b3c 41b1 9f92 ab2e 843c b51d 3cbc
00000190: 13a9 203e 075a 033d 0d17 fe3c fa22 05b5
000001a0: 451a 75bc 27e3 aa3b c753 173c fe90 373c
000001b0: be91 913c a194 f73b 99c2 9c3c a99e 213d
000001c0: 325e c0a1 118d 79b4 b0fe 273c 15b1 a23c
000001d0: 4ccb 3c3c a8c8 9b3c f562 7b3d 1cb2 a6bc
000001e0: 229b 4bbc e91f 30bc 9906 cbbb 68ad ad3c
000001f0: a0a7 e63b 5981 e595 eb30 35bb 9231 46bc
-0.008942345 0.0301321 -2.0906644e-22 -0.010725183 0.007760163 0.009766178 0.057455152 -2.620535e-15
0.0144315 -0.022578662 0.033526458 -0.032112762 -2.453861e-23 0.17197487 0.007166863 0.045853663
-6.063048e-30 0.00605433 -4.05255e-09 0.0027678316 0.0007685647 0.00502394 0.0770893 -4.2844795e-12
-0.012554041 0.023764342 -2.5156177e-18 0.01313509 -2.3816811e-11 -0.009435882 0.015521783 -0.0015283144
0.019027676 -0.017751237 0.04374366 0.040443063 0.059950396 0.05382991 0.052060913 0.023054784
-0.009407789 0.025915662 -0.029502593 -0.028381651 0.04995844 0.018790608 0.026003037 0.026073175
-0.007893505 0.024412915 -1.7532544e-05 0.017704906 0.040780094 -0.01201549 -1.1739228e-17 0.012384777
-6.953038e-13 -1.9447093e-06 -5.715985e-11 -0.016950523 0.10701684 -0.0056701563 0.03254331 0.03396323
-6.496735e-07 -3.5846748e-05 0.028834078 -0.020307114 -0.017715584 0.07323048 -1.1858234e-14 0.02227352
0.018990798 -0.004434211 -2.33707e-06 -9.709453e-10 0.010864519 0.03478795 0.0051358035 0.043623753
-0.008077117 0.002503839 0.033567373 -0.03017345 0.024514286 0.018092316 0.007307936 -0.025758622
0.04149931 0.008738086 -0.0122876465 0.02795343 -2.8716078e-05 -0.0041955365 0.013496744 -2.8411342e-18
0.017055163 -1.0078007e-27 0.016135534 -0.011481692 0.15689497 0.03206828 0.03101685 -4.959726e-07
-0.014959876 0.005215067 0.009236283 0.011204002 0.01776969 0.0075555597 0.01913576 0.03945795
-1.3035359e-18 -2.3241252e-07 0.010253593 0.01985983 0.011523079 0.019016579 0.06137367 -0.020348601
-0.012427123 -0.0107497955 -0.006195855 0.02120085 0.0070390254 -9.269644e-26 -0.0027647566 -0.012096779

weight f4 [128, 128]
00000000: d30f b13d 9351 eb3d 4eef 7f3d ee6e 2c3d
00000010: 68a6 cbbd b69d cd3d 116b e6bd fc3a 84bd
00000020: f6ab b83c 0bbc ca3c ba16 0e3e 8943 a4bd
00000030: f2b8 e13d f8a4 58bd 2e7a 3a3d 19bb ebbd
00000040: f578 eb3d 95ff 203d db67 b73c 3444 a5bd
00000050: 3ff4 983d c3c9 613d 6987 7dbd 4f2d e3bd
00000060: ab29 f73c 960a 053d 06c9 173c ad26 513d
00000070: 7e6b c63d 3f96 2c3d 2844 953d 3a92 ff3c
00000080: 3ec2 97bc c4c7 9cbb 6ed0 c3bd c013 063d
00000090: 288b 373e 406d a9bd 07d9 7039 f47b ea3d
000000a0: 7e44 0b3e 312a 7a3d 1b19 33bd 35d4 93bc
000000b0: a10b 1abd 502e 163b 0af4 7bbd 27ae 58bd
000000c0: 6053 eabd ebc9 913c c29c bdbd 00aa 16bd
000000d0: e5b6 32be 3538 3e3d 408b 84bd e843 233d
000000e0: 729e b7ba c672 acbd 3372 813d 066f a3bd
000000f0: 634f adbd a145 22be 18ad abbb 825a fb3c
00000100: 66bb a83d 5c96 8a3d 773f 163d 4ced cc3c
00000110: 0596 123d cfc2 2ebe 988d 093d 3b70 9b3d
00000120: ce4a 05be f126 b7bc 9980 87bc ec9b ce3a
00000130: ad94 babd 8882 873d 977e 4b3d c4eb 91bd
00000140: 17b6 983c f7d0 dd3c 3bd0 8ebd 68d2 43bd
00000150: 0c5c be3b 3a88 933a 1f54 ba3d 9bf9 a8bd
00000160: 2121 9cbc 3502 cb3d 3fb4 3cbc 1e75 d63d
00000170: 59a0 003d c75a aebc 80c6 a23d bd9f 54bd
00000180: 6e9b bc3d 2ba2 923d c1c1 993d e1b8 953c
00000190: 0c48 89bd 42fa 5f3e 403a ca3d 7fc2 e3bd
000001a0: b144 79bd 0f60 0fbc 9b7a a1bc 9c9b 81bc
000001b0: 5c05 4bbd a827 5e3d a389 443d 0d52 e83d
000001c0: ed47 54bc c87e 513d 46df 693d 27df e83c
000001d0: bf0c 103e fbd2 223d d1c8 183d 8aef 2c3d
000001e0: 2fe2 6f3c b52b 953d b433 dfbd 65ac e73b
000001f0: bdcc 0080 841f dfbd 97aa 473b f0a6 c53b
00000200: db7d 5ebc 344f 34bb 2f9b 173d c2a1 2c3d
00000210: a34e c2bc 50a6 da3d 94c9 d6bc 6c3c 543d
00000220: 61aa 80bd a15e 713d 5cf8 0bbd 9287 6a3d
00000230: c7ff 19bd fed7 133d 2027 393c edf6 6bbd
00000240: 7431 13bd 458c d5bc 3cec acbc 0a8c 1c3d
00000250: 4493 623c d8af 80bd 3ccc 993d 7f37 653d
00000260: d1e9 7b3d 245c 02bd abf5 9cba fdfb 5e3c
00000270: e99c 183d b7b4 183d d789 403d 1422 553d
00000280: d5e9 003d f203 ae3d c9f3 49be 0bbb 2ebd
00000290: 26ae 5e3c 5e64 9f3d 7793 49bd 326c 043d
000002a0: 4f97 6fbc a2d0 8f3d 4f8d 57bb 183f 6e3b
000002b0: 632c 25be 032c 55bd 7e11 13be 8dff e8bc
000002c0: d741 683d cccf a73c 927f ca3c 06b6 883d
000002d0: 863b 44be 3790 0cbd bf39 0fbd da3a f13c
000002e0: 56b7 e1bc 1f2e c1bd d915 913d 5a15 e7bb
000002f0: 5ae0 ad3d a68d fa3c 8e77 e1bc 6177 0abc
00000300: c766 3d3c b597 013c 0f3c 013d ac10 bfbd
00000310: 1e7b 3b3d 46c5 b7bc 2ebb 1d3c 4b80 0bbd
00000320: 1801 e1bd 69dd 473d 308d 053d 8555 183a
00000330: aa10 6e3d bf88 55be 9372 5ebd 458f d63c
00000340: 439d b9bd 4774 debc ad39 df3d 324c 473d
00000350: c043 e33d 7ab4 a83d eea4 ad3c bfcf 80bc
00000360: 2723 fb3c 5128 69bc 0e5e 4bbb 0357 923d
00000370: cb25 30bd 746d 313d df55 b2bd 4b6a 2fbd
00000380: dd4a 6b3d 5e76 ce3c 7dff 80bd 06f4 a73c
00000390: 8192 1f3d 6c43 43be d43c 4c3d 98f7 8b3c
000003a0: 003b d33c 6121 ab3c 01b3 44be c628 893c
000003b0: dfac ab3d a521 b5bd b374 053b 44f2 5d3b
000003c0: 1750 3d3d e649 143d f616 0b3d 1417 d3bc
000003d0: 96e9 533d 8e05 8c3d 3477 f43c 9807 283d
000003e0: c0c4 853d 2393 b83c 28ee d1bd 3e1f 483c
000003f0: 61dc 0000 d4f5 a6bc 18d5 81bc 5628 713c
0.08645596 0.114901684 0.062484078 0.04209798 -0.09943849 0.100398466 -0.1125089 -0.06456563
0.022542935 0.024747869 0.13875857 -0.08020694 0.11021604 -0.0528917 0.045526676 -0.115102954
0.1149768 0.039306242 0.02238839 -0.08069649 0.07468461 0.055124056 -0.061896715 -0.11092626
0.030171236 0.0324808 0.009264236 0.051062275 0.09688471 0.042135473 0.072883904 0.031197656
-0.01852524 -0.004784556 -0.09561239 0.03273368 0.17924178 -0.08272791 0.00022969033 0.114494234
0.13600346 0.061075393 -0.043725114 -0.018045524 -0.037608746 0.0022915788 -0.06151203 -0.05290046
-0.11441684 0.017796477 -0.09258415 -0.03678322 -0.17452581 0.046440322 -0.06471872 0.039859682
-0.0014009012 -0.08420329 0.0632061 -0.079801604 -0.084624074 -0.15846874 -0.0052391402 0.030682806
0.082388684 0.0676696 0.03668162 0.025015496 0.0357876 -0.17066501 0.0335823 0.07589766
-0.13016817 -0.022357436 -0.016540812 0.0015763021 -0.09110389 0.06616694 0.049681272 -0.07125047
0.018641515 0.027077181 -0.069733106 -0.04780808 0.0058093127 0.0011255809 0.09098076 -0.082507335
-0.019058766 0.0991253 -0.011517583 0.10471557 0.03140292 -0.02128352 0.07948017 -0.05191015
0.09209333 0.07159837 0.07507659 0.018276634 -0.06703195 0.2187281 0.098743916 -0.111210816
-0.060856525 -0.0087509295 -0.019711783 -0.01582127 -0.049565658 0.054237038 0.047982823 0.11343775
-0.012956602 0.0511463 0.057097696 0.02842672 0.14067362 0.039751988 0.03730089 0.04222063
0.014641329 0.07283727 -0.108985335 0.0070701116 -7.3446e-41 -0.10894683 0.003046667 0.0060318634
-0.013579811 -0.002751303 0.03701323 0.04214645 -0.023719138 0.10676253 -0.026219167 0.051815435
-0.06282497 0.058928136 -0.0341724 0.057258196 -0.037597444 0.036094658 0.011300832 -0.057608534
-0.035935834 -0.026067862 -0.02110874 0.03821949 0.013829056 -0.062835395 0.07509658 0.05596113
0.06150228 -0.031826153 -0.001197507 0.013609883 0.037259016 0.037281718 0.047006454 0.052034453
0.031473 0.08496846 -0.19721903 -0.042658847 0.013591325 0.077828154 -0.0492129 0.032329746
-0.014623477 0.070222154 -0.0032890623 0.0036353525 -0.16130213 -0.052043926 -0.14362141 -0.028442169
0.056703415 0.020484827 0.024719033 0.06675343 -0.19163331 -0.03431722 -0.03496718 0.029447008
-0.027553242 -0.09432625 0.07084245 -0.007052106 0.08490057 0.030585121 -0.027522828 -0.008451314
0.011560149 0.007909705 0.031551417 -0.09329352 0.04577171 -0.022432934 0.009627147 -0.034057897
-0.10986537 0.048795138 0.03260535 0.0005811083 0.05812136 -0.20852946 -0.054308485 0.026191363
-0.090631984 -0.027155055 0.10899673 0.04865665 0.11096907 0.08237548 0.021196809 -0.015724061
0.03065641 -0.014230804 -0.0031031403 0.071455024 -0.043004792 0.043317273 -0.08707785 -0.04282598
0.057444442 0.025202926 -0.062987305 0.020502102 0.038958076 -0.19068688 0.049862698 0.017085835
0.02578497 0.02088994 -0.1920891 0.016743075 0.08382582 -0.08844308 0.0020363748 0.0033866325
0.046218958 0.036203288 0.033957444 -0.02576784 0.051736437 0.06836997 0.029841997 0.041022867
0.06531668 0.022531098 -0.10250503 0.01221448 7.9057e-41 -0.020380892 -0.015848681 0.0147190895

bias f4 [128]
00000000: 0eaa bbbc 6b2a 5ca3 c01c 6daa fd01 a5a6
00000010: b3a5 9b3d 709d 4ebb d1ac 9a3d 95d8 71b9
00000020: 81c5 babb fff4 21bc 3b68 30b9 277b 26bb
00000030: 32aa 35b2 8cc5 09b9 86db 1cbd f96a 08ba
00000040: fe90 f197 beaf a2bc 12f6 36ae a9fc 639b
00000050: 738b 91bb 043f 66bc 538a 0e3a befa 8eba
00000060: a6c6 9cb9 edf6 353b a440 c795 5199 a798
00000070: a7c3 4cbc cd18 38b1 00b0 e2b8 83d0 7ebd
00000080: 1e22 c695 35c0 f1bb 668e 6ab7 9d6e 219d
00000090: b666 65a4 85db ac3c ac4c adbb 997a b1a9
000000a0: 3777 d2b9 8cc5 a7b6 cf6f 853c 62d9 cdbc
000000b0: 693c 393c d1b6 55b0 7462 12b0 3fca cbb8
000000c0: 6ef0 ebb4 9b5a b2a9 56da 9dbb a866 8fbb
000000d0: d92f df3b 29b9 ba3d 9899 d23d b555 8ebc
000000e0: db1d 98ae e454 38ae 6868 ffbb 091e f1a7
000000f0: c85e a1bc 7a58 24bb c74a 6f3d 204d 4fbc
00000100: e097 4abc c07a 81bb 5ae6 ff3b 952f 8e9f
00000110: a25d 51ba 1a12 e7b5 c65b 26b7 1636 693d
00000120: 1041 a9b4 c56e e1b0 47d2 1ab5 13bf 0cbc
00000130: 8d17 fa3a e669 05a6 63a7 8ebd c44f db3d
00000140: 4ba0 ddbc f147 d7b7 e5fb 24b2 fed1 1f3d
00000150: ae62 6e9f b3f8 04bd fa9d 66b8 387e 99ba
00000160: 4458 4bb9 140f 23bc e7ff 37b4 6d3f 89b9
00000170: 2699 31bc 43c2 74bb a4ed b0b9 8c60 343d
00000180: c8f6 1cbd d7d6 6bb4 78db 6ebd e32d a8ac
00000190: c6d8 c5bc d2f5 813d 838b e1bb fe62 14b7
000001a0: e1c5 33bb 16cc dbb9 5add 359a f01a b8b2
000001b0: 3614 093d 1cee 63bd 8dd5 a1bc 19d1 b4bc
000001c0: 3979 2094 0458 da3c b609 703d 9835 2ba1
000001d0: 75c4 11bd 516c 98b5 f2a8 24ad dfcd ecbb
000001e0: 1333 efa6 0b8a a1bc cef8 943b a8f2 18bc
000001f0: 858d 953d 4057 5abc bb09 073c b317 c0bb
-0.022908237 -1.1935206e-17 -2.1059803e-13 -1.1449714e-15 0.07599964 -0.0031526946 0.07552493 -0.00023064234
-0.005699814 -0.009885072 -0.00016823497 -0.0025402994 -1.0574285e-08 -0.0001313893 -0.03829529 -0.00052039284
-1.5610861e-24 -0.019859191 -4.1600563e-11 -1.8858639e-22 -0.0044416725 -0.01405311 0.0005437482 -0.0010908467
-0.00029902643 0.0027765587 -8.0477445e-26 -4.33233e-24 -0.012497819 -2.6789622e-09 -0.00010809302 -0.06221057
-8.002539e-26 -0.007377649 -1.3980642e-05 -2.1365358e-21 -4.974346e-17 0.021100769 -0.005288681 -7.881646e-14
-0.00040143143 -4.9999853e-06 0.016288666 -0.02512807 0.011305907 -7.7748746e-10 -5.32544e-10 -9.7174656e-05
-4.3947097e-07 -7.9205055e-14 -0.0048172874 -0.0043762513 0.006811124 0.09117348 0.10283202 -0.017374853
-6.917463e-11 -4.1912154e-11 -0.0077944286 -6.69235e-15 -0.019698516 -0.002507715 0.058420923 -0.012652665
-0.012365311 -0.0039514005 0.0078094425 -6.021806e-20 -0.00079866697 -1.7216109e-06 -9.915739e-06 0.056936346
-3.1526042e-07 -1.6402387e-09 -5.7675464e-07 -0.0085904775 0.0019080505 -4.6287164e-16 -0.0696552 0.107085735
-0.027053973 -2.5663498e-05 -9.603331e-09 0.039018624 -5.0480086e-20 -0.03246374 -5.49834e-05 -0.001171059
-0.0001939247 -0.009952325 -1.71363e-07 -0.00026177932 -0.010839736 -0.0037347234 -0.00033746392 0.044037387
-0.038321286 -2.1964239e-07 -0.05831477 -4.7799416e-12 -0.024151217 0.06345715 -0.006883086 -8.844536e-06
-0.0027431177 -0.0004192299 -3.760873e-23 -2.1432669e-08 0.03346654 -0.055647 -0.01975515 -0.022072362
-8.101843e-27 0.026653297 0.05860301 -5.8007984e-19 -0.035587747 -1.1356407e-06 -9.359834e-12 -0.00722669
-1.65978e-15 -0.019719144 0.0045462614 -0.0093351975 0.07302383 -0.013326466 0.008242066 -0.0058622

weight f4 [128, 128]
00000000: a057 083d d23a db3c a272 0080 b3c4 303d
00000010: a880 eabb f23d bd3c baa9 87bd 5348 0080
00000020: 71f4 bd3c 9c47 233d b677 233d 7869 b2bd
00000030: b15e 0080 87e4 2d3d 5455 0a3d e3df 4abe
00000040: 63ca 0000 e5d8 3c3d 0071 0000 777e c9bd
00000050: c63c c13c 851f f5bb b633 e1bb 4ace 0000
00000060: 71cb 693d f213 97ba 9892 0080 e0a2 963c
00000070: dc5d 0000 79b9 4f3c c6a4 75ba 1479 263d
00000080: a664 b03c 73b6 cb94 9e4a 54bc e572 d63a
00000090: 6fb0 573d 0d4f 103d 079f aebe 2ddd 1e3d
000000a0: e7b4 0080 19dc 80bb 4597 113d 9d20 0d3e
000000b0: cda2 cebb 0a21 3bbe 7146 a43b 346f cebd
000000c0: d0d1 0e91 737e ea3d d0fd 0000 8060 7c3d
000000d0: ed8f 1a3c e42f 8bbc 3dfa 0080 3492 e43c
000000e0: ab83 0180 4015 0000 5b9f 0000 bff3 c23d
000000f0: 4e48 293d 2ff3 0080 e073 fe3a d394 d83a
00000100: a6f9 0000 b9d8 0000 72cc e53a 66a9 43a7
00000110: 8a71 613d a9f1 74bd 11f6 0000 c979 923c
00000120: 3259 1f3d 2ced 2d3a 0f34 0000 5d33 0000
00000130: 6b9d d9bd 4dae c33c 4ce2 363d bdb1 93bd
00000140: 3828 6d3d 437a cbbc 0547 c73c b9dd 97bc
00000150: 9e9b 263d 8950 4e3d 8b93 583b def3 773d
00000160: 8964 e23b 3904 fd3c eda6 c83d 37a9 aa3c
00000170: 4826 0200 9394 0080 aad4 47bc 8ab3 0080
00000180: 2f78 7f3c 9119 0000 c016 933c a79a 4c3d
00000190: b9ef 113d 1581 a3bb 2b8b 9b3c c6ba 0080
000001a0: e58f 602d 5bab 9d3d 93da 103c f3c0 0cbd
000001b0: b079 e93d d5a9 443c ce79 0f3c 0525 f53c
000001c0: c13d 0080 516d 0080 6c8b 583d 89e4 893c
000001d0: f08b 2c3d 25ca 093d 0377 493c a425 c63d
000001e0: e84c 393d 6e88 313d 16b6 d32d 2f30 a1bb
000001f0: 2e14 43bc 6095 0180 c07c 0000 2909 a43b
00000200: bad1 0080 bb51 0000 df51 0000 fc2c 0000
00000210: 90b4 0080 f944 0380 ae12 0080 de47 0080
00000220: fd33 0080 0440 0080 ebc3 0080 e638 0000
00000230: f3ff 0180 432f 0180 6229 0080 ce17 0080
00000240: 0f45 0000 a0be 0080 0f52 0080 035c 0080
00000250: 286d 0000 6692 0080 75db 0080 3704 0000
00000260: 3168 0000 2f37 0000 eb07 0000 1933 0000
00000270: 6236 0080 1d28 0180 2ef4 0000 f18d 0080
00000280: 38c5 0000 b46c 0080 39cc 0080 e2d0 0000
00000290: d77e 0080 3436 0000 722e 0180 bdd8 0100
000002a0: 4279 0000 0677 0080 b982 0180 517b 0000
000002b0: e868 0080 5904 0000 b7b9 0080 f50d 0180
000002c0: 799d 0000 d121 0080 2dd8 0080 0802 0080
000002d0: 8139 0000 30ff 0000 fab1 0080 0b28 0100
000002e0: d61f 0080 686c 0000 dc8f 0100 3407 0000
000002f0: 02d6 0080 51bf 0000 41ea 0280 e457 0000
00000300: 4085 0080 73ad 0000 1108 0180 8105 0100
00000310: db87 0080 5399 0080 0597 0000 d8ae 0000
00000320: c2e1 0080 ec35 0000 86ad 0080 9fab 0080
00000330: c393 0200 560a 0300 3ecb 0000 911b 0000
00000340: 3413 0180 0192 0080 68cb 0080 fd97 0080
00000350: 4714 0380 128c 0000 8423 0080 fd8b 0080
00000360: bd0d 0000 5b00 0000 5e8d 0000 37e6 0000
00000370: deaf 0000 6b7e 0000 c484 0000 a7ae 0000
00000380: e1b2 0000 9810 0000 9c05 0000 78bb 0000
00000390: a382 0080 7836 0080 e495 0080 fe71 0080
000003a0: 0da9 0080 443a 0080 bf01 0100 53aa 0080
000003b0: 33bb 0000 75e3 0080 babb 0000 e056 0080
000003c0: 79ce 0080 8956 0180 b10c 0080 31e5 0000
000003d0: 6eb8 0000 20d4 0000 301c 0000 fe3c 0000
000003e0: ae3a 0000 d435 0000 f11b 0080 fa0b 0000
000003f0: 0291 0000 31a3 0000 2162 0080 2335 0000
0.03328669 0.026761446 -4.1123e-41 0.043156337 -0.0071564503 0.023100827 -0.0662417 -2.5945e-41
0.023187848 0.039863214 0.039909087 -0.08711523 -3.3969e-41 0.04245427 0.03377278 -0.19811969
7.2603e-41 0.046105284 4.0537e-41 -0.098385744 0.02358855 -0.007480564 -0.0068726195 7.4003e-41
0.057078782 -0.001152633 -5.2588e-41 0.018388212 3.367e-41 0.0126784975 -0.00093705615 0.040642813
0.021532368 -2.0569725e-26 -0.012957243 0.0016361146 0.052658495 0.03523164 -0.34105703 0.03878515
-6.4896e-41 -0.0039324877 0.035544652 0.13781972 -0.0063060285 -0.18274322 0.00501328 -0.10079804
-1.1266478e-28 0.114498995 9.1051e-41 0.061615467 0.009433729 -0.01699061 -8.9769e-41 0.027901746
-1.39069e-40 7.623e-42 5.7166e-41 0.09519147 0.04132872 -8.7238e-41 0.0019413196 0.0016523845
8.9557e-41 7.7745e-41 0.0017532243 -2.7153517e-15 0.05503992 -0.059800778 8.8272e-41 0.017880337
0.038903423 0.00066347676 1.8675e-41 1.8426e-41 -0.10625728 0.023886824 0.044649407 -0.07211635
0.057899684 -0.024838572 0.024325857 -0.018538343 0.040675752 0.050369773 0.0033046927 0.060535304
0.0069089574 0.030885803 0.097974636 0.020832641 1.97404e-40 -5.3298e-41 -0.012196699 -6.4406e-41
0.015592619 9.171e-42 0.017955184 0.049952175 0.035629008 -0.004989753 0.018987259 -6.7002e-41
1.2764877e-11 0.07698699 0.008841175 -0.0343637 0.11400163 0.012003382 0.008757068 0.029924879
-2.2153e-41 -3.9215e-41 0.052867338 0.016832607 0.042125642 0.033640046 0.012296441 0.09675148
0.04523936 0.043343 2.4068785e-11 -0.004919074 -0.011906667 -1.45421e-40 4.4752e-41 0.005005975
-7.5236e-41 2.932e-41 2.937e-41 1.6137e-41 -6.4774e-41 -3.00249e-40 -6.701e-42 -2.5781e-41
-1.865e-41 -2.2964e-41 -7.0282e-41 2.0411e-41 -1.83653e-40 -1.0879e-40 -1.4845e-41 -8.54e-42
2.4774e-41 -6.8383e-41 -2.9437e-41 -3.3008e-41 3.9158e-41 -5.2518e-41 -7.8726e-41 1.512e-42
3.7377e-41 1.9796e-41 2.84e-42 1.833e-41 -1.9509e-41 -1.06225e-40 8.7595e-41 -5.0919e-41
7.0749e-41 -3.8995e-41 -7.3261e-41 7.4933e-41 -4.5502e-41 1.9444e-41 -1.08497e-40 1.69587e-40
4.3499e-41 -4.2698e-41 -1.3873e-40 4.4238e-41 -3.7633e-41 1.56e-42 -6.6622e-41 -9.6842e-41
5.649e-41 -1.2131e-41 -7.7549e-41 -7.29e-43 2.0629e-41 9.1544e-41 -6.3846e-41 1.062e-40
-1.142e-41 3.8889e-41 1.43443e-40 2.584e-42 -7.6772e-41 6.8631e-41 -2.67705e-40 3.1529e-41
-4.7801e-41 6.2222e-41 -9.4729e-41 9.381e-41 -4.8736e-41 -5.5002e-41 5.4176e-41 6.2722e-41
-8.0987e-41 1.9344e-41 -6.2248e-41 -6.1566e-41 2.36678e-40 2.79214e-40 7.291e-41 9.889e-42
-9.8724e-41 -5.2376e-41 -7.2968e-41 -5.4523e-41 -2.8278e-40 5.0248e-41 -1.274e-41 -5.0218e-41
4.928e-42 1.28e-43 5.0713e-41 8.2586e-41 6.3089e-41 4.535e-41 4.7627e-41 6.2653e-41
6.417e-41 5.953e-42 2.012e-42 6.7251e-41 -4.6864e-41 -1.954e-41 -5.377e-41 -4.0893e-41
-6.0644e-41 -2.0902e-41 9.2462e-41 -6.1101e-41 6.7154e-41 -8.1596e-41 6.7344e-41 -3.1165e-41
-7.4068e-41 -1.22878e-40 -4.553e-42 8.2218e-41 6.6161e-41 7.6096e-41 1.0112e-41 2.188e-41
2.105e-41 1.931e-41 -1.0023e-41 4.296e-42 5.2019e-41 5.8542e-41 -3.5202e-41 1.9062e-41

weight f4 [1, 128]
00000000: 82e9 e8be 92ee 0bbe 2f12 27bd 8ac0 8abe
00000010: a014 5d3e 5c03 6ebe 2031 943e efe4 01bc
00000020: 76f5 00bf 2730 b1be a487 82bd 26ad 893d
00000030: ea7f bbbe 4d09 59bc 97f9 bebe 1203 0c3e
00000040: c3d4 3ebc 4cca 96be 4f6f 24be 2c34 3e3e
00000050: 76f1 3abe 73f0 0b3d a86a 0f3d 11c5 d43d
00000060: e185 75be df75 23be cc5d 9cbe c9a2 cebd
00000070: a5ed c0be 0dbe 9fbe 7e4e 83be 86e8 b8be
00000080: f98b 633c 97a0 cfbd 9fb1 e93c e8b7 893d
00000090: a77f 17bd 1094 963d 26b8 4c3d c43b 783d
000000a0: a00b babd f0a3 a73c cf76 8fbe 6f52 5abe
000000b0: c651 cc3d 66de 1a3e 177c 7d3b b63a 753e
000000c0: fd17 b3bd b35c c8bc a3a0 e83d d759 66be
000000d0: c80f a13d 1f59 293e 0245 983e 1352 e1bd
000000e0: 8990 90bd a41a 683d 7f47 903d d7cc ec3d
000000f0: 20c9 f4bc 9de5 34bd c11b 7fbe 06f5 acbe
00000100: 0448 a8be 213d 65be a6e4 3a3d c0cb 17be
00000110: 2181 0ebe 2729 543e fe80 ffbd 9e44 583e
00000120: caac 96bd 003f 19bd 3467 3bbe 23ec 8fbe
00000130: 5f48 423e d25a 0c3e 64fa cbbe fb91 3c3e
00000140: 9f76 78be 39cc 08be bae9 0e3d b103 a73d
00000150: 9b16 b7bc fc19 b5be b81a a8bd d386 00be
00000160: d176 243e cd05 21be 318a 8abe 1e8e 53bb
00000170: fd14 98be eee8 f2bd 35e2 8dbe 5a18 553e
00000180: e3fa a3bd fd9c 12be c9da 98be 975b b3be
00000190: 3b33 ae3b 95f6 803e 3ed3 f0bb 6f5d 533d
000001a0: c78e b0bd a483 be3b fa38 95bd 09f4 f2be
000001b0: db18 4dbc d029 97be d03e 31be 55b5 bf3c
000001c0: d31f d23d bb2f 8dbe e026 4fbc 80c9 ffbc
000001d0: cc85 93be a9b9 f7bd 5491 f13d adf3 96be
000001e0: 687d bdbe 605b 53be a877 1bbe 91d3 fabe
000001f0: a7ba d6bd bdd8 a3bd 5786 b2bd 8373 a5be
-0.45490652 -0.13665226 -0.040788826 -0.2710002 0.21589899 -0.23243469 0.2894373 -0.007928117
-0.50374544 -0.3460705 -0.06373528 0.067224786 -0.36621028 -0.013246846 -0.37299797 0.13673046
-0.011647406 -0.29451215 -0.16058086 0.1857459 -0.18256173 0.034164857 0.035013825 0.1038915
-0.23976852 -0.15962933 -0.3054031 -0.100896426 -0.37681308 -0.31199685 -0.25645822 -0.361149
0.013888353 -0.10138052 0.02852708 0.067245305 -0.036986973 0.073524594 0.049980305 0.060603872
-0.090842485 0.020463914 -0.2802033 -0.21320508 0.099765345 0.15123901 0.00386787 0.23948178
-0.0874481 -0.024458265 0.11358764 -0.22495209 0.07864338 0.16537903 0.2974015 -0.110019825
-0.07058818 0.05666603 0.07044887 0.115625076 -0.02988106 -0.04416429 -0.24912931 -0.33780688
-0.32867444 -0.223866 0.045628212 -0.14823818 -0.13916446 0.20718823 -0.12475775 0.21119925
-0.07357176 -0.037413597 -0.18301088 -0.28109846 0.1897292 0.1370652 -0.3983947 0.18415062
-0.24264 -0.13359155 0.034890868 0.08155001 -0.022349646 -0.35371387 -0.08208221 -0.12551431
0.1606095 -0.15724869 -0.27058557 -0.0032280753 -0.29703513 -0.11860834 -0.27711645 0.2081007
-0.08006837 -0.14317699 -0.2985442 -0.35030815 0.0053161657 0.25188127 -0.007349401 0.051602777
-0.086209826 0.0058140326 -0.07286258 -0.4745181 -0.012518133 -0.29524088 -0.17309117 0.023401896
0.10259976 -0.27575478 -0.012643546 -0.031224012 -0.28813016 -0.12095959 0.11795297 -0.29482785
-0.3700974 -0.20640326 -0.15182364 -0.48989537 -0.1048482 -0.08000324 -0.087170295 -0.3231469

weight f4 [128, 256]
00000000: ad33 0000 2e05 0080 41ed 0080 f7a9 0000
00000010: 1cfa 0080 37fc 0000 ea11 0000 99cd 0080
00000020: c579 0180 a94a 0100 2cca 0000 d987 0080
00000030: 4641 0000 e535 0180 a950 0080 8015 0100
00000040: 0766 0180 74d8 0080 c907 0180 c5d7 0080
00000050: 0512 0100 c80b 0080 940c 0180 1e77 0080
00000060: 2fad 0080 dd2b 0000 d2b7 0080 22b9 0200
00000070: abf2 0000 06f9 0080 3dbb 0080 0d2e 0000
00000080: e559 0000 75af 0000 bb62 0000 f62a 0280
00000090: 3012 0100 589f 0180 1a51 0000 7b0d 0100
000000a0: c9e7 0080 1a9d 0000 77f1 0000 4d65 0080
000000b0: 5ad0 0000 830e 0180 e58a 0000 ceb4 0080
000000c0: bd08 0080 5fd8 0080 6037 0080 72f2 0000
000000d0: 2707 0180 44b9 0000 b04a 0280 26d2 0180
000000e0: be3d 0000 e6cf 0000 f232 0100 5f18 0000
000000f0: 5509 0280 3166 0200 4740 0080 1652 0000
00000100: c220 0180 14b0 0000 89d1 0000 c880 0100
00000110: f9df 0080 2ed9 0080 c017 0080 2daf 0000
00000120: 22a5 0280 18a9 0000 7dd4 0080 bca8 0000
00000130: 9c8b 0080 54c3 0180 6efc 0080 0dda 0080
00000140: 6386 0080 857c 0000 eda0 0000 7a90 0080
00000150: 85bb 0080 351e 0180 4735 0100 0955 0000
00000160: b6aa 0080 6a65 0080 1f29 0080 e535 0000
00000170: a321 0080 281a 0000 1320 0000 e3cb 0000
00000180: 3dbf 0080 1ba6 0000 20b9 0000 72da 0000
00000190: 5c9f 0100 ada1 0180 1007 0080 dc3f 0000
000001a0: c456 0080 5333 0080 f91f 0080 2dbf 0000
000001b0: 1962 0000 791f 0100 813c 0080 57eb 0080
000001c0: 30b0 0080 c153 0080 60b2 0000 fa2b 0080
000001d0: b002 0000 c42a 0000 9be7 0000 d6c2 0080
000001e0: 15ee 0080 5310 0180 e8f3 0000 68c4 0080
000001f0: 3be2 0100 2639 0180 8675 0000 32e0 0080
00000200: 9b50 0100 2208 0100 fcdf 0080 f588 0100
00000210: f8de 0080 8df4 0000 6b29 0080 f0a7 0080
00000220: 39da 0000 fa06 0180 7378 0080 cdbc 0080
00000230: f32b 0280 945e 0080 dc67 0180 7602 0080
00000240: 2a25 0080 be84 0000 b216 0180 6cea 0180
00000250: 76fc 0080 3593 0080 5223 0000 f537 0000
00000260: e4dc 0000 21c4 0200 52f4 0100 0abc 0080
00000270: a8e2 0000 bdd5 0000 a2ea 0000 2a01 0000
00000280: 2924 0100 1a0a 0000 b782 0080 daf4 0080
00000290: 8ff0 0080 181a 0000 42fe 0000 5e08 0000
000002a0: 890c 0000 2a10 0180 0b49 0180 5730 0100
000002b0: 2b74 0000 8957 0080 2d7e 0000 7902 0180
000002c0: 662c 0100 dff3 0080 d95d 0100 56ea 0080
000002d0: d72e 0100 9df9 0000 d158 0100 8e55 0000
000002e0: 0eee 0000 f896 0000 9ba0 0080 c705 0100
000002f0: e833 0180 f4a4 0100 52e5 0000 5ec9 0000
00000300: d51a 0000 ea4f 0000 6a00 0180 4723 0280
00000310: b8b8 0080 9e52 0000 ecf8 0080 0895 0180
00000320: d214 0180 ab04 0180 f742 0080 de27 0100
00000330: 664c 0000 c89c 0200 8b2d 0100 9e45 0100
00000340: 1fc8 0100 4792 0080 6c89 0280 606a 0080
00000350: 8122 0100 0b68 0080 19e9 0180 97f9 0080
00000360: 5364 0100 7221 0100 52c7 0000 95e0 0080
00000370: 9797 0000 76fe 0100 d281 0100 2a22 0180
00000380: bd5a 0100 4362 0080 de96 0180 3db2 0080
00000390: ce58 0100 799d 0000 46e0 0000 e8a9 0000
000003a0: a65d 0100 c559 0180 1874 0080 db49 0000
000003b0: ad26 0180 2125 0180 36a0 0000 77e8 0000
000003c0: 8383 0180 1c19 0000 1c22 0000 5660 0080
000003d0: 0845 0000 703f 0180 d847 0000 8ae7 0000
000003e0: a538 0100 76ff 0080 04a8 0080 6bdc 0000
000003f0: 789c 0100 cc7b 0080 e015 0180 a74b 0000
1.8538e-41 -1.858e-42 -8.511e-41 6.0972e-41 -8.9722e-41 9.0478e-41 6.426e-42 -7.3755e-41
-1.35518e-40 1.18619e-40 7.2526e-41 -4.8733e-41 2.3416e-41 -1.11169e-40 -2.8935e-41 9.9548e-41
-1.28436e-40 -7.7649e-41 -9.4628e-41 -7.7404e-41 9.83e-41 -4.226e-42 -9.6348e-41 -4.2731e-41
-6.2127e-41 1.5735e-41 -6.5942e-41 2.50084e-40 8.7053e-41 -8.9333e-41 -6.7168e-41 1.652e-41
3.2248e-41 6.2942e-41 3.5418e-41 -1.99082e-40 9.836e-41 -1.48997e-40 2.9094e-41 9.6671e-41
-8.3149e-41 5.6357e-41 8.6621e-41 -3.634e-41 7.4742e-41 -9.7041e-41 4.9826e-41 -6.486e-41
-3.135e-42 -7.762e-41 -1.9865e-41 8.6973e-41 -9.4401e-41 6.6461e-41 -2.10464e-40 -1.67223e-40
2.2149e-41 7.458e-41 1.10111e-40 8.743e-42 -1.87019e-40 2.2033e-40 -2.3058e-41 2.9447e-41
-1.03587e-40 6.3165e-41 7.5167e-41 1.38034e-40 -8.0346e-41 -7.791e-41 -8.52e-42 6.2841e-41
-2.4291e-40 6.066e-41 -7.6226e-41 6.053e-41 -5.0082e-41 -1.61906e-40 -9.0555e-41 -7.8222e-41
-4.8209e-41 4.4669e-41 5.7729e-41 -5.1828e-41 -6.727e-41 -1.02672e-40 1.10948e-40 3.0505e-41
-6.124e-41 -3.638e-41 -1.4751e-41 1.9334e-41 -1.2067e-41 9.383e-42 1.1506e-41 7.3141e-41
-6.8603e-41 5.9587e-41 6.641e-41 7.8363e-41 1.49003e-40 -1.49834e-40 -2.534e-42 2.2908e-41
-3.1126e-41 -1.8412e-41 -1.147e-41 6.8581e-41 3.5191e-41 1.03126e-40 -2.1705e-41 -8.4424e-41
-6.3204e-41 -3.0045e-41 6.3989e-41 -1.5776e-41 9.64e-43 1.5341e-41 8.3084e-41 -6.9894e-41
-8.5408e-41 -9.7692e-41 8.7497e-41 -7.0457e-41 1.72992e-40 -1.12336e-40 4.216e-41 -8.0426e-41
1.20751e-40 9.4753e-41 -8.035e-41 1.40966e-40 -7.9986e-41 8.7728e-41 -1.4858e-41 -6.0245e-41
7.8284e-41 -9.4338e-41 -4.3209e-41 -6.7729e-41 -1.99437e-40 -3.3928e-41 -1.29093e-40 -8.83e-43
-1.3332e-41 4.7619e-41 -9.9977e-41 -1.7593e-40 -9.0566e-41 -5.2808e-41 1.267e-41 2.0074e-41
7.924e-41 2.54029e-40 1.79481e-40 -6.7456e-41 8.1309e-41 7.6675e-41 8.417e-41 4.18e-43
1.04807e-40 3.624e-42 -4.6892e-41 -8.7836e-41 -8.6296e-41 9.36e-42 9.121e-41 3.002e-42
4.497e-42 -9.7634e-41 -1.18038e-40 1.09177e-40 4.1673e-41 -3.1402e-41 4.5263e-41 -9.2723e-41
1.07763e-40 -8.7484e-41 1.25502e-40 -8.4064e-41 1.08638e-40 8.9544e-41 1.23697e-40 3.0691e-41
8.5398e-41 5.4157e-41 -5.7614e-41 9.3908e-41 -1.10456e-40 1.5101e-40 8.2265e-41 7.2237e-41
9.626e-42 2.8668e-41 -9.1984e-41 -1.96326e-40 -6.6265e-41 2.9637e-41 -8.9296e-41 -1.45298e-40
-9.9304e-41 -9.351e-41 -2.4022e-41 1.06137e-40 2.7407e-41 2.39914e-40 1.08173e-40 1.1681e-40
1.63625e-40 -5.2474e-41 -2.32969e-40 -3.816e-41 1.04213e-40 -3.7324e-41 -1.75455e-40 -8.9536e-41
1.27825e-40 1.03833e-40 7.1503e-41 -8.0565e-41 5.438e-41 1.83119e-40 1.38406e-40 -1.04091e-40
1.24386e-40 -3.525e-41 -1.45956e-40 -6.394e-41 1.23693e-40 5.649e-41 8.0454e-41 6.0951e-41
1.2543e-40 -1.24039e-40 -4.1647e-41 2.6494e-41 -1.0571e-40 -1.05155e-40 5.7473e-41 8.3393e-41
-1.39013e-40 9.008e-42 1.2236e-41 -3.4559e-41 2.4764e-41 -1.14593e-40 2.5773e-41 8.306e-41
1.12156e-40 -9.1642e-41 -6.0273e-41 7.9071e-41 1.47966e-40 -4.441e-41 -9.9683e-41 2.7139e-41

bias f4 [128]
00000000: b3ec 2db4 dfb6 643d da2f b2ba 8c94 273b
00000010: a443 643d cd07 183d 6920 f93c 9b93 f63a
00000020: cd3e 2dbc 7de7 2eab 4119 083d d225 b13c
00000030: c4da ffb9 918b 513c df8e d33c bba1 103d
00000040: 2493 36a2 62f9 58bc faa6 65bc 1fa0 bf39
00000050: 8f90 a8bb e392 943c 823d 8d97 790e 8ebb
00000060: 2ca4 8abb 20ee fc3c d77f 103d 83c6 09bc
00000070: 2290 1cbb 58e9 1c3d 6afc 1ca2 452c 1ebc
00000080: 594f 11bb a038 153b bed2 233d ee47 123c
00000090: 6ac3 d63b f69a b3b7 29b5 52b7 b23d 5dbc
000000a0: dff0 5999 026e 68bc a40c 2cbc 0604 3d3d
000000b0: 40a1 5e3d afe9 8f3c 61ef 863b f9f6 a5ab
000000c0: 1f1c eabb 3c9b 09bc 5f6b 8dad a70b 333c
000000d0: 7b99 d13c ff0b 7cbb 87c9 41bc 615f 5f99
000000e0: c0e3 013d 0a42 66bb 827e c93b f069 513c
000000f0: 1cfa 7abc fdce 1f3d 1806 493d acfe b73b
00000100: e2ae ae3c 2d1c 503d 1e90 113d 950d dc3c
00000110: f4d0 9fa0 984c 8cbb bee3 423a 8a60 15bb
00000120: 4eb9 08b7 abaa 5f3d 5595 aebb 6447 98b5
00000130: fbca 0d3d 1db4 253d 78f2 d7bb f7c4 98ba
00000140: 9165 f73c d723 38bc 7a74 4cbb 863f 9bbc
00000150: e016 06b1 5792 343d 62e6 333d 09e4 4ea2
00000160: bb9c d2bb 52f3 73a3 7477 243c 8903 23b3
00000170: cf67 1b3d d02c 3a3d d13a d490 b0aa 99ab
00000180: 5a56 57ba 3333 263d fc09 053d 1ba3 07af
00000190: ead3 663d a5f8 079d b185 a4b9 5270 3e8a
000001a0: 424a 55bb 15e6 063d dbe8 08b3 4aaa 873c
000001b0: 4b35 55bb 64d7 033d 5f81 9d3c a4de 8b3b
000001c0: 1e28 72bb 99fa f3b0 880d 9dbb 2e7f bdbb
000001d0: 2414 2cb8 5b4b a73c 879c e0bb bfd6 15a5
000001e0: fcc1 abba 6752 b7bb 5590 2e3d f4fc 783c
000001f0: e8ed 9f3c af23 fa3c 670d b93b ad81 1ebb
-1.6197991e-07 0.055838462 -0.0013594583 0.0025570719 0.05572857 0.037116814 0.030410962 0.00188123
-0.010574055 -6.213847e-13 0.03322721 0.02162448 -0.00048800383 0.012789623 0.025824962 0.03531049
-2.4743495e-18 -0.013243051 -0.014016861 0.00036549658 -0.005144186 0.018136447 -9.127438e-25 -0.0043352214
-0.0042309966 0.030875266 0.035278168 -0.008409145 -0.002388962 0.03830847 -2.127557e-18 -0.009654109
-0.002217254 0.0022769347 0.0399959 0.008928282 0.006554057 -2.1410622e-05 -1.2559155e-05 -0.013503479
-1.12672806e-23 -0.014186384 -0.010501061 0.046146415 0.054353 0.017567484 0.0041178917 -1.1792504e-12
-0.0071444656 -0.008398827 -1.6077526e-11 0.010928071 0.02558588 -0.0038459299 -0.011827833 -1.15480914e-23
0.03171134 -0.0035134577 0.006149114 0.012781605 -0.01531842 0.03901576 0.049078077 0.005615076
0.021323625 0.05080812 0.03553783 0.026861945 -2.7073921e-19 -0.0042815916 0.0007434449 -0.0022793137
-8.149376e-06 0.05460612 -0.0053278604 -1.134566e-06 0.034617405 0.040454973 -0.006590184 -0.001165538
0.030199798 -0.011239014 -0.0031197355 -0.018951189 -1.951257e-09 0.044084873 0.043920882 -2.8038927e-18
-0.006427375 -1.32245815e-17 0.0100382455 -3.795461e-08 0.037940796 0.045452893 -8.3709877e-29 -1.0918679e-12
-0.00082144665 0.04057617 0.032480225 -1.2336125e-10 0.05635444 -1.7995647e-21 -0.00031380125 -9.169292e-33
-0.0032545482 0.032934267 -3.187675e-08 0.016560692 -0.0032532986 0.032187834 0.019226728 0.004268484
-0.0036950181 -1.7751801e-09 -0.004792873 -0.0057829833 -4.1026753e-05 0.020421674 -0.006854597 -1.2996449e-16
-0.0013104076 -0.00559454 0.042618115 0.0151970275 0.019522622 0.030534593 0.0056473496 -0.002418618

weight f4 [64, 128]
00000000: 63da 0000 fd2f 55bd d21c 0abc 7230 ca3a
00000010: 1ad7 73bb b8b3 febb b8ff ad3d 9d27 a539
00000020: 4ee0 b8bd 430a 0000 7c8e 8fbd 2b1c 803d
00000030: 9c8d 4226 0c6d a23d 8ba7 e93d a084 333d
00000040: b5b0 0280 f3a1 b2bb 3302 eabd dca7 8eba
00000050: e3e6 5cba 1e82 5c3d 22cc 0080 d671 a63b
00000060: 6c70 e83b 64ae ffbd ace9 8c3d 7483 cda7
00000070: 669d 2c3a 76cf c03c 1b20 0080 45f3 8039
00000080: dcbb 0439 1e37 4d37 4226 89bd 3a45 e3bd
00000090: 0ec9 673d a6e1 93a1 45b1 0000 38cb 3fbc
000000a0: c703 0000 64cb f73c acd3 bdbb 8c4c 32bd
000000b0: 208a 1cbd cdc8 b33d cadb c8bd 6f88 0080
000000c0: 2bc7 783b 7c3c 0bbe e53c 0000 fddc 02be
000000d0: 4ca0 9ebd c1ee 0cbe caa0 2a3b 9204 0000
000000e0: 779b c13d 1d01 073a 311a a2bd 760c a43d
000000f0: fee7 d6bb e345 813d ddfe 83bd c17a 12ba
00000100: b51e 303c e080 aabd bf57 af3d a668 cdbd
00000110: 5516 0100 ad59 3fb9 5bc3 dd3c c552 bb3d
00000120: e70b 0080 9490 7c3d 5459 31bb 886f 8c89
00000130: e9a2 fcbd 63ce 883d b1af 8e3b 7e2f 1e39
00000140: a4cd ec3d 1882 fbba 88f1 273a e3e5 8c3b
00000150: e798 34ae 0ea7 f8bd ed31 a7bd df40 0080
00000160: ab9e f933 041e 0080 c09a 843d 7a63 0000
00000170: 7807 55bd bfc4 733d 7d27 0000 9e1a 0000
00000180: a18d 4ab8 d444 00be 9911 e93d 186d 0100
00000190: eae2 b6bd 6649 0000 2060 3b39 b338 0080
000001a0: ca9c 91b9 ed52 a9bd f191 de9c 2957 9cbd
000001b0: 1af8 1f3b 5394 843d 98d3 a4bd e0e5 3eba
000001c0: d6c9 e4bd 030d e2a8 0be2 063d 801c 43ba
000001d0: 5564 dcb1 0601 01be 6fad bb95 0f92 0080
000001e0: f857 0737 528e c83d 501e d8bd 14d8 a83d
000001f0: 386c c53d 2862 153d 1037 be3d 5e1d a139
00000200: d30a 0180 8f88 0000 fc49 0000 d767 0080
00000210: 517f 0080 c881 0080 53bc f784 b3da 0000
00000220: dcd6 0f00 e019 0080 3e48 0000 76a2 1e20
00000230: 5a9f 0080 a927 0080 0a58 2b1b 2c2d 9d04
00000240: e6af 0000 9f5b 0000 c21b 0000 7107 0080
00000250: 1568 0000 f123 0380 d1e6 0000 0470 0100
00000260: 5f2e 0400 386a 0080 7a40 b507 6829 0080
00000270: 0905 0000 190f 0000 f0db 0080 97ae 0000
00000280: a60a 0100 ff32 0080 6223 0080 ab24 0080
00000290: 9c02 0000 5234 0000 490a 0080 c8d0 0100
000002a0: a9e7 0080 7969 0000 fa54 0080 d27d 0080
000002b0: be8a 8e85 1d78 0000 92d6 0000 103e 0100
000002c0: 4549 0080 e182 0080 e713 0180 df69 0080
000002d0: 1246 0080 17a0 0080 b52d 0100 a7ea 0180
000002e0: 48ff d209 dfb9 0080 26ef 0080 6225 0080
000002f0: bac2 0000 8def dc23 ea9f 0080 c523 0080
00000300: f07d 0000 bfb9 0080 6304 0080 5754 0000
00000310: 74a9 0000 a986 0100 e122 0080 8a83 0080
00000320: d928 0080 b5b9 0080 2b5d 0000 961f 0180
00000330: cb4b 0000 ff97 1600 e74b 0080 9710 0000
00000340: e435 4810 82ab 0080 3acd 0080 6872 0080
00000350: fa1f 0400 dc80 0080 c264 0000 b8ef 0080
00000360: 91a9 0000 4169 0080 711c 0080 3ece 0080
00000370: e024 0080 da1d 0000 9461 0180 e93b 0000
00000380: e41a 0200 045d a08a 76a7 140f 41b9 0000
00000390: 710d 0000 c4e1 0000 5819 0080 8700 0180
000003a0: cfc9 0000 8a5a 0080 9fe2 0080 5788 4124
000003b0: 3b2a 0000 6f7f 0080 92b8 0000 aa69 0000
000003c0: 412d 0080 6d4e 0080 7b12 0000 9edd 0000
000003d0: 1e7d 0000 134c f50f 09e3 0000 657a 0000
000003e0: e090 0100 9a63 0000 dbd4 e294 d466 0000
000003f0: d336 0080 2997 0000 9848 0000 66e0 0080
7.8342e-41 -0.05204772 -0.008429723 0.0015425815 -0.0037207068 -0.007772889 0.0849604 0.00031500767
-0.09027158 3.681e-42 -0.070095986 0.062553726 6.749919e-16 0.07930955 0.114089094 0.043827653
-2.47062e-40 -0.0054514348 -0.11426201 -0.0010883766 -0.0008426739 0.053835027 -7.3229e-41 0.0050794883
0.00709348 -0.12484434 0.06880507 -5.704145e-15 0.00065847335 0.023536425 -1.1517e-41 0.00024595312
0.00012658484 1.2231785e-05 -0.0669675 -0.11097188 0.056588225 -1.0020836e-18 6.3592e-41 -0.011706166
1.355e-42 0.030248351 -0.0057930555 -0.043530032 -0.038217664 0.08778534 -0.098075464 -4.8943e-41
0.003796051 -0.13597292 2.1845e-41 -0.12779613 -0.07745418 -0.13762952 0.002603578 1.64e-42
0.09453481 0.0005150007 -0.07915152 0.08010189 -0.0065584173 0.06312158 -0.06445096 -0.000558775
0.010749509 -0.08325362 0.08561658 -0.10029726 9.9847e-41 -0.00018248586 0.027070692 0.091466464
-4.27e-42 0.061661318 -0.00270613 -3.3808658e-33 -0.1233576 0.0667999 0.00435444 0.00015085746
0.1156266 -0.0019188551 0.00064065354 0.0042998656 -4.1063066e-11 -0.12141238 -0.081638195 -2.3271e-41
1.16238276e-07 -1.0768e-41 0.06474829 3.5685e-41 -0.052009076 0.059513804 1.4166e-41 9.548e-42
-4.8292455e-05 -0.12526256 0.113803096 1.30971e-40 -0.08929999 2.633e-41 0.00017869519 -2.034e-41
-0.00027773372 -0.0826777 -1.4728453e-21 -0.07633812 0.0024409355 0.06473603 -0.08048171 -0.0007282179
-0.1117131 -2.5096683e-14 0.032930415 -0.00074429065 -6.414249e-09 -0.12598047 -7.580233e-26 -5.2396e-41
8.067109e-06 0.097927704 -0.10552657 0.08244339 0.09639782 0.036470562 0.09287846 0.00030730193
-9.5718e-41 4.8988e-41 2.654e-41 -3.7251e-41 -4.5673e-41 -4.6557e-41 -5.824237e-36 7.8454e-41
1.45461e-39 -9.282e-42 2.5916e-41 1.3436874e-19 -5.7165e-41 -1.4227e-41 1.4173235e-22 3.6952006e-36
6.31e-41 3.2867e-41 9.958e-42 -2.67e-42 3.7338e-41 -2.884e-40 8.2801e-41 1.32019e-40
3.83977e-40 -3.8104e-41 2.727175e-34 -1.4854e-41 1.806e-42 5.416e-42 -7.8899e-41 6.2631e-41
9.5655e-41 -1.8294e-41 -1.2693e-41 -1.3154e-41 9.36e-43 1.8769e-41 -3.69e-42 1.66732e-40
-8.3104e-41 3.7836e-41 -3.0484e-41 -4.5136e-41 -1.3404582e-35 4.3089e-41 7.6973e-41 1.141e-40
-2.6284e-41 -4.695e-41 -9.8975e-41 -3.798e-41 -2.5136e-41 -5.743e-41 1.08232e-40 -1.76013e-40
5.0795726e-33 -6.6678e-41 -8.579e-41 -1.341e-41 6.9855e-41 2.3953901e-17 -5.7366e-41 -1.2832e-41
4.5178e-41 -6.6633e-41 -1.574e-42 3.0255e-41 6.0788e-41 1.40142e-40 -1.2512e-41 -4.7187e-41
-1.4653e-41 -6.6619e-41 3.3422e-41 -1.03166e-40 2.719e-41 2.074907e-39 -2.7229e-41 5.951e-42
3.948456e-29 -6.1525e-41 -7.3621e-41 -4.1041e-41 3.78813e-40 -4.6226e-41 3.6145e-41 -8.5995e-41
6.0829e-41 -3.7758e-41 -1.0203e-41 -7.3986e-41 -1.3228e-41 1.0709e-41 -1.2684e-40 2.1492e-41
1.93318e-40 -1.5442428e-32 7.329215e-30 6.6457e-41 4.822e-42 8.099e-41 -9.092e-42 -9.2025e-41
7.2395e-41 -3.2479e-41 -8.1296e-41 4.1965688e-17 1.515e-41 -4.5715e-41 6.6211e-41 3.7905e-41
-1.6234e-41 -2.8134e-41 6.63e-42 7.9501e-41 4.4884e-41 2.4188168e-29 8.1445e-41 4.3907e-41
1.43807e-40 3.573e-41 -2.2904125e-26 3.6888e-41 -1.9667e-41 5.4226e-41 2.6042e-41 -8.0499e-41

bias f4 [64]
00000000: e39e b63d 6f35 f5b6 8cf5 f53d 437b be3d
00000010: 733f 763d 2708 c6ba 4311 1d3d ae82 ab3d
00000020: fcb0 843d e97d 5b3d 7450 3d3d ee27 90a2
00000030: 11b9 8d3d 36d2 9d3d 081c 833d 7c54 053e
00000040: 222a 3e3c 53f6 ec3d 19d3 a33d 14f1 b2bd
00000050: d779 0aa2 4d1a 8fbc e3bd 803d ab74 813c
00000060: 5616 f9ab 6bfb a33d 7f09 743d 0730 863d
00000070: 9527 393d e9bb 833d 9b57 163d 5831 7cb0
00000080: 718d 5d3d 755d 123d b51d 6939 37db 5fae
00000090: 1d42 d83c a101 e63d 2572 b73d a5e4 0398
000000a0: bd8d 9fba 9799 6f8e b372 b93d 225f 543d
000000b0: a87e af3c 8e47 f63d 110b 0fbc a7f2 8ab0
000000c0: c644 e43d 80a4 b0a9 6e1c dd3d f3cd 119e
000000d0: e48d 2a3d eba7 6a3d 7ee2 7fbd d7ac 293d
000000e0: 6cdc b83d 7568 c73d 9403 ef3d 1963 b8b3
000000f0: 5ca3 c83d 4120 b2ba eca7 d43d 1aff cabc
0.08917024 -7.3077895e-06 0.12009725 0.09300854 0.060119104 -0.0015108631 0.03834654 0.083745345
0.064790696 0.053586874 0.046219304 -3.9073555e-18 0.06920064 0.0770611 0.06401831 0.1302051
0.011606725 0.1157042 0.07999248 -0.08737388 -1.8766989e-18 -0.017468596 0.06286218 0.015802702
-1.7698714e-12 0.080069385 0.05957937 0.06552129 0.045203764 0.064323254 0.03670464 -9.174719e-10
0.054089967 0.03573366 0.00022231678 -5.089903e-11 0.026398713 0.112307794 0.08957318 -1.704679e-24
-0.0012172979 -2.9532975e-30 0.0905508 0.05184854 0.0214227 0.12025367 -0.008730666 -1.0109787e-09
0.1114593 -7.844506e-14 0.10796438 -7.718825e-21 0.041639224 0.057289045 -0.06247186 0.0414246
0.09026417 0.097367205 0.11670604 -8.5861934e-08 0.09796783 -0.0013589935 0.10383591 -0.024779845
